d2/model-state-dict.pt (torch, 811821 bytes, 13 tensors)

net.0.weight f4 [200, 2]
0	0x3da8e564	0.08246878
1	0x3c897ab3	0.01678214
2	0xbd50ff58	-0.051024765
3	0x3cca3bff	0.024686811
4	0x3d9f3c07	0.07775121
5	0x3c69d009	0.014270791
6	0xbdabeed4	-0.08395162
7	0x3cc2be84	0.023772486
8	0xbd5eced5	-0.05439647
9	0x3cc6d6a7	0.024272276
10	0x3da395f3	0.07987585
11	0x3c8143f7	0.015779478
12	0xb98a8a54	-0.00026424474
13	0xbdb8ffdd	-0.09033177
14	0xbdc96160	-0.09833026
15	0x3c81ed53	0.015860235
16	0xbd26d741	-0.040732626
17	0x3c52ad4b	0.012858699
18	0xbc5e18de	-0.0135557335
19	0xbd5e1080	-0.054214954
20	0x3cd7daaa	0.026349384
21	0xbcc8f308	-0.024529949
22	0xbde4e807	-0.11177068
23	0x3c714c1f	0.014727621
24	0x3c7ccf91	0.015430347
25	0xbcd532c8	-0.026025191
26	0xbe03016d	-0.12793513
27	0x3c6e7f19	0.01455667
28	0xbd9c1f40	-0.07623148
29	0x3cce6b50	0.025197655
30	0x3d5ec717	0.054389086
31	0x395b7132	0.00020927636
32	0xbbb247c6	-0.005440685
33	0xbc6f9cf3	-0.014624822
34	0x3d7035e9	0.058645163
35	0x3b5fea20	0.003416665
36	0xbd0b08db	-0.033943992
37	0x3d549897	0.051903334
38	0xbaf0dda5	-0.0018376602
39	0xbb39ed5c	-0.0028370237
40	0xbd9fd972	-0.07805146
41	0x3cd8d39a	0.026468087
42	0xbc6af17d	-0.014339802
43	0xbd181e19	-0.03713808
44	0xbcfdede5	-0.030997226
45	0xbdbc60bd	-0.09198139
46	0xbd65a387	-0.056064155
47	0x3cc52f87	0.024070514
48	0xbd9b0867	-0.07569962
49	0x3cd0001d	0.025390679
50	0x3d814fba	0.06314035
51	0x3b9c2333	0.0047649383
52	0x3da65a64	0.081227094
53	0x3c6db6a0	0.014508873
54	0x3d4760df	0.048676368
55	0xbba620c7	-0.0050698253
56	0xbd591963	-0.053002726
57	0x3cc6002f	0.02417001
58	0x3d0ecc78	0.034862965
59	0xbcdc9965	-0.026928613
60	0xbd064245	-0.032778043
61	0x3d5df18f	0.054185446
62	0x3d64cd66	0.055859946
63	0x3a2deead	0.0006634992
64	0xbc3fef0d	-0.011714709
65	0xbcf2f985	-0.029659996
66	0xbda7d4e5	-0.08194903
67	0x3cc28597	0.023745341
68	0x3d5bf5d2	0.05370123
69	0xba450fd2	-0.0007517311
70	0x3d5505be	0.05200743
71	0xbac303bb	-0.0014878431
72	0xbd5c89a7	-0.053842213
73	0x3cc2134d	0.023690844
74	0x3d42eab9	0.04758713
75	0xbbe2ba6b	-0.0069191954
76	0x3dcced9b	0.10006257
77	0x3cbb84c0	0.022890449
78	0x3da3c0f7	0.079957895
79	0x3c80d8e2	0.015728418
80	0xbd543f33	-0.051818084
81	0x3cc6f5a3	0.02428705
82	0xbc93d0a8	-0.018043831
83	0xbe5b7d1f	-0.21434449
84	0x3dad468a	0.0846072
85	0x3c91ee4c	0.017813824
86	0x3d90ac79	0.070641465
87	0x3c25384e	0.010084225
88	0xbd74f265	-0.059801478
89	0x3ccd1653	0.02503506
90	0xbc3525bd	-0.011056361
91	0x3dde7c27	0.10863524
92	0xbd907d4b	-0.07055148
93	0x3cdaba72	0.026700232
94	0xbd34905c	-0.044082984
95	0x3c82af1d	0.015952641
96	0xbd49b27b	-0.049242478
97	0x3cc2dddd	0.023787433
98	0x3d27a8ac	0.040932342
99	0xbc8ce3aa	-0.017198402
100	0x3d8aac4b	0.067711435
101	0x3becc010	0.007225044
102	0xbd670108	-0.056397468
103	0x3cc9dd59	0.02464168
104	0xbd3bb6b3	-0.045828532
105	0x3ccfd628	0.025370672
106	0xbd4efa35	-0.050531585
107	0x3c9d50cb	0.019203564
108	0xbcb90e3e	-0.022589799
109	0xbd6e58f6	-0.05819031
110	0x3d12a7f4	0.035804704
111	0xbcd9b3a4	-0.026574917
112	0xbd804c89	-0.06264598
113	0x3cd0eec6	0.025504481
114	0xbdb93f4a	-0.090452746
115	0x3c6f39fa	0.014601225
116	0x3c34041c	0.010987308
117	0xbc9d0f85	-0.01917244
118	0xbdde00b4	-0.10839978
119	0x3c73fa9d	0.014891294
120	0xbd6116c2	-0.054953344
121	0x3c92cb14	0.0179191
122	0xbc3a830d	-0.011383784
123	0xbd9160d9	-0.0709855
124	0x3d33fcc3	0.043942224
125	0xbc3979b9	-0.011320525
126	0xbd44cf22	-0.0480491
127	0x3cf6334e	0.03005376
128	0xbd356c8a	-0.044292964
129	0x3cc2ca46	0.023778092
130	0xbd53c0ee	-0.051697664
131	0x3c924c26	0.017858576
132	0xbd874bde	-0.066062674
133	0x3ccdf526	0.02514131
134	0x3d818714	0.06324592
135	0x3bd93af6	0.006629343
136	0x3d01835d	0.03161942
137	0xbd3df575	-0.046376664
138	0xbda33bc9	-0.079703875
139	0x3d3f15e6	0.046651743
140	0xbd4eed28	-0.05051914
141	0x3c9561fb	0.018235197
142	0xbd3600f4	-0.044434503
143	0x3c6637c0	0.014051378
144	0xbd2e3ca8	-0.042538315
145	0x3ca5459b	0.020174792
146	0xbdb39e2a	-0.08770402
147	0x3c683181	0.014171959
148	0xbdbd2693	-0.09235873
149	0x3c747517	0.0149204945
150	0x3d55a2b8	0.052157134
151	0xba87dfd8	-0.0010366393
152	0xbd90c830	-0.07069433
153	0x3cdfaaf0	0.027303189
154	0xbd89d9f4	-0.067310244
155	0x3cdb991f	0.026806412
156	0x3cee1f92	0.029067788
157	0xbcff0267	-0.031129075
158	0xbd81fe2a	-0.06347306
159	0x3cd486b2	0.025943134
160	0x3d9fdd6b	0.07805904
161	0x3c7db76f	0.0154856285
162	0x3cfa5dfe	0.030562397
163	0xbce10f39	-0.027473079
164	0xbb5be19e	-0.0033551226
165	0xbbdf5210	-0.0068152025
166	0x3d53964b	0.051657002
167	0xba7e5f72	-0.00097035535
168	0x3bbc0f63	0.005739139
169	0xbd3c60e8	-0.045990855
170	0xbc67bcf7	-0.014144174
171	0xbd6c3ece	-0.057677083
172	0xbc8008ca	-0.015629191
173	0x3d838f17	0.064237766
174	0xbd4a5bab	-0.049403828
175	0x3cfbb104	0.030724056
176	0xbdbe1cf2	-0.09282865
177	0x3c7599da	0.014990294
178	0xbd466518	-0.048436254
179	0x3cf7a1ec	0.030228578
180	0x3d1336cf	0.03594094
181	0xbce03ca5	-0.027372668
182	0xbd384aa0	-0.044993043
183	0x3c82c5c1	0.015963437
184	0x3cc9cf69	0.024635034
185	0xbcd78de2	-0.026312772
186	0x3d2fd0db	0.04292379
187	0xbc4a2052	-0.012336807
188	0x3d517eb7	0.051146235
189	0xbb4839dd	-0.0030552067
190	0xbb49c543	-0.0030787743
191	0xbbd5a37b	-0.0065197325
192	0x3cc2b6f7	0.023768885
193	0x3dae0de9	0.08498747
194	0xbdb9b058	-0.09066838
195	0x3c700084	0.01464856
196	0xbc953006	-0.018211376
197	0xbe677114	-0.2260173
198	0xbdb65e42	-0.08904697
199	0x3c6b8c9c	0.014376786
200	0x3d8501c0	0.064944744
201	0x3be6c736	0.0070427908
202	0xbd398dd0	-0.04530126
203	0x3cd1ff9e	0.025634583
204	0x3d47c434	0.0487711
205	0xbbce84c5	-0.0063024485
206	0xbd526b6e	-0.051371984
207	0x3cccb38a	0.024987955
208	0xbc2e390a	-0.010633716
209	0x3b94c0ec	0.0045395996
210	0xbaf44c93	-0.0018638544
211	0xba921b7a	-0.0011147105
212	0x3ce46334	0.027879335
213	0xbd098ec9	-0.033583436
214	0xbd45c79e	-0.048286073
215	0x3cca966d	0.024729932
216	0x3d0afd40	0.033932924
217	0xbce8c3d5	-0.028413692
218	0x3d0ae1c5	0.033906717
219	0xbce18c88	-0.02753283
220	0xbdd75473	-0.10514154
221	0x3c7d3e47	0.015456743
222	0xb9e9f6ef	-0.00044625203
223	0x3aaed636	0.0013338986
224	0xbd382a11	-0.044961993
225	0x3c813c76	0.0157759
226	0xbd50e0a7	-0.050995495
227	0x3ccbf44b	0.024896761
228	0xbd9d6ad2	-0.0768639
229	0x3cd0a257	0.025468035
230	0xbd95c021	-0.07312036
231	0x3d2e0fd7	0.042495575
232	0x3d14f9c8	0.036371022
233	0xbd2e3da7	-0.042539265
234	0xbdd7ee8e	-0.105435476
235	0x3c827f24	0.015929766
236	0xbe08f4b9	-0.13374604
237	0x3c70c2da	0.014694894
238	0xbda0d44b	-0.07852992
239	0x3cd9b672	0.026576255
240	0xbd4ef045	-0.050522108
241	0x3cfc1353	0.030770933
242	0x3d9e9ce2	0.07744767
243	0x3c51a99b	0.012796785
244	0xbda9d81e	-0.08293174
245	0x3cc56778	0.02409719
246	0xbb7f8207	-0.0038987414
247	0xbbecc22a	-0.0072252946
248	0xbda446de	-0.08021329
249	0x3cdf4682	0.0272553
250	0xbd28af00	-0.041182518
251	0x3c37f35d	0.011227456
252	0xbd39316c	-0.045213148
253	0x3c82c5b1	0.015963407
254	0xbcbe0abb	-0.023198476
255	0x3d0dd2e9	0.034624968

net.0.bias f4 [200]
0	0x3cb16051	0.021652373
1	0x3ca41208	0.02002813
2	0x3c9c8e3a	0.019110788
3	0x3d0cb3b9	0.034351084
4	0x3cb29c8a	0.02180316
5	0x3ca39996	0.019970696
6	0x3bbb4a28	0.005715627
7	0x3d3f57e1	0.046714667
8	0xbce80708	-0.028323665
9	0xbc08c1da	-0.008346999
10	0x3c395f9d	0.0113143
11	0x3d637202	0.05552865
12	0x3d079a43	0.0331061
13	0x3d85d179	0.06534094
14	0x3cf5eb04	0.03001929
15	0x3c2154cb	0.009846876
16	0xbc20aef1	-0.009807334
17	0x3c35f3ec	0.011105519
18	0xbca26752	-0.019824658
19	0xbc06c97d	-0.0082267495
20	0x3ceceef7	0.028922541
21	0xbc1fcf32	-0.009753989
22	0x3c85d93e	0.01633894
23	0x3cb9df28	0.022689417
24	0x3cf35bfd	0.02970695
25	0x3c563b34	0.013075639
26	0x3caf910a	0.021431465
27	0x3c0bc8aa	0.008531729
28	0x3cad2d58	0.021139786
29	0x3c19b746	0.009382075
30	0xbc4035ab	-0.011731545
31	0x3c339e62	0.010963054
32	0xbc02d6f9	-0.007985824
33	0x3d089f99	0.03335533
34	0x3c1f72ba	0.009731943
35	0x3c109092	0.008823531
36	0x3cb16d41	0.021658542
37	0x3c08e82b	0.008356134
38	0x3cf75dbc	0.030196063
39	0x3ca69714	0.020335712
40	0x3ca818f7	0.020519717
41	0xb9824277	-0.00024845052
42	0x3cba5311	0.022744687
43	0x3c803e7d	0.015654797
44	0x3cc75e64	0.024337001
45	0xbd505386	-0.050860904
46	0x3cf06a72	0.029347632
47	0xbd02e3da	-0.031955577
48	0x3c9e62eb	0.019334277
49	0x3be62f35	0.0070246705
50	0x3c7bfb69	0.015379765
51	0x3cba3476	0.022730093
52	0x3c8d9982	0.017285112
53	0x3acbe46f	0.0015555749
54	0xbc7773b2	-0.0151032675
55	0x3c0fef8e	0.008785142
56	0x3cd22abf	0.025655149
57	0x3d30065c	0.042974815
58	0x3c5feb03	0.013666871
59	0x3d5b01c0	0.053468466
60	0x3b95cb78	0.0045713745
61	0xbb93fb20	-0.0045160204
62	0x3bee5a1c	0.0072739255
63	0x3c12908f	0.008945598
64	0xbbb094f5	-0.005388851
65	0x3b5a37d0	0.0033297427
66	0x3ce0d039	0.027443038
67	0x3c4851f2	0.012226569
68	0x3c913de7	0.017729713
69	0x3d09e2f6	0.033663712
70	0x3b2376cc	0.0024942635
71	0xbcc6a92c	-0.02425059
72	0xbb296584	-0.0025847862
73	0x3d2aa5e8	0.041662127
74	0x3d33bb35	0.043879706
75	0x3c0bb037	0.0085259
76	0x3ceff781	0.029292824
77	0x3ce2e73b	0.02769815
78	0x3c8723e0	0.016496599
79	0x3cd4dc6b	0.02598401
80	0x3c95bf91	0.018279823
81	0x3c47087f	0.012148022
82	0xbc0b943d	-0.0085192295
83	0x3c07477b	0.008256788
84	0x3ca1a500	0.019731998
85	0xbc0d0595	-0.008607288
86	0xbcc810bc	-0.024422042
87	0x3c1823c8	0.009285875
88	0x3d34a427	0.04410186
89	0x3c1446d3	0.009050089
90	0x3c182f7c	0.009288665
91	0xbd04a1e3	-0.03238095
92	0x3c6417ad	0.01392166
93	0x3be15e6b	0.0068777106
94	0x3c196abb	0.009363825
95	0xbc18f561	-0.009335847
96	0xbc40123a	-0.011723096
97	0x3d306ab5	0.043070514
98	0xbc676ea9	-0.0141255045
99	0x3d2d4b88	0.04230836
100	0x3c559de5	0.013038133
101	0x3c8ae98d	0.016957069
102	0x3c117f09	0.008880385
103	0x3ca4fb9e	0.020139512
104	0xbc8e65ac	-0.017382465
105	0xbc09c91a	-0.008409763
106	0x3c96f141	0.018425586
107	0x3c98dabe	0.018658992
108	0x3c3aa6c7	0.011392302
109	0x3c2c66f3	0.010522592
110	0x3d51575d	0.051108707
111	0xbc08243f	-0.008309423
112	0xbd046fc8	-0.032333165
113	0x3ca39598	0.019968793
114	0x3cf81178	0.030281767
115	0x3cfdc122	0.030975882
116	0x3c42da49	0.011892864
117	0x3d509804	0.050926223
118	0x3d8cbb02	0.068716064
119	0x3cee8d3b	0.029120078
120	0x3c20ebfe	0.00982189
121	0x3ca05087	0.019569648
122	0x3d0a3175	0.033738572
123	0xbc034c49	-0.008013793
124	0x3cf340ec	0.029694043
125	0xbcdd30c8	-0.0270008
126	0xbd05747a	-0.032581784
127	0xbceff99a	-0.029293824
128	0x3c646150	0.013939217
129	0xbc311a34	-0.01080947
130	0x3c1ccbb8	0.009570055
131	0x3ca7c1f9	0.020478236
132	0x3d493f87	0.04913285
133	0x3b6bfab4	0.0036007585
134	0xbcec33bf	-0.028833268
135	0x3c86a84e	0.016437676
136	0x3d3cb15a	0.046067573
137	0x3c08b6d3	0.00834437
138	0x3b0b3dcb	0.0021246548
139	0x3c56a6df	0.013101309
140	0xbbd5a0b7	-0.006519403
141	0x3d34e8f6	0.04416748
142	0x3d2dbeb1	0.042418186
143	0x3c0227ae	0.007944031
144	0x3d113048	0.035446435
145	0x3bea0ce2	0.007142649
146	0x3cbdde76	0.023177367
147	0x3c39c566	0.011338567
148	0x3c3f6e66	0.011684036
149	0x3ce2f18a	0.027703065
150	0x3d077466	0.03306999
151	0x3d3fed4b	0.04685716
152	0x3c8d3864	0.017238803
153	0xbb64cf18	-0.0034913477
154	0x3be9c41c	0.0071339738
155	0xbcde690f	-0.027149705
156	0x3c335d64	0.010947559
157	0x3bde7032	0.006788277
158	0x3d4c76fc	0.04991816
159	0x3ca4af7a	0.020103205
160	0x3c1ce345	0.00957567
161	0x3c7323f1	0.014840112
162	0xbc0a9033	-0.008457231
163	0x3c5f7f76	0.013641229
164	0x3ced258f	0.028948573
165	0x3caf0dd9	0.021368908
166	0x3c53ef9f	0.012935548
167	0xbbc63bcc	-0.006049609
168	0x3be15a3b	0.0068772114
169	0x3c2342ea	0.009964684
170	0xbcefa710	-0.029254466
171	0xbc12fbc6	-0.00897116
172	0x3c8529e8	0.016255334
173	0x3d241b37	0.040065017
174	0xbcf75f60	-0.030196846
175	0x3c81b02e	0.01583108
176	0x3d47b483	0.048756134
177	0xbcc8116c	-0.02442237
178	0x3c8682a5	0.016419718
179	0xbca04595	-0.01956443
180	0xbcfd9d57	-0.030958815
181	0x3b8cbf51	0.0042952676
182	0x3ca09b69	0.019605355
183	0xbc9d733a	-0.019219983
184	0x3cb9f2fb	0.02269887
185	0x3cd0872a	0.025455076
186	0x3c368878	0.011140935
187	0x3cbe91f9	0.023262965
188	0xbd048caa	-0.03236071
189	0xbc9eb14b	-0.01937165
190	0xbc8454b7	-0.016153676
191	0x3c0ee0cc	0.008720588
192	0x3c97687c	0.01848244
193	0x3c97838c	0.018495344
194	0xbc943626	-0.018092226
195	0xbce29c16	-0.027662318
196	0x3c1894b3	0.009312796
197	0xbc01fe0f	-0.007934107
198	0x3c958f2e	0.01825675
199	0x3c4b85f9	0.012422078

net.2.weight f4 [200, 200]
0	0xb9f25c32	-0.00046226528
1	0xbc752158	-0.014961563
2	0x3a91dca8	0.0011128383
3	0xbc8f93b5	-0.017526487
4	0xbc7a9cd4	-0.01529618
5	0x39a8b9a5	0.00032181773
6	0xbc075814	-0.008260746
7	0xbcadfedc	-0.02123969
8	0xbb46c6b8	-0.0030330848
9	0xbc851204	-0.016243942
10	0xbb4bccbb	-0.003109737
11	0xbcd04cd7	-0.025427265
12	0xbbd3615e	-0.006450816
13	0xbcd3d3f0	-0.025857896
14	0xbc94b447	-0.01815237
15	0x3acc2fd2	0.0015578216
16	0xbc1056b1	-0.008809731
17	0xba29d9b5	-0.0006479279
18	0xbc2c21a6	-0.010506069
19	0xbc020f53	-0.007938224
20	0xbca5d2ad	-0.02024206
21	0xbc9265e1	-0.017870845
22	0xb982d4ca	-0.00024954072
23	0xbc88f685	-0.016719112
24	0xbc950db4	-0.01819501
25	0xb8c5f1c2	-9.438723e-05
26	0xba1f6a9d	-0.0006081255
27	0x3acd26ce	0.0015651823
28	0xbc6e960b	-0.01456214
29	0x3a2a4eee	0.0006496747
30	0xbc2b490c	-0.010454427
31	0x3982f310	0.00024976628
32	0xbc17f286	-0.009274131
33	0xbc9aab33	-0.018880462
34	0xb9a27d38	-0.00030992343
35	0x3a92712b	0.0011172643
36	0xbc88531b	-0.01664119
37	0xb9b7b4c8	-0.00035039173
38	0xbae8fa44	-0.001777478
39	0x398e1134	0.00027097168
40	0xbc5aa841	-0.013345779
41	0xbc62529e	-0.013813643
42	0xba93b762	-0.0011269862
43	0xbb2bb786	-0.0026201918
44	0xbc5417ec	-0.012945157
45	0xbb770ebf	-0.0037697998
46	0xbc92071b	-0.017825654
47	0xbba676af	-0.005080066
48	0xbc4a1514	-0.012334127
49	0x3ad385f7	0.0016137947
50	0x3aa69358	0.0012708707
51	0xbc65c639	-0.014024311
52	0xbc46cdf2	-0.012134062
53	0xbc427b2d	-0.011870188
54	0xbbac667c	-0.0052612405
55	0x3acfe82f	0.0015862043
56	0xbc804325	-0.015657017
57	0xbcae6a4d	-0.021290923
58	0xbc066a54	-0.008204062
59	0xbcc8bd54	-0.024504341
60	0xbc613e49	-0.01374776
61	0xbc87f623	-0.01659686
62	0x39739b20	0.00023232074
63	0xbc323c7e	-0.01087868
64	0xbc2a2cb8	-0.010386638
65	0xbc5c6e05	-0.013453965
66	0xbc8b3d10	-0.01699689
67	0xb938427f	-0.00017572379
68	0xbaebb488	-0.001798288
69	0xbca43374	-0.020044066
70	0xbc406514	-0.011742849
71	0xbb320699	-0.0027164577
72	0xbc16a4e7	-0.009194589
73	0xbcabc715	-0.020968953
74	0xbcab1b29	-0.020886974
75	0x3ae28c5e	0.0017284264
76	0xbc945bc2	-0.01811016
77	0xbc8e1f2d	-0.01734885
78	0x39fe8ebd	0.00048553004
79	0xbc7fdc7a	-0.015616531
80	0x39d0afb2	0.00039803755
81	0x3a656c16	0.0008751763
82	0xbc1462b2	-0.009056734
83	0x388a2e72	6.589004e-05
84	0xbc345e25	-0.011008774
85	0xbc5ebc98	-0.013594769
86	0xbbf38d03	-0.0074325814
87	0xbc3fe233	-0.011711645
88	0xbcb88300	-0.022523403
89	0xbc50ac37	-0.012736372
90	0x3a2e7a1d	0.00066557695
91	0xbadf8500	-0.0017053187
92	0xbae7a512	-0.0017673096
93	0x3900b67f	0.00012275016
94	0x39ee174f	0.00045412264
95	0xbbeb1b3b	-0.007174877
96	0x3bfb06ec	0.0076607373
97	0xbcaf5425	-0.021402428
98	0xba2f3aaf	-0.0006684465
99	0xbca491fe	-0.020089146
100	0xb9c644fc	-0.000378169
101	0xbc3e195c	-0.011602726
102	0x3a464006	0.0007562641
103	0xbc69a21d	-0.014259842
104	0xbb116100	-0.002218306
105	0xbba7747f	-0.005110323
106	0xba8d4126	-0.0010776862
107	0xbc3bf88f	-0.011472835
108	0x3a83cb76	0.0010055143
109	0x3a257bb4	0.00063126837
110	0xbcc030a1	-0.023460688
111	0xbc10f991	-0.008848564
112	0xbb68e0cb	-0.0035534378
113	0xbc4a660b	-0.0123534305
114	0xbca00a29	-0.019536095
115	0xbc937045	-0.01799787
116	0xb9e50092	-0.0004367871
117	0xbcc529b7	-0.024067743
118	0xbceb206b	-0.028701982
119	0xbc955fd8	-0.018234178
120	0xbc1be3b1	-0.009514735
121	0xb9a586ae	-0.00031571597
122	0xbc9ff7f5	-0.019527415
123	0xbc17b9d5	-0.009260614
124	0xbc9d2f93	-0.019187724
125	0x3a944017	0.0011310604
126	0xbb501b86	-0.0031754686
127	0xbc89fb88	-0.016843572
128	0xbaed8032	-0.001811987
129	0xb90bf86b	-0.00013348616
130	0xb9ac0c11	-0.00032815387
131	0x3c82e987	0.015980495
132	0xbcc10302	-0.023561005
133	0xbc3bd458	-0.011464201
134	0xbb95f0e0	-0.0045758337
135	0xbb3d6d24	-0.0028904164
136	0xbcb98892	-0.02264813
137	0x3a48a889	0.0007654508
138	0xbc20948d	-0.009801042
139	0xb9b486aa	-0.00034432608
140	0xbc70e098	-0.014701985
141	0xbcb8ecce	-0.022573855
142	0xbcaf759f	-0.02141839
143	0x3ac7e8b8	0.0015251851
144	0xbcb01719	-0.021495389
145	0x3aa620de	0.001267459
146	0xbc8662e8	-0.016404584
147	0xb9e216c4	-0.0004312304
148	0x39bff7c8	0.0003661497
149	0xbc8d745a	-0.017267395
150	0xbca4855b	-0.02008312
151	0xbcb505b9	-0.022097455
152	0xbc541465	-0.012944316
153	0xbc2cec9b	-0.010554458
154	0xba003e40	-0.00048920885
155	0xbb646d80	-0.0034855306
156	0x3989c449	0.0002627692
157	0x3a5080f7	0.00079537876
158	0xbcc992cd	-0.024606133
159	0xba98c05d	-0.0011654008
160	0x3a4ce4be	0.00078160677
161	0x3a53994d	0.0008071855
162	0xbb0df627	-0.002166161
163	0x39c2ef00	0.00037180632
164	0xbc858daa	-0.016302902
165	0xbb70b135	-0.0036726717
166	0x390c5deb	0.00013386428
167	0xbc07ce01	-0.008288861
168	0x3a06f446	0.0005148094
169	0x3aabc493	0.0013104848
170	0xbbaebf3c	-0.0053328555
171	0xbc0fe8e0	-0.008783549
172	0xba05550f	-0.0005086222
173	0xbc0da62e	-0.008645577
174	0xbb6cddfb	-0.0036143053
175	0x3b407b5b	0.00293704
176	0xbcc1b8c4	-0.023647673
177	0xbc061d66	-0.00818572
178	0xbc41a2b0	-0.011818573
179	0xbb6c68e9	-0.0036073274
180	0xbbe4a55e	-0.006977721
181	0xbc3a395a	-0.011366213
182	0xba365789	-0.0006955793
183	0x3b86664e	0.004101551
184	0x39d20afe	0.0004006251
185	0xbc7c7837	-0.015409521
186	0x3a378680	0.0007000938
187	0xbc759cf8	-0.014991038
188	0xbc6f1054	-0.014591295
189	0xbc217999	-0.009855651
190	0xbc1eb949	-0.00968773
191	0x3a0ce1d9	0.000537423
192	0xbc5ba855	-0.013406833
193	0x388ca833	6.70705e-05
194	0x3a5f10df	0.0008509289
195	0x3b247fe5	0.0025100645
196	0xba110857	-0.0005532554
197	0x3b8d6043	0.004314454
198	0xbc640a1e	-0.013918428
199	0x3b268fed	0.0025415376
200	0x3912702b	0.00013965431
201	0x3b82fdd7	0.003997545
202	0x3a8e28f5	0.0010845946
203	0x3da61597	0.08109587
204	0x3bb00eeb	0.005372872
205	0x3b480623	0.0030521236
206	0x3cd38934	0.02582226
207	0x3d2a24a7	0.04153886
208	0x3cae5ec0	0.021285415
209	0x3d24e0c3	0.040253412
210	0x3cac7c19	0.021055268
211	0x3d3d2588	0.04617837
212	0x3d19bb9c	0.037532434
213	0x3d5968c7	0.05307844
214	0x3d28dfe2	0.041229136
215	0x3b8b4f09	0.004251365
216	0x3c25c761	0.010118336
217	0x3ba68427	0.0050816718
218	0x3d890b4a	0.06691606
219	0x3bc3ea24	0.0059788395
220	0x3d58266d	0.05277102
221	0x3d2277a0	0.039664865
222	0x3bb88cd9	0.0056320247
223	0x3be19ef4	0.006885404
224	0x3d06f19d	0.032945264
225	0x3b845b30	0.0040391907
226	0x3a4513a9	0.0007517883
227	0x3bd61937	0.0065337676
228	0x3bcaf756	0.0061940355
229	0x3ca1da1d	0.019757325
230	0x3d4215fa	0.04738424
231	0x3ba6c13b	0.005088953
232	0x3cf5a60a	0.0299864
233	0x3da1f3b1	0.079078086
234	0x3bd05fc2	0.0063590715
235	0x3b8427a3	0.0040330454
236	0x3bbbc7b4	0.0057305936
237	0x3c0d5be2	0.008627864
238	0xba38e581	-0.0007053242
239	0x3b2f6665	0.0026763913
240	0x3b9fb108	0.0048733987
241	0x3d1413c9	0.03615168
242	0xb9b7454d	-0.00034956113
243	0x3a8675af	0.0010258461
244	0x3beb2a8a	0.007176702
245	0x3e2ab27a	0.16669646
246	0x3c75c916	0.015001556
247	0x3cb2f76b	0.021846494
248	0x3bd7f1da	0.0065901102
249	0x3c5748a7	0.01313988
250	0x3b08efd2	0.0020894897
251	0x3bfe4baf	0.007760487
252	0x3a6102ee	0.00085835054
253	0x3c094961	0.008379311
254	0x3c0428b2	0.008066343
255	0x3c86c5e9	0.016451793

net.2.bias f4 [200]
0	0xba8e2087	-0.0010843434
1	0x3ca51892	0.020153318
2	0xbbf558f7	-0.007487412
3	0x3c60857e	0.013703702
4	0xbbc0f876	-0.005888994
5	0x3ca176f9	0.01971005
6	0xbc170c4a	-0.009219239
7	0x3d5da6ea	0.05411426
8	0x3c53ed2f	0.012934967
9	0xbd0e1c97	-0.034695234
10	0x3cd2a55d	0.025713617
11	0x3c972f85	0.018455276
12	0x3d2d70d8	0.042343944
13	0xbc0a2573	-0.00843178
14	0xbc0d9b25	-0.008642946
15	0xbd9a262d	-0.07526813
16	0x3cc17438	0.023614988
17	0xbbee3a48	-0.0072701313
18	0xbc2d8198	-0.01058998
19	0xbd03313d	-0.03202938
20	0xbd2c9fa2	-0.042144425
21	0x3ca74894	0.02042035
22	0x3cf590c9	0.029976266
23	0xbbf33a3d	-0.007422714
24	0x3caa8568	0.020815566
25	0x3c995f96	0.018722337
26	0x3d6cffde	0.0578612
27	0xbc0312f4	-0.008000124
28	0xbbfa9a47	-0.007647786
29	0x3c5353a8	0.012898363
30	0xbc2a9e2a	-0.010413686
31	0xbba480c2	-0.005020232
32	0x3a3464d9	0.00068814825
33	0xbc7a0fed	-0.015262586
34	0x3d2cb76d	0.042167116
35	0xba5cc291	-0.00084213266
36	0xbd714efc	-0.058913216
37	0x3cbf9f4b	0.023391386
38	0xbc9b0937	-0.018925292
39	0xbc4a645e	-0.012353031
40	0xbbe28021	-0.006912247
41	0xbad8d9a7	-0.0016544358
42	0xbc4533ef	-0.012036308
43	0x3cf0cbe3	0.029394096
44	0x3ccba437	0.024858577
45	0x3cf8e370	0.030381888
46	0x3cae7535	0.021296123
47	0x3c215b8d	0.009848488
48	0xbac2629e	-0.0014830416
49	0x3cfe4ff4	0.031043984
50	0x3cb0b509	0.0215707
51	0x3c95817b	0.018250218
52	0x3cc16f59	0.023612665
53	0xbc159108	-0.009128816
54	0x3cadb1ad	0.021202886
55	0x3cee955b	0.029123953
56	0xbb55de50	-0.003263373
57	0xbb1468c7	-0.002264546
58	0xbc335700	-0.010946035
59	0x3d20e4bd	0.03928064
60	0xbc1d638d	-0.009606254
61	0xbc655ec5	-0.013999646
62	0x3c9ce46a	0.019151885
63	0xbc215c10	-0.00984861
64	0x3ce41c64	0.027845569
65	0xbd4637ae	-0.048392944
66	0x3d187d40	0.037228823
67	0x3ca63933	0.020290947
68	0xbc097f76	-0.008392205
69	0xbc50f2f7	-0.01275324
70	0xbc54c4c6	-0.012986368
71	0xbd7e967d	-0.062155236
72	0xbc3bceaa	-0.011462847
73	0xbd836c5a	-0.06417151
74	0xbc1a19d3	-0.009405571
75	0x3d2b34ca	0.04179839
76	0x3c984315	0.018586675
77	0xbc646265	-0.013939475
78	0x3c343c63	0.011000725
79	0x3c01c85d	0.0079213055
80	0xbb8d8319	-0.0043186066
81	0x3d1aa914	0.0377589
82	0x3bea9267	0.007158566
83	0xbc44cd5e	-0.012011854
84	0x3cbb375e	0.02285355
85	0xbd1aed88	-0.037824184
86	0x3c9c7fd6	0.019103926
87	0xbba41517	-0.005007397
88	0x3ca8dffb	0.020614615
89	0xbd3ae72e	-0.045630626
90	0xbbb23cd8	-0.005439382
91	0x3c1e9a85	0.009680395
92	0xbd55a2e2	-0.05215729
93	0xbd09d58b	-0.033650916
94	0xbab7887e	-0.001400247
95	0xbc15bef6	-0.009139767
96	0x3cabf346	0.020990025
97	0xbc80f42d	-0.015741432
98	0x3da130ec	0.07870659
99	0x3cdacdb6	0.026709419
100	0x3d052b38	0.03251192
101	0xbbe88ce0	-0.0070968717
102	0x3c1389b9	0.009005004
103	0x3ca950e0	0.020668447
104	0x3cb10c60	0.021612346
105	0xbc2e9c1e	-0.010657338
106	0x3ca35fe4	0.019943185
107	0xbc2f9504	-0.01071668
108	0xbb865b1e	-0.0041002175
109	0x3cd12b6e	0.025533404
110	0xbc24010c	-0.010010015
111	0x3c795237	0.015217355
112	0x3cc6cebe	0.024268504
113	0xbc362e5d	-0.011119452
114	0x3ca64287	0.020295395
115	0xbbdaa78d	-0.0066728056
116	0x3ca6d85e	0.020366844
117	0x3c9a3fe4	0.018829294
118	0xbc5125dc	-0.012765374
119	0xbc285bcb	-0.010275791
120	0x3d078439	0.03308508
121	0xbb87d9a8	-0.0041458197
122	0x3cc66bbe	0.024221297
123	0x3ca18deb	0.019720992
124	0xbbaddc99	-0.0053058383
125	0xbc402f54	-0.011730034
126	0x3c0ac395	0.008469482
127	0x3d1cdf7c	0.03829907
128	0xbb7ec7f6	-0.003887651
129	0x3d05e24d	0.03268652
130	0x3d04d62a	0.032430805
131	0x3cb9c4d0	0.022676855
132	0xbb5fed8f	-0.0034168696
133	0x3ca5d1ad	0.020241583
134	0xbc4d1ff0	-0.0125198215
135	0xbb816443	-0.0039487197
136	0x3d91e1c8	0.071231425
137	0x3cf251db	0.029580047
138	0xbb9a6ab1	-0.0047124256
139	0xbc591170	-0.013248786
140	0xbc18e938	-0.009332947
141	0xbb6b63d9	-0.0035917668
142	0xbd3e5676	-0.046469174
143	0xbd8ed486	-0.069741294
144	0x3d052638	0.03250715
145	0xbc2cc478	-0.010544889
146	0xbbc48817	-0.0059976685
147	0x3cc0a62f	0.023516743
148	0xbb8d5744	-0.0043133814
149	0x3cbbe59c	0.022936635
150	0x3cf6773b	0.03008615
151	0x3ca6842f	0.020326702
152	0x3d06c901	0.032906536
153	0xbb838494	-0.0040136073
154	0xbbbdb891	-0.0057898243
155	0xb9919952	-0.00027770788
156	0xbb947e0e	-0.0045316285
157	0xbbda2707	-0.0066574845
158	0x3cc5def7	0.02415417
159	0x3cb52943	0.022114402
160	0x3c0f00a5	0.008728181
161	0x3c9b1f33	0.018935775
162	0xbc360bae	-0.011111183
163	0xbd64ef75	-0.055892427
164	0x3c9d0b1e	0.01917034
165	0xbc2c53e0	-0.010518044
166	0xbb9ff9a4	-0.0048820544
167	0x3d4b4776	0.049628697
168	0x3d2b71aa	0.041856445
169	0x3c9df7b0	0.019283146
170	0xbd0589f1	-0.032602254
171	0xbb799f4b	-0.003808933
172	0xbcb2f1ea	-0.02184387
173	0x3cc1bd19	0.02364974
174	0x39f806e1	0.0004730737
175	0xbbe0d420	-0.006861225
176	0x3d056c6c	0.032574102
177	0xbc3923c5	-0.011300032
178	0xbacb2773	-0.0015499428
179	0xbc4e94d0	-0.012608722
180	0x3b046455	0.0020201404
181	0xbc0a07bb	-0.008424695
182	0x3c12fd03	0.0089714555
183	0x3d53b0ef	0.05168241
184	0xbb8a254f	-0.0042158733
185	0xbd400f97	-0.046889868
186	0xbb19b160	-0.002345167
187	0xbbcfe8cc	-0.00634489
188	0xbc6eee55	-0.01458319
189	0x3d373032	0.044723697
190	0x3bab9169	0.00523584
191	0xbbffebc9	-0.00781009
192	0x3a90060c	0.001098813
193	0xbda98f8f	-0.08279335
194	0x3c998ca9	0.01874383
195	0x3cf32522	0.029680792
196	0xbc7da1a0	-0.015480429
197	0x3d2a4832	0.041572757
198	0x3ca5d12c	0.020241342
199	0x3d415aab	0.04720561

net.4.weight f4 [200, 200]
0	0x3cdb8c8b	0.026800415
1	0x3d127e30	0.035764873
2	0xba5b9237	-0.0008375975
3	0x3d0df3bd	0.034656275
4	0xb88eda3c	-6.811737e-05
5	0x3d295bf0	0.041347444
6	0xbc171232	-0.009220647
7	0x3d8dbc16	0.0692064
8	0x3cde550c	0.027140163
9	0x3c061180	0.008182883
10	0x3ce3db5c	0.02781456
11	0x3ce78a8b	0.028264305
12	0x3d859ace	0.06523667
13	0x3aeebef0	0.0018214863
14	0x3c390f5f	0.011295169
15	0x3e307b63	0.17234568
16	0x3d5cd771	0.0539164
17	0x3b8ae233	0.004238391
18	0x3e6aecfa	0.22941962
19	0x3e41d8cf	0.18930362
20	0x3e3694c6	0.1783019
21	0x3d3f81d5	0.046754677
22	0x3cde2200	0.027115822
23	0x3b9e5d86	0.004832926
24	0x3cfe4dfc	0.031043045
25	0x3d1b34db	0.037892204
26	0x3cbf4936	0.02335034
27	0x3bb11cc3	0.00540504
28	0x3c7003de	0.0146493595
29	0x3d06bbc4	0.03289391
30	0x3bc8adb5	0.006124223
31	0x3ab5b647	0.0013863527
32	0xb9ac9c45	-0.00032922826
33	0x3bb969bc	0.0056583565
34	0x3cc57d6f	0.024107663
35	0xbb42f32f	-0.0029747
36	0x3d840230	0.0644573
37	0x3cea495f	0.02859944
38	0x3e522e18	0.20525396
39	0x3e30a27f	0.17249487
40	0x3b98984e	0.004656828
41	0x3cd898df	0.026440082
42	0x3b673c15	0.0035283614
43	0x3d79cafc	0.060984597
44	0x3d676cf0	0.056500375
45	0x3d09549e	0.033527963
46	0x3d0de59d	0.034642804
47	0x3d9a9fab	0.075499855
48	0x3bdd22bd	0.006748526
49	0x3d7aeb29	0.061259422
50	0x3d182214	0.037141874
51	0x3d388b01	0.04505444
52	0x3cf00a9f	0.02930194
53	0x3caef3f3	0.021356558
54	0x3d02e749	0.031958852
55	0x3ce11121	0.027473988
56	0xba481e23	-0.0007633885
57	0x3c7496bd	0.014928517
58	0x3b7571fb	0.003745197
59	0x3ccf6c21	0.025320115
60	0x3c27ac81	0.010233999
61	0x3be7939c	0.007067157
62	0x3d16a339	0.036776755
63	0xbba0f76a	-0.0049123066
64	0x3d16bd6b	0.036801737
65	0x3e8a7a0d	0.27046242
66	0x3d84dd01	0.06487466
67	0x3d58f3fb	0.052967053
68	0x3cbf440e	0.02334788
69	0x3baac34c	0.0052112695
70	0x3bd73b7c	0.0065683704
71	0xbe95738e	-0.29189724
72	0x3c4358f5	0.0119230645
73	0x3dee5bec	0.116386265
74	0x3bcad50d	0.0061899484
75	0x3d8910be	0.066926464
76	0x3d18d584	0.037313
77	0x3af42240	0.001862593
78	0x3cc84f02	0.024451736
79	0x3d413c0d	0.04717641
80	0x3ae0f3a5	0.0017162455
81	0x3ccf09db	0.025273254
82	0x3cd04e9f	0.025428114
83	0x3c7371b1	0.014858649
84	0x3d62ce69	0.05537263
85	0x3d2baed3	0.041914772
86	0x3d157f80	0.036498547
87	0x3af9662c	0.0019027642
88	0x3d3a73ca	0.04552058
89	0x3e2bc99e	0.1677613
90	0x3a79d00d	0.0009529598
91	0x3cc18e5b	0.02362745
92	0x3e92ddaa	0.2868474
93	0x3e2daf01	0.1696129
94	0xbc152730	-0.009103581
95	0x3ce1a132	0.027542684
96	0x3cd26c83	0.025686508
97	0xbbd24bad	-0.0064177127
98	0x3de24afd	0.11049459
99	0x3ce359cc	0.02775278
100	0x3ccb2645	0.024798522
101	0x3c3d694d	0.01156075
102	0x3cc9190e	0.02454808
103	0x3e632438	0.22181785
104	0x3cdf120f	0.02723029
105	0x3c2eb079	0.010662192
106	0x3d3ae3a0	0.045627236
107	0xbc230e74	-0.009952176
108	0xbbb581e6	-0.0055391667
109	0x3d000a7d	0.031260002
110	0x3cb3d466	0.021951865
111	0x3e1795b4	0.14803201
112	0x3cf424dc	0.029802732
113	0x3be95f31	0.0071219434
114	0x3d0f3b19	0.03496847
115	0xbb0a9df0	-0.0021151267
116	0x3d2d02ee	0.042239122
117	0x3cd70435	0.026247123
118	0xb9d7ef4a	-0.0004118628
119	0x3bc4d1b7	0.0060064453
120	0x3d11e24a	0.035616197
121	0x3c0d4a4a	0.008623669
122	0x3d68357f	0.056691643
123	0x3d2f18e7	0.042748358
124	0xbbabd168	-0.005243469
125	0x3c0e7699	0.008695268
126	0x3d0d52d3	0.034502815
127	0x3cd75a85	0.02628828
128	0x3b3a0cb1	0.0028388912
129	0x3cd744f3	0.026277995
130	0x3d80c26d	0.06287084
131	0x3d60e689	0.054907355
132	0x3c556546	0.013024634
133	0x3d4f2680	0.050573826
134	0x3bffc53c	0.0078054946
135	0x3e248825	0.1606756
136	0x3cc8199b	0.024426272
137	0x3d174d40	0.036938906
138	0xbc447124	-0.011989865
139	0x3bb3af8b	0.005483573
140	0x3bdb6d05	0.0066963458
141	0xbb277177	-0.0025549808
142	0x3d2370f6	0.03990265
143	0x3e106083	0.14099316
144	0x3d83b725	0.064314164
145	0x3ca4c183	0.020111805
146	0x3c893114	0.016747035
147	0x3cfd8828	0.030948713
148	0xba0a7fb5	-0.0005283312
149	0x3d6604b9	0.056156848
150	0x3d0af268	0.033922583
151	0x3d19750b	0.037465136
152	0x3cd2c7d0	0.025730044
153	0x3c92f91f	0.017941056
154	0x3aca6c0d	0.0015443579
155	0xbaf8563f	-0.0018946602
156	0x3b621187	0.003449531
157	0x3c02f13f	0.007992088
158	0x3d6e41e2	0.0581683
159	0x3cc658b2	0.024212215
160	0x3dc922e3	0.09821107
161	0x3cf15fc8	0.029464617
162	0x3bd1f497	0.006407331
163	0x3d53d025	0.051712174
164	0x3d159cc9	0.036526475
165	0x3bd70cff	0.0065628286
166	0x3aa80a17	0.001282039
167	0x3cd4151c	0.025888972
168	0x3cd0b824	0.02547843
169	0x3d056f38	0.03257677
170	0x3e459920	0.19296694
171	0x3b804dd4	0.003915528
172	0xbe1dd0b0	-0.15411639
173	0x3d64614b	0.05575685
174	0xbc4d0151	-0.012512521
175	0x3c1ea007	0.009681708
176	0x3d78c4e2	0.060734637
177	0x3c9b689a	0.018970776
178	0x3b21bdca	0.0024679773
179	0x3b555ff7	0.003255842
180	0xbd6152a0	-0.055010438
181	0x3e48b593	0.19600515
182	0x3cb86ab3	0.022511816
183	0x3cc9fc8f	0.024656562
184	0x3bebf8be	0.0072012832
185	0x3d286962	0.041116126
186	0xbc5dbfdf	-0.013534515
187	0x3b48a3c1	0.0030615183
188	0x3b9d486b	0.0047998927
189	0x3cbdeaeb	0.023183307
190	0xbd65eebb	-0.056135874
191	0x3ba54948	0.005044136
192	0xbd1c664f	-0.038183507
193	0x3db377c0	0.08763075
194	0x3d27cdf5	0.0409679
195	0x3d75c367	0.060000803
196	0x3b8c3390	0.0042786077
197	0x3cd18787	0.02557732
198	0x3d2ca9fc	0.042154297
199	0x3cbc96ec	0.023021184
200	0x3c415fc4	0.011802617
201	0x3cdcec73	0.026968217
202	0x3b18a832	0.0023293612
203	0x3c98f07d	0.018669361
204	0xbc5e0652	-0.013551312
205	0x3ce952d0	0.02848187
206	0x3c0c1062	0.008548828
207	0x3cf2bd7a	0.029631365
208	0x3bfbfefe	0.0076903095
209	0xbc9c5cd8	-0.01908724
210	0x3cdf234e	0.027238514
211	0x3d0961a5	0.033540387
212	0x3ce748df	0.02823299
213	0xbd2502a6	-0.04028573
214	0xbd429723	-0.047507416
215	0xbd9fe1df	-0.07806753
216	0x3cd38d59	0.025824236
217	0xbc9f0427	-0.01941116
218	0xbdb9e0e4	-0.090760976
219	0xbe0e8e2e	-0.13921425
220	0xbe84bb9e	-0.2592439
221	0x3cd9fd7b	0.026610127
222	0x3ce3b01d	0.027793938
223	0xbca95fa6	-0.020675492
224	0x3cc22ef4	0.02370403
225	0x3ccad204	0.024758346
226	0x3d134e80	0.035963535
227	0xbc895a94	-0.016766824
228	0xbd0f0939	-0.034920905
229	0x3c621fa5	0.01380149
230	0xbcdf96cd	-0.027293587
231	0xbc4a4896	-0.012346407
232	0x3d8ddc55	0.069267906
233	0xbc6f925e	-0.014622299
234	0x3d05fef2	0.032713838
235	0xbc12542d	-0.008931202
236	0xbcec73d0	-0.028863817
237	0x3cc6f873	0.024288392
238	0xbe3f1dee	-0.18663761
239	0xbe064c81	-0.13115121
240	0xbc80c712	-0.015719924
241	0x3c3dd43c	0.011586245
242	0xbca0f63b	-0.019648662
243	0x3ce15cd6	0.027510088
244	0x3cd809c7	0.02637185
245	0x3cdece8e	0.027198102
246	0x3cc43033	0.023948764
247	0x3b53c6fb	0.0032314647
248	0x3d69607e	0.056976788
249	0x3cd2b70e	0.025722053
250	0x3cda1b3c	0.026624314
251	0x3cdbe3f3	0.026842093
252	0x3ccc7cc5	0.024961838
253	0x3bf3d9ee	0.0074417507
254	0x3caa2543	0.02076972
255	0x3ce57e44	0.02801431

net.4.bias f4 [200]
0	0x3d8a7f3d	0.0676255
1	0x3d8422e6	0.06451969
2	0x3d9316dd	0.07182095
3	0x3d9945e2	0.07484032
4	0x3ce41506	0.027842056
5	0x3ce32d0e	0.027731445
6	0x3d9bb1e0	0.07602286
7	0xbc9f1a29	-0.019421654
8	0xbc6c78bd	-0.014433083
9	0x3d9108ca	0.070817545
10	0x3d4e4eae	0.050368004
11	0x3cc2b237	0.02376662
12	0x3d8dc516	0.06922357
13	0x3d87a74b	0.066237055
14	0x3cb5d1a2	0.022194687
15	0x3d76d1cd	0.060258675
16	0x3d90f1ba	0.07077356
17	0xbca6856d	-0.020327294
18	0x3cf3994d	0.029736185
19	0x3cb0f51f	0.021601258
20	0x3cdb2610	0.026751548
21	0xbcc7880a	-0.02435686
22	0x3cd2dedb	0.025741031
23	0x3cc909af	0.02454075
24	0x3ceb90f1	0.028755637
25	0x3ccc10ad	0.024910295
26	0x3ca472f3	0.020074343
27	0x3cd05b95	0.025434295
28	0x3d854c0a	0.06508644
29	0x3d8b412a	0.067995384
30	0x3d92ae6e	0.07162176
31	0x3cbc8a9b	0.023015311
32	0x3cc72f20	0.024314463
33	0x3cf9aa6a	0.030476768
34	0x3d306a75	0.043070275
35	0x3cfc023a	0.03076278
36	0x3d9126a5	0.07087449
37	0x3cf32612	0.02968124
38	0x3cbbaec1	0.022910478
39	0x3d02e6e1	0.031958465
40	0x3adc8d8a	0.001682685
41	0x3d904c59	0.07045812
42	0x3ce78f76	0.02826665
43	0x3d073406	0.033008598
44	0x3cfd1261	0.030892553
45	0x3ce10ad1	0.027470978
46	0x3cb02922	0.021503989
47	0x3cb76ca5	0.022390673
48	0xbcc79151	-0.024361284
49	0x3cb7c0dc	0.02243083
50	0x3cc94b47	0.024572028
51	0x3cdf22ad	0.027238214
52	0x3d01ea0d	0.03171735
53	0x3c9f02a9	0.019410448
54	0x3d01e57c	0.031712994
55	0x3d9ee3aa	0.07758267
56	0xbd241aa4	-0.04006447
57	0xbcf671cb	-0.030083558
58	0xbc6613ab	-0.014042775
59	0x3cf8b41f	0.030359326
60	0x3ca4aae9	0.020101028
61	0x3d9a98ec	0.07548699
62	0x3d8488fe	0.06471442
63	0x3cab0be6	0.020879697
64	0x3cd5bf89	0.026092308
65	0x3cf470ac	0.029838882
66	0x3d06abc6	0.03287866
67	0x3d9899dc	0.07451221
68	0x3d017abc	0.03161119
69	0xbc98232e	-0.018571462
70	0x3cc19f91	0.023635658
71	0x3d8c7c52	0.0685965
72	0x3d88d5a5	0.066813745
73	0x3d91dde5	0.07122401
74	0x3cf78839	0.030216323
75	0xbd3246b5	-0.043524463
76	0x3c23a27b	0.009987469
77	0xbca0582c	-0.019573294
78	0x3cc5fa09	0.024167078
79	0x3c036c17	0.008021376
80	0x3d927f58	0.07153195
81	0x3d861c1e	0.06548332
82	0x3cb6b4db	0.022303035
83	0xbcb314d2	-0.021860514
84	0x3d96ab9a	0.07356949
85	0x3d8f4f6f	0.06997573
86	0x3d908140	0.070559025
87	0x3ceb3120	0.028709948
88	0x3cdabd6c	0.026701652
89	0x3ccfafab	0.02535232
90	0x3cf38010	0.02972415
91	0x3c1d15d0	0.00958772
92	0x3d2f42c2	0.042788275
93	0x3ce50133	0.027954673
94	0x3d80a8cd	0.06282196
95	0x3cbcfff1	0.023071261
96	0x3d282e4c	0.041059777
97	0x3cfacd91	0.0306156
98	0x3d9148fa	0.07093997
99	0x3c87b548	0.016565934
100	0x3cc790de	0.02436107
101	0x3c852fcb	0.016258141
102	0x3cc17225	0.023613999
103	0x3d862287	0.06549554
104	0x3d918117	0.071047
105	0x3ce03f73	0.027374005
106	0xbc3025f3	-0.010751235
107	0xbc0ead17	-0.00870826
108	0x3cdfa12f	0.027298538
109	0x3cc45fe6	0.02397151
110	0xbc97f384	-0.018548734
111	0x3cd2e9c3	0.025746232
112	0x3cea4164	0.028595634
113	0xbc292266	-0.010323143
114	0x3ce0612e	0.027390089
115	0x3ce6acfb	0.028158655
116	0x3cff0501	0.031130316
117	0x3bbd72b9	0.0057814983
118	0x3ced36be	0.028956767
119	0x3d0307c4	0.031989828
120	0xbcaaf62f	-0.020869343
121	0xbc97e992	-0.018543992
122	0x3d9b25bb	0.07575556
123	0x3cf7a7fa	0.030231465
124	0x3d990812	0.074722424
125	0x3d8c5752	0.068525925
126	0x3ce0bbd5	0.027433315
127	0x3da29eca	0.07940443
128	0x3cc493e2	0.023996297
129	0x3d928617	0.07154482
130	0x3d92a59e	0.07160495
131	0x3c9b60c1	0.018967034
132	0x3d86e06f	0.06585776
133	0x3d877d20	0.066156626
134	0x3d951c38	0.07280773
135	0x3cb63dcb	0.022246262
136	0x3cebb51b	0.028772881
137	0x3d87b444	0.0662618
138	0x3c59c568	0.013291694
139	0x3d8e6c5d	0.069542624
140	0x3d884cd0	0.06655276
141	0x3d8cb044	0.068695575
142	0x3ce0dbdb	0.027448585
143	0x3ca084e1	0.019594612
144	0x3cd5ab89	0.02608277
145	0x3cf0cb57	0.029393835
146	0x3cee9a5e	0.029126342
147	0x3ce7a545	0.028277049
148	0x3cfd44d6	0.030916613
149	0x3cf3310d	0.029686475
150	0x3d8c3c81	0.06847478
151	0x3c9b2606	0.01893903
152	0x3d8cd228	0.068760216
153	0x3d8e811d	0.0695822
154	0x3cbf399c	0.0233429
155	0x3cc6c7e5	0.024265239
156	0x3cba30e9	0.0227284
157	0x3d0591a3	0.032609593
158	0xbc966f4f	-0.018363623
159	0x3cebf355	0.028802553
160	0x3cac2ce0	0.021017492
161	0x3c2ca7b9	0.010538035
162	0x3d697168	0.05699292
163	0x3c0bc336	0.008530429
164	0x3d8dff1a	0.069334224
165	0xbc8ef99d	-0.01745301
166	0x3cfa87e3	0.030582374
167	0x3cfa7e01	0.030577661
168	0xbc2520cf	-0.010078623
169	0x3c9eaa23	0.019368237
170	0x3cfab635	0.030604461
171	0x3cf6e9c5	0.030140767
172	0xbc792909	-0.015207537
173	0x3da0fdd3	0.07860913
174	0xbc98a543	-0.01863349
175	0x3d004d44	0.031323686
176	0xbcba496a	-0.022740085
177	0x3cbc22ca	0.022965807
178	0x3c49a8ce	0.012308313
179	0x3d990917	0.07472437
180	0x3cffa958	0.03120868
181	0xbd51be07	-0.051206615
182	0x3d90fbdc	0.07079288
183	0x3d973fc2	0.07385208
184	0x3cfdd044	0.030983098
185	0xbc8e3c58	-0.017362759
186	0x3cf5517d	0.029946083
187	0x3ce8f4a6	0.02843697
188	0x3c649b45	0.013953035
189	0x3caa144d	0.020761633
190	0x3d078aa8	0.033091217
191	0x3cbdc158	0.023163483
192	0xbc786c10	-0.015162483
193	0x3d8e24b3	0.069405936
194	0x3d97ce65	0.074124135
195	0xbc84fe49	-0.016234534
196	0x3d084c53	0.033275913
197	0x3ce35c6e	0.027754035
198	0xbcbef3cb	-0.023309609
199	0x3cf456cc	0.029826544

net.6.weight f4 [200, 200]
0	0x3c95b071	0.01827261
1	0x3c945e63	0.018111413
2	0x3c8333e6	0.016015958
3	0x3c2f2e59	0.0106922025
4	0x3d36d4c7	0.044636514
5	0x3d2fc909	0.04291633
6	0x3c8f617e	0.017502543
7	0xba831b9e	-0.0010002737
8	0x3b2e5082	0.002659828
9	0x3c979cd7	0.018507404
10	0x3ca0722b	0.01958569
11	0x3d1121b4	0.035432532
12	0x3cb33b93	0.021878993
13	0x3c2fde5a	0.010734165
14	0x3d37ea66	0.044901274
15	0x3cc96158	0.02458255
16	0x3c6777e7	0.014127708
17	0x3c11e701	0.008905173
18	0x3d3418c6	0.04396894
19	0x3d295eb8	0.041350096
20	0x3d305e62	0.04305876
21	0x3bbed3d9	0.005823594
22	0x3d3d8542	0.046269663
23	0x3d361b9a	0.044459917
24	0x3d3734f7	0.044728246
25	0x3d3ac58e	0.04559856
26	0x3d18d479	0.037312005
27	0x3d2f3095	0.04277094
28	0x3c9b587b	0.01896309
29	0x3caa2b01	0.020772459
30	0x3c68f0d4	0.014217574
31	0x3cf125e6	0.029437017
32	0x3d356a8c	0.044291064
33	0x3d3f41df	0.04669368
34	0x3cc40198	0.023926541
35	0x3d3d28f3	0.04618163
36	0x3c4a58eb	0.012350301
37	0x3d41dc00	0.04732895
38	0x3d36567b	0.044516068
39	0x3d362116	0.044465147
40	0x3da3e97a	0.080035165
41	0x3c5e1ce6	0.013556695
42	0x3d41876b	0.047248285
43	0x3d467518	0.048451513
44	0x3d4217e4	0.047386065
45	0x3d379d99	0.04482803
46	0x3ceda9a8	0.029011562
47	0x3d1df5b8	0.038564414
48	0xbb1bfae5	-0.0023800668
49	0x3bb06c51	0.005384006
50	0x3c0b18e9	0.008489826
51	0x3d2e1f21	0.042510156
52	0x3d432b14	0.047648504
53	0x3d1a074e	0.037604623
54	0x3d412a4c	0.047159478
55	0x3c882158	0.016617462
56	0xbd6e47ef	-0.05817407
57	0xbe6f30f4	-0.23358518
58	0x3908e986	0.00013056965
59	0x3d40d34b	0.047076505
60	0x3c8654d6	0.016397875
61	0x3c95be2f	0.018279163
62	0x3c1be461	0.009514899
63	0x3d0a917b	0.033830147
64	0x3d4096f8	0.047018975
65	0x3d428169	0.047486696
66	0x3d437f09	0.047728572
67	0x3c8f2b66	0.017476749
68	0x3d3d8b7e	0.04627561
69	0xbca41ef0	-0.020034283
70	0x3d155a8e	0.036463313
71	0x3c8f9dea	0.017531354
72	0x3c9099af	0.017651407
73	0x3c826c96	0.015920918
74	0x3d3e8d56	0.046521507
75	0xbdca0977	-0.098650865
76	0x3d11ecfe	0.035626404
77	0xbc805791	-0.015666755
78	0x3d3c5d29	0.045987282
79	0x3d8307de	0.06397985
80	0x3c2de694	0.010614056
81	0x3c44c5fa	0.012010092
82	0x3cdb17a4	0.026744671
83	0x3de87108	0.11349684
84	0x3c568619	0.013093495
85	0x3c801fc4	0.015640147
86	0x3c4dcd3a	0.012561137
87	0x3d307fa7	0.04309049
88	0x3d340086	0.04394581
89	0x3d38311c	0.04496871
90	0x3d3bf6c7	0.045889642
91	0x3d834af2	0.06410779
92	0x3d00bfa8	0.031432778
93	0x3d3824c7	0.04495695
94	0x3ca8b8e9	0.020595985
95	0x3cecf43e	0.028925058
96	0x3cb1a92b	0.02168711
97	0x3d45086b	0.04810373
98	0x3c86e3c1	0.016466023
99	0x3ce440c3	0.027862912
100	0x3ce1208a	0.027481336
101	0x3d8649a3	0.06557014
102	0x3d28ec11	0.041240755
103	0x3ca24efe	0.019813057
104	0x3ca1b10a	0.01973774
105	0x3d0a34bc	0.033741698
106	0x3b3796cf	0.0028013473
107	0x3bf6a18e	0.007526583
108	0x3d2e5cb4	0.042568877
109	0x3d388679	0.045050118
110	0x3b46e611	0.0030349533
111	0x3d401d92	0.0469032
112	0x3d3ca6ff	0.046057697
113	0x3d00e194	0.031465128
114	0x3d3fbb0a	0.046809234
115	0x3d3d4f9e	0.046218507
116	0x3d3d9a23	0.046289574
117	0x3d933610	0.07188046
118	0x3d38b122	0.045090802
119	0x3d396a6c	0.045267507
120	0x3c1aedc1	0.009456099
121	0xbc7f6481	-0.015587927
122	0x3c808fc0	0.015693545
123	0x3d400e0c	0.046888396
124	0x3c64e2e9	0.013970115
125	0x3ca8cace	0.020604517
126	0x3d36ef72	0.044661947
127	0x3c91e26a	0.017808158
128	0x3d3299b1	0.043603603
129	0x3c809ade	0.015698846
130	0x3c0b8f91	0.008518116
131	0x3ce520f9	0.027969824
132	0x3cb0c82f	0.02157983
133	0x3cb2ae0d	0.02181151
134	0x3c80d7c1	0.01572788
135	0x3d079ef4	0.033110574
136	0x3d43e22e	0.047823124
137	0x3c348d71	0.01102005
138	0x3d778bdc	0.060436115
139	0x3ca6c7c1	0.020358922
140	0x3c92f536	0.017939191
141	0x3c8228af	0.01588854
142	0x3d39e995	0.045388777
143	0x3d11d7b3	0.035606097
144	0x3d2a98d6	0.041649662
145	0x3d3cb6c2	0.04607273
146	0x3d3f637f	0.046725746
147	0x3d3c2158	0.045930237
148	0x3d3a38d9	0.04546437
149	0x3d437eea	0.047728457
150	0x3c61a479	0.0137721235
151	0x3cf54430	0.02993974
152	0x3c98ae46	0.018637788
153	0x3c7f6e25	0.015590225
154	0x3cf3dcfc	0.02976846
155	0x3d3b17b0	0.045676887
156	0x3d36155e	0.04445397
157	0x3d41855a	0.047246315
158	0x3b981de5	0.0046422356
159	0x3d3e4731	0.046454612
160	0x3d132ee9	0.03593341
161	0x3d869feb	0.06573471
162	0x3caf9f1f	0.02143818
163	0x3d854194	0.06506649
164	0x3cb2cefa	0.02182721
165	0xbc6e5c5d	-0.014548388
166	0x3d3e5e49	0.046476636
167	0x3d3fbce9	0.04681102
168	0xbb3aab44	-0.002848343
169	0x3cee70fe	0.029106613
170	0x3d3db04c	0.046310708
171	0x3d39570d	0.045249034
172	0xbc5d1fd1	-0.013496355
173	0x3c9a3cf4	0.018827893
174	0xbc5cea8b	-0.013483654
175	0x3d3a1bc1	0.045436624
176	0x3b9bc0b5	0.004753197
177	0x3d0e623a	0.034761645
178	0x3d843579	0.064555116
179	0x3c8976e7	0.01678033
180	0x3d410e93	0.04713304
181	0x3db21dac	0.08697066
182	0x3c4d3060	0.0125237405
183	0x3c7e2a85	0.015513067
184	0x3bd2db2d	0.006434819
185	0xbc6e94c4	-0.014561836
186	0x3d3f0f7c	0.046645626
187	0x3d43dc8e	0.04781776
188	0x3d97c0f7	0.07409852
189	0x3d0cc272	0.034365125
190	0x3d44761f	0.04796421
191	0x3d17ea7d	0.03708886
192	0xbc3d570e	-0.0115564
193	0x3c7084ba	0.014680082
194	0x3c33cded	0.0109743895
195	0x3c513276	0.0127683785
196	0x3d3e7739	0.04650042
197	0x3d4068a2	0.046974786
198	0x3df4aafa	0.11946674
199	0x3c963ea5	0.018340418
200	0x3bc13c1c	0.005897058
201	0x3c07f14e	0.008297278
202	0x3b461d23	0.003022977
203	0x39d9de94	0.000415553
204	0x3d06bb36	0.032893382
205	0x3cf3d4c9	0.02976455
206	0x3b9e1f4c	0.004825508
207	0xbb347140	-0.0027533323
208	0x3b95c6b6	0.0045708073
209	0x3b9680a1	0.0045929705
210	0x3c4bb757	0.012433848
211	0x3cd7c352	0.026338253
212	0x3c2841b6	0.010269573
213	0xb9bb53bd	-0.0003572981
214	0x3cfefd11	0.03112653
215	0x3c026bcf	0.007960274
216	0x3ab8d151	0.0014100467
217	0x3c1cb1ab	0.009563844
218	0x3cf4c5cd	0.029879475
219	0x3cee1518	0.029062793
220	0x3cf42ae2	0.029805604
221	0x3bccc555	0.0062491097
222	0x3d020a5c	0.03174816
223	0x3d00817c	0.031373486
224	0x3d028b2b	0.031871002
225	0x3d0166d0	0.03159219
226	0x3cdd30f9	0.027000891
227	0x3ce9a581	0.028521301
228	0x3bcc0732	0.0062264437
229	0x3c0a8b97	0.008456132
230	0x3b212df8	0.002459405
231	0x3ca5c3c7	0.020234955
232	0x3cfedc40	0.031110883
233	0x3cfe3dfe	0.03103542
234	0x3c08bc17	0.008345625
235	0x3d010ffe	0.031509392
236	0x3af61bee	0.0018776634
237	0x3d042891	0.03226525
238	0x3cf99e62	0.03047103
239	0x3d03da58	0.03219065
240	0x3db520df	0.0884416
241	0x3ab87f2f	0.001407599
242	0x3d06f59e	0.032949083
243	0x3d07860b	0.033086818
244	0x3d0127c2	0.031532057
245	0x3d0234f1	0.03178877
246	0x3cb9a554	0.022661842
247	0x3cf4ac89	0.029867427
248	0xba8129bd	-0.0009854358
249	0xba412ed7	-0.00073693454
250	0x3c0d3654	0.00861891
251	0x3cf4e2ef	0.029893367
252	0x3d02fe11	0.031980578
253	0x3cd1dc5c	0.02561777
254	0x3d0ee0cf	0.034882363
255	0x3b9dae57	0.0048120427

net.6.bias f4 [200]
0	0x3d097fc6	0.03356912
1	0x3c78b09a	0.015178824
2	0xbd0b232a	-0.033969082
3	0xbd25ff45	-0.040526647
4	0xbcb71ed8	-0.022353575
5	0x3d05db1a	0.032679655
6	0x3ce3650e	0.027758148
7	0xbd117768	-0.035514265
8	0xbd0fce56	-0.035108887
9	0xbd12d4bb	-0.035847407
10	0xbd0b25ae	-0.03397148
11	0xbd183e3a	-0.03716872
12	0xbd07352c	-0.033009693
13	0xbc29f12a	-0.010372439
14	0xbcadd9a5	-0.021221945
15	0xbd1e58a4	-0.038658753
16	0xbc705fd3	-0.014671284
17	0xbcff36b6	-0.031154018
18	0xbd1d9767	-0.038474467
19	0x3c94796a	0.018124301
20	0xbd0da157	-0.034577694
21	0xbd343fc6	-0.04400613
22	0x3c8d7feb	0.01727291
23	0xbd130adb	-0.035899024
24	0xbd159db7	-0.03652736
25	0xbd06a7c8	-0.032874852
26	0x3cc1d796	0.02366237
27	0xbd142dc3	-0.036176454
28	0xbd357d1a	-0.04430876
29	0xbd1d681f	-0.038429376
30	0xbd1f85bf	-0.03894591
31	0x3a8c1153	0.0010686315
32	0xbc8bacfa	-0.017050255
33	0xbcfc1bf7	-0.030775053
34	0x3cea84b8	0.028627738
35	0xbd0a0579	-0.033696625
36	0x3cd5ef05	0.02611495
37	0xbd0dc14b	-0.034608167
38	0xbceba154	-0.02876345
39	0xbc6b82c4	-0.014374439
40	0xbcf56835	-0.029956916
41	0xbd1eb27b	-0.03874443
42	0xbd0a423c	-0.033754572
43	0xbc7357a6	-0.01485244
44	0xbc6e00d6	-0.0145265665
45	0xbd1a0c02	-0.037609108
46	0x3d366414	0.044529036
47	0xbd074a0b	-0.033029597
48	0xbd201b84	-0.03908874
49	0xbc9d7a13	-0.019223249
50	0xbd1ed237	-0.038774695
51	0xbdaa8373	-0.08325853
52	0xbc886c84	-0.016653307
53	0xbc8a431a	-0.0168777
54	0xbc6e5edf	-0.014548986
55	0xbd0793b7	-0.033099856
56	0xbc902e34	-0.017600156
57	0xbd0be26f	-0.03415149
58	0xbcb693a6	-0.022287201
59	0xbd1caf46	-0.03825309
60	0xbc86a7eb	-0.016437491
61	0xbd1159a3	-0.035485875
62	0xbc5c1fdd	-0.013435331
63	0xbd1ee94d	-0.03879671
64	0xbd029f84	-0.031890407
65	0xbd07d96e	-0.03316634
66	0xbc64edd6	-0.01397272
67	0xbc2bd91b	-0.010488774
68	0xbd173643	-0.036916982
69	0x3cbb681e	0.022876795
70	0xbda13759	-0.07871885
71	0xbd1022cd	-0.03518944
72	0xbcf262df	-0.029588161
73	0xbd19454f	-0.037419613
74	0xbd1ce0aa	-0.038300194
75	0xbc8ca344	-0.017167695
76	0xbc8e81ed	-0.017395938
77	0x3d0a66f0	0.033789575
78	0xbd16ffa6	-0.0368649
79	0xbd1e893d	-0.0387051
80	0x3da1a454	0.07892671
81	0xbc83ed41	-0.016104342
82	0x3cdd9b2c	0.02705153
83	0xbced7ba2	-0.028989617
84	0xbcf5669c	-0.029956155
85	0xbb8e75ff	-0.0043475623
86	0xbc17defc	-0.009269472
87	0xbcbe1d2d	-0.023207271
88	0xbd1a2f6f	-0.037642892
89	0xbcf73408	-0.030176178
90	0xbc76a480	-0.015053868
91	0xbd10330d	-0.035204936
92	0xbd0bb5f4	-0.03410907
93	0xbc7193e3	-0.014744732
94	0xbc55e8b1	-0.013055966
95	0x3d0e8e48	0.03480366
96	0xbd66d45c	-0.056354865
97	0xbcaf42c7	-0.021394147
98	0xbc6f7a08	-0.014616497
99	0xbc374f8b	-0.011188398
100	0x3cf4ca7e	0.029881712
101	0xbd08e3c7	-0.03342035
102	0xbca7d42e	-0.020486917
103	0xbd936b76	-0.07198231
104	0xbd1f6321	-0.038912896
105	0xbcf445b4	-0.029818393
106	0xbd20316a	-0.039109625
107	0xbd1ddbb4	-0.038539603
108	0x3ca9eb46	0.02074207
109	0xbc1a61f6	-0.00942277
110	0x3a823cd3	0.000993634
111	0xbd0d204c	-0.03445463
112	0x3cdfe1a3	0.027329272
113	0xbc74409b	-0.014907981
114	0x3c55044d	0.013001514
115	0xbd1912e9	-0.03737155
116	0xbc945044	-0.01810468
117	0x3cf7eee5	0.030265281
118	0xbd04200c	-0.032257125
119	0xbc85069a	-0.0162385
120	0xbdc2930e	-0.09500705
121	0xbd5ef895	-0.054436285
122	0xbd107e4a	-0.03527669
123	0xbd0d4f75	-0.034499604
124	0xbc915976	-0.017742854
125	0xbd07a71b	-0.03311835
126	0xbd01ad6b	-0.031659525
127	0xbd0712d2	-0.032976933
128	0xbc73138c	-0.014836203
129	0xbc92cb9e	-0.017919358
130	0x3af4af1c	0.0018667909
131	0x3a9a0884	0.0011751805
132	0xbd1b0c25	-0.03785338
133	0xbd579620	-0.052633405
134	0x3d185c93	0.03719766
135	0xbc72ec15	-0.014826794
136	0xbc82b4c5	-0.015955338
137	0x3cb0faf3	0.021604037
138	0xbcfb84d1	-0.03070298
139	0xbd06967e	-0.032858364
140	0xbc7d67c8	-0.015466638
141	0xbd16f9a5	-0.036859173
142	0xbd1d0ef6	-0.038344346
143	0xbd1d8d0e	-0.0384646
144	0x3d10a6cd	0.035315324
145	0xbd19b4e4	-0.037526026
146	0xbd104788	-0.035224468
147	0xbd0357e3	-0.032066237
148	0x3ca6604e	0.020309594
149	0xbc815014	-0.015785255
150	0xbd5e09ca	-0.054208554
151	0xbc9916aa	-0.018687565
152	0xbd137290	-0.035997927
153	0xbd0837ab	-0.033256214
154	0xbd1e81ba	-0.038697936
155	0xbd008d1b	-0.03138457
156	0xbd21d93c	-0.03951381
157	0xbcba3f3a	-0.022735227
158	0xbd0acd25	-0.033887047
159	0xbc228575	-0.009919514
160	0xbd15fd0b	-0.036618274
161	0xbd048043	-0.032348882
162	0xbc9fd9f2	-0.019513104
163	0xbcfa7871	-0.030575009
164	0xbd04620f	-0.03232008
165	0xbd7f695e	-0.062356345
166	0xbc7ea78d	-0.015542877
167	0xbd19399f	-0.037408467
168	0xbcbc1e34	-0.02296362
169	0x3cdd51af	0.027016489
170	0xbd05b6ee	-0.03264516
171	0xbcf4616b	-0.029831609
172	0xbd1f129a	-0.0388361
173	0xbd219b9d	-0.039455045
174	0xbd0e970d	-0.034812022
175	0x3d06f220	0.032945752
176	0xbd102d76	-0.035199605
177	0xbd028483	-0.031864654
178	0xbd026684	-0.031836048
179	0xbd18360f	-0.03716093
180	0xbca2d73a	-0.019878019
181	0x3d127fd7	0.03576645
182	0xbda001b7	-0.07812827
183	0xbc805658	-0.015666172
184	0xbd7d4dad	-0.061841656
185	0x3c8de06d	0.017318929
186	0xbd19dd5b	-0.037564617
187	0xbc88f8eb	-0.016720256
188	0xbc75a7c1	-0.014993609
189	0xbc856c1b	-0.0162869
190	0x3c8c3aba	0.017117847
191	0xbc64edd8	-0.013972722
192	0xbd10c8c7	-0.035347726
193	0xbcf9a16a	-0.030472476
194	0xbd1f7ded	-0.03893845
195	0xbc8bd6a8	-0.01707013
196	0xbc7203de	-0.01477143
197	0xbd23b0dc	-0.039963588
198	0xbc99ca91	-0.018773349
199	0x3a28517c	0.00064208335
