s1/model-state-dict.pt (torch, 811821 bytes, 13 tensors)

net.0.weight f4 [200, 2]
0	0x3e17450a	0.1477243
1	0x3c8e9989	0.017407196
2	0xbbcf24d3	-0.0063215285
3	0xbdab9e0b	-0.08379754
4	0x3d9bae27	0.07601576
5	0x3c95fb30	0.018308252
6	0xbe3ef65e	-0.18648669
7	0x3cabfcb6	0.020994525
8	0x3be93452	0.007116833
9	0x3da3a01d	0.079895236
10	0xbcfe8df9	-0.031073557
11	0x3d80b5c5	0.0628467
12	0x3e3faf7d	0.18719287
13	0xbd8b0775	-0.06788532
14	0xbe23b26b	-0.1598603
15	0x3bfd564a	0.0077312337
16	0x3d4a5e39	0.049406264
17	0xb9e7e719	-0.00044231935
18	0x3df00d15	0.11721245
19	0xbd83a324	-0.06427601
20	0x3d9605a3	0.07325294
21	0xbccc2144	-0.024918206
22	0xbe0e0ad1	-0.13871314
23	0x3d8cc115	0.06872765
24	0x3dcce582	0.10004713
25	0xbe0f685f	-0.14004658
26	0xbdc7c4c3	-0.09754326
27	0x3e17c0fc	0.14819711
28	0xbcde3c58	-0.027128384
29	0x3c8971c9	0.01677789
30	0x3ab770f0	0.001399545
31	0x3c7b9691	0.015355722
32	0x3e10aab3	0.14127617
33	0xbd7eeda3	-0.062238347
34	0x3d85eb0e	0.06538974
35	0x3c92de82	0.017928366
36	0xbe115d63	-0.1419578
37	0xbe4289a8	-0.18997824
38	0xbd09d379	-0.03364894
39	0xbd92ea11	-0.07173551
40	0xbd31db45	-0.043422002
41	0x3d8a00ee	0.067384586
42	0xbdf5b3fe	-0.119972214
43	0xbe046360	-0.12928534
44	0xbe4445be	-0.1916723
45	0xbe005142	-0.12530997
46	0xbe1716e7	-0.1475483
47	0x3e1a91ee	0.1509473
48	0xbe2ed8c7	-0.17074881
49	0xbda215d1	-0.079143174
50	0x3dc9fe62	0.09862973
51	0xbe139f39	-0.14416207
52	0x3e84ada6	0.25913733
53	0xbdfeff02	-0.12450983
54	0x3dc9ba1a	0.09849949
55	0x3cfd4894	0.030918397
56	0xbd9f4cda	-0.0777833
57	0xbd95d746	-0.07316451
58	0x3e2c476a	0.16824117
59	0xbd7e87a6	-0.062141083
60	0xbcbe080e	-0.0231972
61	0x3d9e4bc3	0.07729294
62	0x3e5d750e	0.21626684
63	0xbd5772cd	-0.052599717
64	0xbd311773	-0.043235254
65	0xbd80812b	-0.06274637
66	0xbda439cc	-0.080188364
67	0xbcf56ce9	-0.029959159
68	0x3d14bad5	0.03631099
69	0xbcabb7ba	-0.020961631
70	0x3d2b8734	0.041876987
71	0x3d83d115	0.064363636
72	0xbcfebf53	-0.03109709
73	0x3e0a210e	0.13489172
74	0x3d7d0ef6	0.061781846
75	0xbc3339ec	-0.010939103
76	0x3e9ddb12	0.308312
77	0x3dac0fa5	0.084014215
78	0x3e04ed8c	0.12981242
79	0x3b23bedc	0.0024985587
80	0xbcfe46a3	-0.031039542
81	0x3dffb368	0.12485391
82	0xbe3f0276	-0.18653283
83	0xbdae80d7	-0.08520668
84	0x3e33899f	0.17532967
85	0x3be06952	0.0068484927
86	0x3dc07a2d	0.09398303
87	0xbd1c4166	-0.038148306
88	0xbd8102d4	-0.062993675
89	0x3e2f4e92	0.17119816
90	0xbd9ba60a	-0.07600029
91	0x3d6efb10	0.0583449
92	0xbdacf57a	-0.084452584
93	0xbd722059	-0.05911288
94	0x3dcf6f61	0.10128666
95	0x3da57e3a	0.080807164
96	0xbc6d0f4c	-0.014468979
97	0x3d110bd6	0.03541168
98	0x3d02a98b	0.03189997
99	0x3c856b92	0.016286645
100	0x3e458412	0.19288662
101	0xbe0984a1	-0.134295
102	0xbdd1df83	-0.102477096
103	0xbd197da6	-0.037473343
104	0xbd4cdacb	-0.050013345
105	0xbddf1004	-0.108917266
106	0xbc1649b7	-0.009172848
107	0x3e367aa3	0.1782022
108	0xbb813354	-0.0039428864
109	0xbdaa7f04	-0.083250076
110	0x3e132363	0.14368968
111	0xbd925642	-0.071453586
112	0xbce622ba	-0.02809273
113	0x3d80562a	0.062664345
114	0xbd306f63	-0.043074977
115	0x3d703f9a	0.058654405
116	0x3d4b80dc	0.049683437
117	0xbe88ca8c	-0.2671703
118	0xbe50246e	-0.20326397
119	0x3e67efc3	0.22650056
120	0xbcbe2dde	-0.02321523
121	0x3cd6ec14	0.026235618
122	0xbcf51256	-0.02991597
123	0xbe188c6b	-0.14897315
124	0x3d16a5e8	0.036779314
125	0xbc447ebc	-0.011993106
126	0xbd92180e	-0.07133494
127	0xbd20b624	-0.039236203
128	0xbc5e5782	-0.013570668
129	0xbe03a29c	-0.12855
130	0xbe0a328b	-0.13495843
131	0xbda3f586	-0.08005814
132	0xbdf79205	-0.12088398
133	0xbdad91be	-0.08475064
134	0x3d057264	0.032579795
135	0x3d0bdaec	0.034144327
136	0x3dfdc89a	0.12391777
137	0x3c7ca18b	0.015419374
138	0xbbd369af	-0.0064518075
139	0x3d6e1933	0.0581295
140	0xbd8fca10	-0.07020962
141	0xbca836ba	-0.020533908
142	0x3b01db2d	0.0019814477
143	0xbcf33536	-0.029688459
144	0xbdb4b639	-0.08823819
145	0x3d866363	0.06561925
146	0xbe1a5525	-0.15071543
147	0x3e193eb7	0.1496533
148	0xbe076816	-0.132233
149	0xbc48f646	-0.012265747
150	0x3e2f02ec	0.17090958
151	0x3dca3104	0.0987263
152	0xbd85a357	-0.06525295
153	0xbe0212f3	-0.12702541
154	0xbcf81d6f	-0.030287473
155	0x3ca487e0	0.020084321
156	0x3db4fff4	0.08837882
157	0x3b9b99ad	0.004748544
158	0xbdd6eef8	-0.104947984
159	0xbdd0db22	-0.10198046
160	0x3e30ff4d	0.1728489
161	0x3e46b5a1	0.19405223
162	0x3e69c3a2	0.22828534
163	0xbe1b3738	-0.15157783
164	0xbc81e346	-0.015855443
165	0xbd7af78b	-0.06127123
166	0xbda367c0	-0.07978773
167	0x3df805c2	0.12110473
168	0xbdb8fa0e	-0.09032069
169	0x3dfc3b39	0.12315983
170	0x3bba4e69	0.0056856168
171	0xbdc6cb76	-0.09706776
172	0xbd0c1331	-0.03419799
173	0x3d5c2c79	0.05375335
174	0xbd4ce019	-0.050018404
175	0xbdadb1a6	-0.084811494
176	0xbe07bddb	-0.13256018
177	0xbd1afd13	-0.037839007
178	0xbd811baf	-0.06304108
179	0xbd836d13	-0.06417289
180	0x3e3bc56d	0.1833703
181	0xbe81a4c8	-0.2532103
182	0x3d78cf81	0.060744766
183	0x3d29bd14	0.041440085
184	0xbd150dd1	-0.03639013
185	0x3dad9ac7	0.08476787
186	0x3db05e59	0.086117454
187	0x3db59c24	0.08867672
188	0x3db6b04e	0.08920346
189	0xbd21a566	-0.039464377
190	0xbe04b9dc	-0.12961525
191	0xbded1dce	-0.115779504
192	0x3d7bfe94	0.06152208
193	0xbc5d596e	-0.013510091
194	0xbe324b33	-0.17411499
195	0xbe2455ed	-0.16048403
196	0x3db7cf7b	0.08975121
197	0xbd51efc1	-0.051254038
198	0xbd59fed4	-0.05322154
199	0xbcf6aa44	-0.030110486
200	0x3e264a0b	0.16239183
201	0x3ced2b6a	0.028951366
202	0xbdea950c	-0.1145421
203	0x3d443d9f	0.04791033
204	0x3ea5f8b1	0.324163
205	0xbd90f79d	-0.070784785
206	0xbdaa7bae	-0.08324371
207	0xbe14e2d8	-0.14539659
208	0x3d88effb	0.06686398
209	0x3b078403	0.002067805
210	0x3d747661	0.059683207
211	0xbde6789c	-0.11253473
212	0xbc82bd73	-0.015959477
213	0x3cc6bc98	0.02425985
214	0xbe011295	-0.12604745
215	0x3d92fe01	0.07177354
216	0x3e227547	0.1586505
217	0xbdc2a89b	-0.09504815
218	0x3cc4aa15	0.024006883
219	0xbc9f66e4	-0.019458242
220	0xbe0737f7	-0.13204943
221	0x3e3436ac	0.1759898
222	0x3a1a2752	0.0005880493
223	0xbe479206	-0.19489297
224	0x3d8092a7	0.06277972
225	0x3d69af0d	0.057051707
226	0xbd48565d	-0.048910487
227	0xbdc31b92	-0.09526743
228	0xbd853929	-0.06505043
229	0x3dca03cd	0.09864006
230	0xbd64c3a0	-0.055850625
231	0x3dff2c54	0.12459627
232	0x3d8e1b28	0.069387734
233	0xbd96d2ba	-0.07364412
234	0xbe5ddcdb	-0.21666281
235	0xbd5cd9bd	-0.05391859
236	0xbe9132f4	-0.28359187
237	0xbd9e0728	-0.07716209
238	0xbd2f097d	-0.042733658
239	0x3d85fb59	0.065420814
240	0xbd8f97a4	-0.07011345
241	0xbc37e6ad	-0.011224431
242	0x3e3a4cff	0.18193434
243	0xbdd17e1f	-0.10229134
244	0xbd9e04b7	-0.07715743
245	0x3cde8d0c	0.027166866
246	0xbcb024a1	-0.021501841
247	0xbd62adc9	-0.055341516
248	0xbd81c554	-0.063364655
249	0xbb696879	-0.003561525
250	0xbd9b3c9f	-0.07579922
251	0xbdd59dbe	-0.104304776
252	0x3db57f94	0.08862224
253	0x3da7c355	0.081915535
254	0xbd0a06f4	-0.033698037
255	0xbe289939	-0.164647

net.0.bias f4 [200]
0	0xbd06f5a2	-0.032949097
1	0x3d839486	0.06424813
2	0xbd05dd0a	-0.032681502
3	0xbd596356	-0.05307325
4	0x3c299718	0.010350965
5	0xbd18e941	-0.037331823
6	0xbd3ea50a	-0.046544112
7	0xbd26c6ff	-0.04071712
8	0x3d15b853	0.03655274
9	0xbc03f21a	-0.008053327
10	0xbd34a663	-0.04410399
11	0xbcd9ee26	-0.026602816
12	0xbca92aaf	-0.020650236
13	0x3b984ad6	0.004647593
14	0x3d2afd68	0.041745573
15	0xbcb58d18	-0.022162005
16	0xbcc86ef4	-0.02446697
17	0xbd3fb413	-0.04680259
18	0x3d3d74bb	0.0462539
19	0x3d454383	0.048160087
20	0xbd55a2ce	-0.052157216
21	0xbc12e55b	-0.008965815
22	0xbd493a27	-0.049127724
23	0xbc3154bc	-0.010823425
24	0xbd255689	-0.04036573
25	0xbcfcf5a1	-0.030878844
26	0xbd0ec126	-0.03485217
27	0xbd03b88c	-0.03215842
28	0x3cd4d4e3	0.025980419
29	0xbcb41fe0	-0.021987855
30	0x3cc994f4	0.02460716
31	0xbd1ab368	-0.03776875
32	0x3d0e739b	0.03477822
33	0xbd2fed40	-0.04295087
34	0xbcb38624	-0.02191455
35	0xbcb5181c	-0.022106223
36	0x3d138736	0.03601762
37	0xbd27c487	-0.040958907
38	0xbcf14793	-0.029453075
39	0xbd0b2b8c	-0.033977076
40	0x3d2daeb8	0.042402953
41	0xbd4fabf1	-0.050701085
42	0xbd2392fc	-0.039935097
43	0xbd06d7ba	-0.032920577
44	0x3d45c7b3	0.04828615
45	0xbd2775b0	-0.04088372
46	0xbcde9355	-0.027169863
47	0x3d5400e9	0.05175868
48	0x3d626ca3	0.055279385
49	0x3d6503a3	0.05591167
50	0x3c971993	0.018444812
51	0xbce9df87	-0.028548969
52	0x3d667ab9	0.05626938
53	0x3d564234	0.05230923
54	0xbca46841	-0.020069243
55	0xbc8b2c23	-0.01698882
56	0xbd0a4261	-0.03375471
57	0x3d596eb6	0.053084098
58	0x3c0f223e	0.008736191
59	0xbce3c438	-0.027803525
60	0x3d6aa4cf	0.05728608
61	0xbcb4f396	-0.022088807
62	0xbca07ef4	-0.019591786
63	0x3d38aa0e	0.04508405
64	0xbc965728	-0.018352106
65	0xbd2fcffa	-0.04292295
66	0xbd04d842	-0.032432802
67	0xbce4eef5	-0.027945975
68	0xbccb9555	-0.02485148
69	0x3ce9a62c	0.02852162
70	0xbd4e1b64	-0.05031909
71	0xbc2c7bcb	-0.010527561
72	0x3d12864d	0.03577261
73	0x3c40c0e7	0.0117647415
74	0xbd4e6957	-0.05039343
75	0xbc8dcfad	-0.017310942
76	0x3d2e9a55	0.04262765
77	0xbd1d5e96	-0.038420282
78	0xbccdb2e2	-0.025109712
79	0xbd00640c	-0.031345412
80	0xbca0c9e8	-0.019627526
81	0x3c3f129f	0.011662154
82	0xbd69b08c	-0.057053134
83	0x3c6d7403	0.014492991
84	0xbc382cb8	-0.0112411305
85	0xbc912e5b	-0.0177223
86	0x3d5e0ac1	0.054209474
87	0x3cb89b28	0.022534922
88	0xbd685c16	-0.056728445
89	0x3acabcb0	0.001546761
90	0xbd1e08fc	-0.038582787
91	0x3d81b952	0.06334175
92	0xbd31f9f1	-0.043451253
93	0xbcb3b407	-0.02193643
94	0xbc7a4d6d	-0.015277249
95	0xbca7cb7c	-0.020482771
96	0xbd1f9f9c	-0.038970575
97	0xbc617b59	-0.0137623185
98	0xbb890166	-0.004181075
99	0xbd1212db	-0.035662513
100	0xbcebb59e	-0.028773125
101	0xbd3bdce9	-0.045864973
102	0xbcd2b38d	-0.025720382
103	0x3ce1ffcf	0.0275878
104	0xbd66c0f0	-0.056336343
105	0xbc7c1ca2	-0.015387686
106	0x3d632241	0.05545259
107	0xbd23426a	-0.03985826
108	0xbb024650	-0.0019878335
109	0x3c63ccd0	0.013903812
110	0xbc598595	-0.013276477
111	0xbbb99ff0	-0.005664818
112	0x3d6ebcb6	0.058285438
113	0x3d30246e	0.043003492
114	0xbcc7210f	-0.024307756
115	0x3d01756a	0.031606115
116	0xbcde3e54	-0.02712933
117	0xbd602a67	-0.054727938
118	0xbd4df4ab	-0.05028216
119	0x3d33a904	0.043862358
120	0x3d9488f1	0.07252682
121	0xbc111b6d	-0.0088566365
122	0x3d1c7e1d	0.03820621
123	0x3d2bfdb1	0.041989986
124	0xbd109aae	-0.035303764
125	0x3cbd1058	0.023079082
126	0x3d6116bf	0.054953333
127	0x3bf35fe3	0.007427202
128	0xbbe3f69e	-0.0069568893
129	0x3cb35ac8	0.021893874
130	0x3d3f977c	0.046775326
131	0xbd03ac31	-0.032146636
132	0xbcb5b23b	-0.022179713
133	0xbcddba18	-0.027066275
134	0xbc86dab7	-0.016461713
135	0x3bc866bd	0.006115763
136	0xbcf6f50c	-0.030146144
137	0xbd2cb30a	-0.042162932
138	0xbcdb2d4c	-0.026754998
139	0xbcd858b9	-0.026409494
140	0xbca426d6	-0.02003805
141	0xbd36af0b	-0.044600528
142	0x3d023661	0.03179014
143	0xbc36dc3e	-0.011160908
144	0x3b926ef6	0.004468794
145	0x3d39a846	0.045326494
146	0x3cf71c8d	0.030164981
147	0x3ca94d3c	0.020666711
148	0xbd6171d1	-0.055040184
149	0x3d7b2770	0.061316907
150	0x3caaeac7	0.020863904
151	0xbd1ff6f3	-0.03905387
152	0x3d4bdb7e	0.04976987
153	0x3d7287ba	0.05921147
154	0x3d331f51	0.043731038
155	0xbc9b981b	-0.018993428
156	0x3ce10235	0.027466873
157	0xbc87323d	-0.016503448
158	0x3d4991d5	0.049211342
159	0xbd2b5d42	-0.041836984
160	0xbd27c6da	-0.040961124
161	0x3cd8d9bd	0.026471013
162	0xbc2a6592	-0.010400193
163	0x3d1a1dd9	0.03762612
164	0xbcfb4a5d	-0.030675108
165	0xbd8b1101	-0.067903526
166	0x3d55dc6d	0.052212168
167	0x3d71dbe7	0.059047606
168	0xbc6c7947	-0.014433212
169	0xbc9b8504	-0.018984325
170	0xbc9b832b	-0.018983444
171	0x3d353b16	0.044245802
172	0xbcfa89ca	-0.030583281
173	0xbc92707b	-0.0178759
174	0xbc2ce863	-0.010553452
175	0x3c33e08c	0.010978829
176	0xbd298c39	-0.041393492
177	0x3d54f4a3	0.051991116
178	0xbd772497	-0.06033763
179	0xbd264a92	-0.04059846
180	0xbc876aaa	-0.016530354
181	0xbc4996af	-0.012303992
182	0xbcf0339a	-0.02932148
183	0xbcb10531	-0.02160892
184	0xbcf424c3	-0.029802686
185	0x3cd79831	0.026317688
186	0xbd13b650	-0.03606254
187	0x3d3c57cf	0.04598218
188	0x3d5fddeb	0.054654997
189	0xbcb87aee	-0.022519555
190	0xbd0e1a23	-0.034692895
191	0x3d553261	0.05205
192	0xbb392bc1	-0.002825484
193	0xbd1fe169	-0.039033327
194	0xbcb21d39	-0.02174245
195	0xbce4599d	-0.027874762
196	0xbd5b9f33	-0.05361862
197	0xbd3645b8	-0.044500083
198	0xbc373f05	-0.011184459
199	0xbca75cc8	-0.020429984

net.2.weight f4 [200, 200]
0	0x3cfa2214	0.030533828
1	0xbe44bda6	-0.1921297
2	0x3e26ae38	0.16277397
3	0x3e4fe569	0.20302357
4	0xbdd82ac6	-0.105550334
5	0xbe199a59	-0.15000285
6	0x3d125b0f	0.03573137
7	0x3e320872	0.17386034
8	0x3db44d7c	0.088038415
9	0x3e006b8e	0.12541029
10	0xbe0727a9	-0.13198723
11	0xbd47b936	-0.048760615
12	0x3c280752	0.010255652
13	0x3c1f4e9e	0.009723334
14	0xbaae8233	-0.0013313949
15	0x3e0a9d13	0.13536482
16	0x3e586da7	0.21135579
17	0xbdac1c3a	-0.08403821
18	0xbe3133e8	-0.17304957
19	0xbd10ab46	-0.03531959
20	0xbe3c7a5c	-0.18406051
21	0xbdac84f6	-0.08423798
22	0xbe3eb949	-0.18625368
23	0xbe5a60bf	-0.21325968
24	0x3bf845ff	0.0075767036
25	0x3c2e5761	0.01064095
26	0x3c520b2f	0.012820049
27	0x3df14084	0.117798835
28	0xbd8a6aef	-0.06758677
29	0x3d75a1b5	0.05996867
30	0xbe2a66de	-0.16640803
31	0x3c89458e	0.0167568
32	0xbcd555b3	-0.026041841
33	0x3bcaa372	0.006184035
34	0xbd74e93c	-0.059792742
35	0x3d8ae461	0.06781841
36	0xbe689d9f	-0.22716378
37	0xbd0e8b98	-0.034801096
38	0xbd2193db	-0.039447647
39	0x3dcbaca1	0.09945036
40	0x3caf9b53	0.021436369
41	0xbe14e7af	-0.14541505
42	0xbccc12e9	-0.02491136
43	0xbe61ac86	-0.22038469
44	0x3e85a540	0.26102638
45	0x3d8a657b	0.06757637
46	0xbb815418	-0.0039467923
47	0x3cc42e40	0.023947835
48	0x3dbb1376	0.09134571
49	0x3dbb1830	0.09135473
50	0x3e0a7c9d	0.13524099
51	0x3d7089ec	0.058725283
52	0xbbf73365	-0.0075439685
53	0xbd92a16b	-0.07159694
54	0xbc8ce2df	-0.017198024
55	0x3e0f2832	0.13980177
56	0x3bef55fd	0.007303952
57	0xbd730bda	-0.059337474
58	0xbddcb6e0	-0.10777068
59	0xbcd42973	-0.02589867
60	0xbe4b273b	-0.19839184
61	0x3e3a95dc	0.1822123
62	0xbce881be	-0.028382178
63	0x3de21e7c	0.11040971
64	0xbd122698	-0.035681337
65	0xbe47c27d	-0.19507785
66	0x3d682d71	0.05668396
67	0xbd187e99	-0.037230108
68	0xbd0328c9	-0.032021318
69	0xbd64bcf2	-0.055844255
70	0xbd3adb92	-0.045619555
71	0xbd05ed1a	-0.03269682
72	0x3c87fb9f	0.016599474
73	0xbd241fed	-0.04006951
74	0x3da17fe7	0.078857236
75	0x3e0fc42d	0.14039679
76	0xbd836c00	-0.06417084
77	0xbd403024	-0.04692091
78	0x3e0301c3	0.12793641
79	0x3d13c608	0.03607753
80	0x3dcbc620	0.09949899
81	0x3e26c693	0.16286688
82	0x3c1c476b	0.009538512
83	0xbd4bc019	-0.049743745
84	0xbddd456b	-0.10804256
85	0x3e390c82	0.18071178
86	0xbe6e1b07	-0.23252498
87	0x3b8682ea	0.0041049616
88	0xbd8401ab	-0.06445631
89	0xbdc7c47e	-0.09754275
90	0x3b62a112	0.0034580869
91	0x3e18c343	0.14918236
92	0x3dbf11f0	0.09329593
93	0xbd268446	-0.04065349
94	0x3cc77299	0.024346637
95	0x3cf366c4	0.029712088
96	0x3c1bf3d1	0.00951858
97	0xbcc75d8f	-0.024336604
98	0x3de0dfeb	0.10980209
99	0x3dcc9e34	0.09991112
100	0xbd05f767	-0.032706644
101	0x3dd5b6e2	0.10435273
102	0x3cffc59c	0.031222157
103	0xbd87b952	-0.06627144
104	0x3d8e5273	0.0694932
105	0x3e895507	0.26822683
106	0xbc97a31a	-0.01851039
107	0x3e1f537a	0.15559188
108	0x3df11252	0.117710724
109	0x3d71b890	0.059013903
110	0x3cf477c2	0.029842261
111	0xbccd6983	-0.025074726
112	0xbd72eadf	-0.05930602
113	0x3d7ebe98	0.062193483
114	0xbe09b4c4	-0.13447863
115	0x3cf77d78	0.030211195
116	0x3ce96764	0.028491683
117	0x3bd22d4c	0.006414091
118	0xbe36c9c0	-0.17850399
119	0x3c275719	0.010213637
120	0x3e905e28	0.28196836
121	0x3cb7634a	0.022386212
122	0xbcaf8339	-0.021424877
123	0xbdb01b18	-0.08598918
124	0xbd2c1552	-0.04201252
125	0xbcdb68b6	-0.026783329
126	0x3d9f9b78	0.07793325
127	0x3e100dee	0.14067814
128	0xbe31b90a	-0.17355743
129	0x3e51151b	0.20418207
130	0xbd6f64e4	-0.058445826
131	0x3e1048af	0.14090227
132	0xbba7887e	-0.0051127067
133	0x3cab211a	0.020889807
134	0x3d27b20b	0.04094128
135	0x3de21a33	0.11040153
136	0xbd34a0fe	-0.044098847
137	0x3d299a00	0.04140663
138	0x3e0ed92e	0.13950035
139	0xbd047f9b	-0.032348257
140	0xbd562591	-0.05228192
141	0xbdb7a778	-0.08967489
142	0xbdab36de	-0.083600745
143	0x3dc51b25	0.09624318
144	0xbe20322b	-0.15644138
145	0x3da2b5da	0.07944842
146	0xbe03f94a	-0.12888065
147	0xbd3dcc00	-0.046337128
148	0x3d8cf330	0.06882322
149	0xbdc17ca0	-0.094475985
150	0xbdb28d34	-0.087183386
151	0x3d951a70	0.07280433
152	0xbd867f39	-0.065672345
153	0xbda5a82b	-0.08088716
154	0xbdc8f083	-0.09811499
155	0x3dde7aa9	0.10863239
156	0x3c2d5ab9	0.010580712
157	0x3cdf99f2	0.027295087
158	0xbe18bbca	-0.14915386
159	0xbd3cf591	-0.046132628
160	0x3d558c90	0.052136004
161	0x3dabd34b	0.0838991
162	0x3d740dd2	0.059583493
163	0x3d3c5f0f	0.045989092
164	0x3e0c838f	0.1372206
165	0xbc87a73b	-0.016559234
166	0x3bff76ba	0.0077961357
167	0xbe16e25d	-0.14734788
168	0x3ab64f7e	0.0013909189
169	0x3de25d28	0.110529244
170	0xbc5d4218	-0.0135045275
171	0xbc82a492	-0.015947614
172	0xbce3614b	-0.027756354
173	0xbdf38719	-0.11891002
174	0x3dcc71e7	0.09982663
175	0x3dd036f6	0.10166733
176	0x3b28b736	0.0025743968
177	0x3c570a4a	0.013125012
178	0x3d792071	0.060821954
179	0x3d20fb10	0.03930193
180	0xbd887ddb	-0.0666463
181	0x3d8d0aeb	0.06886848
182	0x3be946b4	0.007119024
183	0x3d48f654	0.04906304
184	0x3e016ec8	0.12639916
185	0xb954c425	-0.00020290965
186	0x3d8db67f	0.06919574
187	0xbd4ccd8c	-0.050000712
188	0xbdd36b5a	-0.1032321
189	0xbdbecf91	-0.09316934
190	0x3c6d29e0	0.014475316
191	0x3c59ec39	0.013300949
192	0xbd1c8d11	-0.03822047
193	0x3e22263b	0.15834896
194	0xbccdb06c	-0.025108539
195	0xbd98c394	-0.074591786
196	0xbda261c4	-0.079288036
197	0xbe596b00	-0.21232224
198	0xbdc74fa8	-0.0973199
199	0x3e85e220	0.26149082
200	0xbdd48be7	-0.10378247
201	0xbc404307	-0.011734731
202	0xbd319918	-0.043358892
203	0x3dc8c039	0.098022886
204	0xbda50522	-0.0805762
205	0x3e44a968	0.19205248
206	0x3c5ee20b	0.0136036975
207	0xbd68cc17	-0.05683526
208	0x3dc4936f	0.09598433
209	0xbde11ffd	-0.109924294
210	0xbd694b2d	-0.05695646
211	0xbe1ccb51	-0.15311934
212	0x3e3660f9	0.1781043
213	0xbd7c2eda	-0.06156812
214	0x3db8ed8c	0.090296835
215	0xbd463e66	-0.04839935
216	0xbd98687a	-0.07441802
217	0x3da728c3	0.081620716
218	0xbe2f31bf	-0.1710882
219	0xbcf410b7	-0.029793127
220	0x3e03075f	0.1279578
221	0xbbe64d76	-0.007028277
222	0x3ccf0237	0.02526961
223	0xbd4b847d	-0.049686898
224	0x3d5c9023	0.053848397
225	0x3d6854ba	0.056721427
226	0xbde5f283	-0.11227896
227	0xbc91a69e	-0.017779645
228	0x3d4d2f9f	0.050094243
229	0x3db054bc	0.08609912
230	0x3da3650b	0.07978257
231	0x3cec7d45	0.028868327
232	0x3d1ad970	0.03780502
233	0x3ca0ca49	0.019627707
234	0x3e065f36	0.13122258
235	0xbe04d208	-0.12970746
236	0xbd13eebd	-0.03611635
237	0x3d393c8b	0.045223754
238	0xbddcf61e	-0.10789131
239	0x3e03e454	0.12880069
240	0x3ca93b99	0.020658301
241	0xbdfe18b6	-0.12407057
242	0xbe153a7e	-0.14573094
243	0xbe0e899c	-0.13919681
244	0xbe4c1ecb	-0.19933622
245	0x3be08727	0.006852049
246	0x3d9ddd3b	0.07708212
247	0x3caed45c	0.021341495
248	0x3eaaf7e4	0.3339225
249	0x3e19bbf0	0.15013099
250	0xbdbc0cd0	-0.09182131
251	0x3d55c4dd	0.052189697
252	0xbdf6c812	-0.12049879
253	0xbc99342d	-0.018701637
254	0xbd37b45f	-0.04484975
255	0xbc9471be	-0.018120643

net.2.bias f4 [200]
0	0xbcab0841	-0.02087796
1	0x3d429699	0.047506902
2	0xbc4cd6bf	-0.012502371
3	0x3d475307	0.048663165
4	0xbcec38f1	-0.028835746
5	0x3c096e27	0.008388079
6	0x3d3802f3	0.044924688
7	0xbd289d0c	-0.041165397
8	0xbc8cad3a	-0.017172445
9	0x3d0599cc	0.032617375
10	0xbd4c43b4	-0.049869254
11	0xbc8468db	-0.01616328
12	0x3d075581	0.033040527
13	0xbd2f73a8	-0.042834908
14	0x3d41e440	0.047336817
15	0xbd33bcf2	-0.043881364
16	0xbccd0258	-0.025025532
17	0x3cf00c21	0.029302659
18	0x3cf3a27c	0.029740565
19	0x3b68fdd8	0.0035551693
20	0x3d522c9b	0.05131207
21	0x3d6500d6	0.055909
22	0xbc5ed4f6	-0.0136005785
23	0x3ba8103b	0.005128888
24	0xbd28b55e	-0.04118859
25	0xba1d1005	-0.0005991462
26	0xbca82af7	-0.0205283
27	0x3d7a8d51	0.061169926
28	0xbce1a2c2	-0.02754343
29	0x3c985c86	0.018598806
30	0xbcb8fa2f	-0.022580234
31	0xbc5140f8	-0.012771837
32	0x3d249847	0.040184285
33	0xbd41259a	-0.047155
34	0xbcc22561	-0.023699464
35	0x3cccba06	0.024991047
36	0xbd1a855f	-0.03772485
37	0x3d5a77a5	0.05333676
38	0xbc4cf554	-0.012509663
39	0xbd2912c0	-0.041277647
40	0x3d61a538	0.055089206
41	0xbc13db9a	-0.009024525
42	0xbc3ec5d5	-0.0116438465
43	0x3d1ac676	0.037786923
44	0x3d77db24	0.060511723
45	0x3d3dcda0	0.046338677
46	0x3d22819c	0.039674386
47	0x3c3f697b	0.011682863
48	0xbcc432a7	-0.023949934
49	0xbc6f1838	-0.014593177
50	0xbc3f88e4	-0.011690352
51	0xbbd7f6b0	-0.0065906867
52	0xbd4bdad7	-0.04976925
53	0xbd02a53b	-0.031895857
54	0x3ae64224	0.0017567319
55	0x3bf8481e	0.0075769564
56	0x3d1feed0	0.03904611
57	0xbacd6483	-0.0015670214
58	0xbbe03d9a	-0.006843281
59	0x3d11faa5	0.035639424
60	0xbc107302	-0.0088164825
61	0x3ca09799	0.019603537
62	0x3cffc705	0.03122283
63	0xbcc83775	-0.024440506
64	0x3d201b57	0.039088573
65	0x3c97c874	0.0185282
66	0x3d24e0e8	0.04025355
67	0x3d2abbe3	0.04168309
68	0xbc56b5e8	-0.013104893
69	0xbd40105b	-0.046890598
70	0x3c2416f0	0.010015234
71	0xbb884558	-0.004158657
72	0xbb58a9c7	-0.003306018
73	0x3c6829df	0.014170139
74	0xbd164071	-0.03668255
75	0x3d22cea6	0.039747857
76	0x3c7f6e14	0.0155902095
77	0xbc82cfd2	-0.015968237
78	0xbca9f67c	-0.020747416
79	0xbc6788db	-0.01413175
80	0xbca8df7e	-0.020614382
81	0xbc914f4a	-0.017738003
82	0xbcef71b0	-0.029229015
83	0x3c9fb652	0.019496117
84	0x3cc08b4b	0.02350392
85	0xbc67a5dd	-0.014138666
86	0x3cf05ece	0.029342081
87	0xbbac2993	-0.0052539795
88	0x3d0b1faa	0.033965744
89	0xbb4c59f5	-0.0031181548
90	0xbc67360f	-0.01411201
91	0xbca97f52	-0.020690594
92	0x3d683dac	0.05669944
93	0x3d089916	0.03334912
94	0xbcd4537d	-0.025918717
95	0xbcdf5172	-0.027260516
96	0xbc1d63aa	-0.009606281
97	0x3d1a4be1	0.03767002
98	0xbcac3a98	-0.021024033
99	0x3cef9151	0.029244097
100	0x3b358331	0.0027696604
101	0x3bf43451	0.0074525257
102	0xbc0cbaf1	-0.008589492
103	0x3d5de76c	0.05417578
104	0xbd2abcf5	-0.04168411
105	0xbd171cdf	-0.036892768
106	0xbc3088b3	-0.010774779
107	0x3d28f878	0.041252583
108	0x3c951203	0.018197065
109	0x3d2b91da	0.04188714
110	0xbc51dc64	-0.012808893
111	0x3c000add	0.00781509
112	0x3d4bbe69	0.049742136
113	0xbcd38938	-0.025822267
114	0x3d538332	0.05163879
115	0xbbd63681	-0.006537259
116	0xbd20360a	-0.039114036
117	0xb7fe1123	-3.028714e-05
118	0xbd4e8e2e	-0.050428562
119	0x3ccf21ad	0.025284613
120	0x3ce078d2	0.027401362
121	0xbb358d4c	-0.0027702628
122	0xbd244078	-0.040100545
123	0x3cdbc256	0.026826065
124	0xbcbaa7c3	-0.022785073
125	0xbcb0edf9	-0.02159785
126	0xbd2a6c45	-0.04160716
127	0xbcef082b	-0.0291787
128	0xbc9919b4	-0.018689014
129	0xbd0559b2	-0.032556243
130	0xbb1c5960	-0.0023856983
131	0xbd2213da	-0.039569713
132	0xbc80420d	-0.015656495
133	0xbd51b6aa	-0.051199593
134	0x3d48f552	0.04906208
135	0xbb18852a	-0.0023272731
136	0xbc76aea2	-0.015056284
137	0xbd43cf59	-0.047805164
138	0xbcbc1252	-0.022957955
139	0x3badcc2b	0.0053038797
140	0xbcce32f4	-0.02517078
141	0x3d045d75	0.03231569
142	0xbc5cd932	-0.013479518
143	0x3d62cdc6	0.055372022
144	0xbcc2ecec	-0.023794614
145	0xbcfc97f3	-0.030834174
146	0xbcf1c0d6	-0.029510897
147	0x3d043d9f	0.03228533
148	0x3c34a151	0.011024789
149	0xbccbce51	-0.024878653
150	0xbcc8d0ee	-0.024513688
151	0x3d6a0769	0.057135973
152	0x3c35b337	0.011090091
153	0xbc4767ba	-0.012170726
154	0x3cbfdf62	0.023421947
155	0xbd10012b	-0.035157364
156	0x3d2b9060	0.041885734
157	0x3c5f440f	0.013627066
158	0x3cb57e06	0.02215482
159	0xbc9ebe1a	-0.019377757
160	0xbc8a2a4d	-0.016865874
161	0xbcd67d1a	-0.0261827
162	0xbd229d09	-0.03970054
163	0x3c835da3	0.01603586
164	0x3b3a126a	0.0028392323
165	0xbd14ff33	-0.03637619
166	0xbbb590d0	-0.0055409446
167	0xbce3ab7f	-0.027791737
168	0xbd073e89	-0.033018623
169	0xbd10bbf3	-0.035335492
170	0xbbc75ec7	-0.0060842964
171	0xbcc20627	-0.023684574
172	0xbca45280	-0.02005887
173	0xbbf82068	-0.0075722225
174	0xbb8213e4	-0.0039696563
175	0xbd6232ce	-0.055224232
176	0xbd31774e	-0.04332667
177	0xbcbcb245	-0.023034224
178	0xbc422f74	-0.011852134
179	0x3b90fb52	0.004424491
180	0xbb087da2	-0.0020826836
181	0x3d3117ed	0.043235708
182	0xbc088ac1	-0.008333863
183	0xbc91f00f	-0.017814664
184	0xbba32589	-0.00497884
185	0x3d69aed7	0.057051506
186	0xbd1b8796	-0.0379711
187	0xbc9f2d9e	-0.019430932
188	0x3d183430	0.037159145
189	0x3d0caccb	0.034344476
190	0xbd168480	-0.036747456
191	0x3d0476f0	0.03233999
192	0x3d0b6c89	0.034039054
193	0xbd2b081b	-0.041755777
194	0xbd6187ac	-0.055061027
195	0xbd08d4f8	-0.033406228
196	0x3c48b94c	0.0122512095
197	0xbcc5ba12	-0.024136577
198	0xbcc88e31	-0.024481865
199	0x3d67ad64	0.056561843

net.4.weight f4 [200, 200]
0	0x3cab587c	0.020916216
1	0xbde90789	-0.1137839
2	0xbe0dc500	-0.13844681
3	0xbd88352b	-0.06650766
4	0x3d2a5c19	0.041591737
5	0xbc8704c7	-0.01648177
6	0x3d3141f3	0.043275785
7	0x3d89237d	0.06696222
8	0x3c1e8d01	0.009677173
9	0xbd6c600f	-0.057708796
10	0x3dfa3f4d	0.12219105
11	0xbc3ecd2d	-0.011645597
12	0xbd9776ca	-0.07395704
13	0xbd07c2bd	-0.0331447
14	0xbd0f2dc9	-0.034955774
15	0x3db49cbf	0.088189594
16	0xbeacf838	-0.33783126
17	0xbdcc94cd	-0.09989319
18	0x3d0c91be	0.034318678
19	0x3cacf30f	0.021111993
20	0xbd95ec68	-0.073204815
21	0xbd77b13b	-0.060471755
22	0x3db91cfa	0.0903873
23	0xbe0c9a79	-0.13730802
24	0x3e0fbe54	0.14037448
25	0x3da15f35	0.078794874
26	0xbe028800	-0.12747192
27	0xbe0dd17c	-0.13849443
28	0xbe136897	-0.14395367
29	0x3d7e5c8d	0.062099982
30	0xbdf011c6	-0.1172214
31	0x3da7813e	0.08178948
32	0xbc18ebe8	-0.009333588
33	0x3e394c40	0.18095493
34	0xbdcc42f8	-0.09973711
35	0x3d93eead	0.07223258
36	0x3da6441c	0.081184596
37	0x3dda7052	0.10665955
38	0x3d16f8b7	0.036858287
39	0x3cf9a99b	0.030476382
40	0x3d29704e	0.041366868
41	0x3ddb1b1e	0.106985316
42	0xbe1f6f0d	-0.15569706
43	0x3cd0173f	0.02540171
44	0xbda567c9	-0.08076436
45	0xbda59578	-0.080851495
46	0xbe136e1c	-0.14397472
47	0xbd82a08a	-0.06378277
48	0xbc917481	-0.017755749
49	0xbd7e7be7	-0.06212988
50	0xbab4815f	-0.0013771466
51	0xbcf28d45	-0.029608378
52	0x3e43fe63	0.1914001
53	0xbd281185	-0.041032333
54	0xbe05fc40	-0.13084507
55	0x3e1ff896	0.15622172
56	0x3d4d6c8f	0.050152358
57	0xbce7cd1c	-0.028296046
58	0xbd86a617	-0.06574648
59	0x3cce3575	0.025171975
60	0xbdae7686	-0.085187
61	0xbe086391	-0.13319232
62	0x3de3340e	0.11093913
63	0xbd5c7522	-0.053822644
64	0x3d1a8ffd	0.037734974
65	0x3d3bebe2	0.045879252
66	0x3d53469c	0.05158101
67	0x3de97ee5	0.11401156
68	0xbcbee08e	-0.023300435
69	0xbc0aea76	-0.008478751
70	0x3e35178a	0.1768476
71	0x3d3182f6	0.043337785
72	0x3e11ca6c	0.14237374
73	0xbe54aa63	-0.20768122
74	0xbd88216e	-0.06647001
75	0x3dc9eff9	0.09860224
76	0xbdcaf382	-0.09909727
77	0xbe121ab3	-0.14267997
78	0xbe15e00b	-0.14636247
79	0xbdbaa0b6	-0.091126844
80	0xbc90fa17	-0.017697377
81	0xbd601c96	-0.05471476
82	0x3e19afba	0.1500844
83	0x3de896da	0.11356898
84	0xbd2eff93	-0.042724203
85	0xbe0ce920	-0.13760805
86	0xbe207d5f	-0.15672825
87	0x39fd24ec	0.0004828343
88	0x3dcdcc59	0.10048742
89	0xbe577f14	-0.2104457
90	0xbe1a3252	-0.15058258
91	0xbcfadd60	-0.030623138
92	0x3b8d6c62	0.0043158988
93	0xbe338110	-0.17529702
94	0x3de28726	0.11060934
95	0xbce4e1f5	-0.027939776
96	0xbe12050b	-0.14259736
97	0xbd63b55a	-0.055592872
98	0x3e1c1211	0.15241267
99	0x3de21663	0.11039426
100	0xbdc10f86	-0.09426789
101	0xbd3c5060	-0.04597509
102	0xbdfc2433	-0.12311592
103	0xbe2024ed	-0.15639086
104	0xbdb42842	-0.08796741
105	0x3e808073	0.25098
106	0x3d94b887	0.07261758
107	0x3dfde13c	0.12396476
108	0xbdaa332f	-0.08310544
109	0x3d0f2521	0.03494752
110	0x3d4670c8	0.0484474
111	0x3d2ec7c2	0.042670973
112	0x3c97ae90	0.018515855
113	0x3d33d9d0	0.043908894
114	0xbe81422a	-0.25245792
115	0xbd97811a	-0.07397671
116	0x3d9682d9	0.07349176
117	0xbc73c05d	-0.014877406
118	0x3db62ac4	0.08894876
119	0xbb818991	-0.003953167
120	0x3dc3a2f1	0.09552563
121	0xbdc1d021	-0.094635256
122	0x3d499b18	0.049220175
123	0xbcbe9910	-0.023266345
124	0xbe83c03a	-0.25732595
125	0x3d66b0cd	0.056320954
126	0x3c57fe6f	0.01318322
127	0x3da5e264	0.08099821
128	0x3e4e43e7	0.2014309
129	0x3d9dfb9e	0.07714008
130	0x3d12ac37	0.035808768
131	0x3d6d7fca	0.057983197
132	0x3c1859cb	0.009298752
133	0x3e28de1e	0.16490981
134	0x3dd91326	0.105993554
135	0xbd08c0c1	-0.03338695
136	0xbbaf35a8	-0.0053469725
137	0x3e0444a6	0.12916812
138	0xbdc4e515	-0.096140064
139	0xbdf60c16	-0.12014024
140	0xbc3f07bf	-0.011659562
141	0xbe42ed6a	-0.19035879
142	0xbd82851c	-0.06373045
143	0xbe3b6fca	-0.18304363
144	0x3e26f54f	0.16304515
145	0x3d770075	0.06030317
146	0xbd9b948b	-0.07596692
147	0xbdc7f72c	-0.09763941
148	0x3b63d040	0.0034761578
149	0x3d53d9c6	0.051721357
150	0x3da1824f	0.078861825
151	0x3d2176a0	0.03941977
152	0x3be83d59	0.0070873913
153	0xbda1bef4	-0.078977495
154	0xb9f4b7ed	-0.00046676342
155	0x3db4cf69	0.08828623
156	0x3a7d5b87	0.0009664823
157	0x3b00f2ab	0.0019675891
158	0x3e2d0305	0.16895683
159	0xbea690b9	-0.3253229
160	0x3d0e9605	0.03481104
161	0xbda8c20a	-0.08240135
162	0x3e04a7a4	0.12954575
163	0x3e36f070	0.17865157
164	0xbe12f3b3	-0.14350776
165	0xbc99a0fc	-0.018753521
166	0xbd94a265	-0.07257537
167	0x3de2cae5	0.11073855
168	0x3d0b3a4b	0.03399114
169	0x3d020ed5	0.031752426
170	0x3d7a4e8e	0.06111007
171	0x3d258496	0.040409647
172	0xbcea004d	-0.028564597
173	0x3c51eeb8	0.012813263
174	0xbcf6612d	-0.030075634
175	0x3d73c553	0.059514355
176	0xbe175d12	-0.14781597
177	0xbe021dee	-0.1270673
178	0xbce6eba9	-0.028188543
179	0xbcda8a65	-0.02667732
180	0xbd78cb22	-0.060740598
181	0xbe87612e	-0.2644133
182	0xbe6c2b0a	-0.23063293
183	0x3d0158a9	0.031578694
184	0x3d0ab23d	0.033861388
185	0xbb46b065	-0.0030317542
186	0xbe4dbc53	-0.20091371
187	0xbeb77ab1	-0.35835794
188	0xbe411ba3	-0.18858199
189	0xbe2fddba	-0.17174426
190	0xbaa2fc42	-0.0012434798
191	0xbcb60056	-0.022216957
192	0xbdf4d17e	-0.1195402
193	0x3d851b09	0.06499297
194	0x3e17d389	0.14826788
195	0xbdd7b81a	-0.105331615
196	0xbe0dd2ad	-0.13849898
197	0x3d741723	0.059592377
198	0xbe195ac8	-0.14976037
199	0xbe17c196	-0.14819941
200	0xbdf60568	-0.1201275
201	0x3e413d34	0.18871003
202	0xbe31ea7c	-0.17374605
203	0xbe10d16f	-0.14142393
204	0x3db00707	0.0859509
205	0x3dd4e3fc	0.10395047
206	0x3d39b181	0.045335297
207	0xbdd4dfc4	-0.103942424
208	0xbdcf3a74	-0.10118571
209	0x3dd876d4	0.1056954
210	0x3e05542c	0.1302039
211	0x3e2f3a50	0.17112088
212	0xbc5d26ab	-0.013497989
213	0x3e01c23f	0.12671755
214	0xbe07eb03	-0.13273244
215	0xbe9eb8a4	-0.31000245
216	0xbb408020	-0.0029373243
217	0xbd6d0556	-0.057866417
218	0x3c3d2421	0.011544258
219	0xbc7b6b6a	-0.015345434
220	0x3dffda6b	0.12492832
221	0xbda12ed1	-0.07870258
222	0xbd75ecba	-0.060040213
223	0xbdf0c1c4	-0.11755708
224	0xbc595ed5	-0.013267239
225	0xbd30ad60	-0.043134093
226	0x3d8fe092	0.07025255
227	0xbe7faa5c	-0.2496733
228	0xbde364b9	-0.11103196
229	0x3db02025	0.08599881
230	0xbe1a4b9e	-0.15067908
231	0x3da32660	0.07966304
232	0xbd87beab	-0.06628164
233	0x3cac24f2	0.02101371
234	0x3cb34020	0.021881163
235	0xbd8cb780	-0.06870937
236	0xbd8829d0	-0.066486
237	0x3d990bb1	0.07472933
238	0xbca85d84	-0.020552404
239	0xbe4309fc	-0.19046777
240	0x3c39a45e	0.011330692
241	0xbb203d7b	-0.0024450708
242	0xbceb5c96	-0.028730672
243	0x3de5a089	0.1121226
244	0x3e299a68	0.16562808
245	0x3d8922a5	0.06696061
246	0xbe20e90c	-0.157139
247	0xbd456768	-0.04819432
248	0xbe950d93	-0.2911192
249	0x3aab8a5a	0.0013087497
250	0xbd26cb6c	-0.040721342
251	0x3adc8329	0.0016823757
252	0xbd40b00b	-0.047042888
253	0xbda2c47f	-0.07947635
254	0xbdc86c1b	-0.097862445
255	0x3b7c9b9f	0.0038544906

net.4.bias f4 [200]
0	0xbd403bfa	-0.046932198
1	0x3cca0b26	0.02466352
2	0x3c1c8b6f	0.009554728
3	0xbb7dd8ab	-0.003873388
4	0x3c3dd250	0.011585787
5	0xbccc153b	-0.024912467
6	0xbabdb08d	-0.0014472172
7	0xbd161a04	-0.036645904
8	0x3c67ba40	0.014143527
9	0xbcd1cfb0	-0.025611728
10	0xbcc51c25	-0.024061272
11	0x3da88827	0.08229094
12	0xbc8f09f8	-0.017460808
13	0x3ca48c18	0.020086333
14	0x3c4b7e47	0.012420244
15	0xbb8a7483	-0.004225315
16	0xbbc7a965	-0.0060931914
17	0x3c43f9a6	0.011961376
18	0xbaa0036d	-0.0012208052
19	0x3ccd7945	0.02508224
20	0x3ce62c99	0.028097438
21	0xbd079c36	-0.03310796
22	0xbcea5262	-0.028603736
23	0x38172260	3.603322e-05
24	0xbcc1d57e	-0.023661371
25	0x3c2eecda	0.010676587
26	0x3c396dc4	0.011317674
27	0x3c0763cb	0.008263539
28	0x3d466480	0.048435688
29	0xbd2271af	-0.0396592
30	0x3c9dbb6d	0.01925441
31	0xbdc2d997	-0.09514158
32	0x3be476e9	0.006972183
33	0x3cafb6dd	0.0214495
34	0xb7e58e82	-2.7365288e-05
35	0x3aa0315b	0.001222174
36	0xbc2545c6	-0.010087436
37	0x3cbfd88e	0.023418691
38	0xbca6c4fb	-0.0203576
39	0x3aa50f59	0.0012593075
40	0x3cadead4	0.021230139
41	0x3d81d7a7	0.063399605
42	0x3d7d49a6	0.061837815
43	0xbc7a8d9c	-0.015292551
44	0xbc344d93	-0.011004823
45	0x3be8b0e7	0.0071011665
46	0xbc355433	-0.011067438
47	0x3ce017ae	0.027355041
48	0xbcb1cb49	-0.02170338
49	0x3c0d105b	0.0086098565
50	0x3cd44eb2	0.025916431
51	0xbc84d414	-0.016214408
52	0xbb86e46b	-0.004116585
53	0xbc290dae	-0.010318203
54	0x3c12fa29	0.008970776
55	0xbcbb9ba3	-0.022901362
56	0x3d22759e	0.03966295
57	0xbd048dcc	-0.03236179
58	0xbc2eb47a	-0.010663146
59	0xbc11409c	-0.008865502
60	0xbd054114	-0.032532766
61	0x3c96def7	0.018416865
62	0x3cb6353a	0.022242177
63	0x3ce02128	0.02735956
64	0xbc4f646d	-0.012658221
65	0xbbdc744a	-0.00672773
66	0xbcc95ff8	-0.024581894
67	0x3d10a9cc	0.03531818
68	0xbc7499d5	-0.014929255
69	0xbca39133	-0.019966697
70	0xbca53a9f	-0.020169554
71	0xbbdd19d9	-0.006747466
72	0xbd337575	-0.043813188
73	0x3cd02be8	0.025411561
74	0xb8197c0c	-3.659357e-05
75	0xbd10b80c	-0.03533177
76	0x3af0d418	0.0018373756
77	0x3c2f4963	0.010698649
78	0x3ca5747d	0.020197148
79	0x3c7815ab	0.015141885
80	0x3c348867	0.011018849
81	0xbcaaa313	-0.020829713
82	0xbd1bbe38	-0.038023204
83	0xbb8301c2	-0.0039980123
84	0xbd07b41f	-0.03313076
85	0xbc66c29d	-0.014084485
86	0xbc9ccd82	-0.019140963
87	0xbcaa3db2	-0.020781372
88	0xbcd942bd	-0.026521081
89	0xbc463ba7	-0.012099183
90	0xbc9a5648	-0.01883997
91	0x3cc5f9ef	0.02416703
92	0xbc29b6af	-0.010358497
93	0x3cba53b5	0.022744993
94	0xbd5a3e97	-0.053282347
95	0xbc025b02	-0.007956268
96	0xbd24578b	-0.04012255
97	0x3c48ed56	0.012263617
98	0xbd478b2a	-0.0487167
99	0x3c2d3840	0.010572493
100	0xbd18512b	-0.037186783
101	0xbc96f110	-0.018425494
102	0x3bb4f7c1	0.0055226986
103	0x3d33ecd8	0.043927044
104	0xbd1f2795	-0.038856108
105	0xbd2e3351	-0.042529408
106	0xbc632dcc	-0.013865899
107	0xbc7d3c7a	-0.015456313
108	0xbbc696dc	-0.0060604643
109	0xbc5d2c73	-0.013499367
110	0x3c69db85	0.014273529
111	0xbcaddbdc	-0.021223001
112	0xbcffc4f7	-0.03122185
113	0xbd04bb3e	-0.03240513
114	0xbd03e37f	-0.03219938
115	0xbc6db6d1	-0.014508919
116	0xbcd21e1e	-0.025649127
117	0xbd2d7b98	-0.042354196
118	0xbaf138b5	-0.0018403741
119	0x3d1cc3f1	0.0382728
120	0x3d01e39a	0.0317112
121	0xbcdb7669	-0.02678986
122	0x3a81486e	0.0009863505
123	0x3cfc60ec	0.030807935
124	0xbc46c24e	-0.012131287
125	0x3c1675df	0.009183376
126	0x3c519207	0.012791163
127	0x3c381aab	0.011236827
128	0xbc67f154	-0.014156658
129	0xbd2ecc71	-0.04267544
130	0x3ca99bc8	0.020704165
131	0x3cb4ee1d	0.022086198
132	0xbbc139ef	-0.005896799
133	0xbb8b16e8	-0.004244674
134	0x3ab7a711	0.0014011582
135	0xbb6ec037	-0.0036430487
136	0x3cc9feed	0.02465769
137	0xbc4515f1	-0.012029157
138	0xbbaa727d	-0.0052016363
139	0xbcc631c1	-0.024193646
140	0x3c6e754f	0.014554336
141	0x3c4d9c66	0.012549495
142	0x3c55174b	0.013006042
143	0xbcd30184	-0.025757559
144	0xbcd18247	-0.025574816
145	0x3ccc1215	0.024910966
146	0x3b1c225b	0.0023824188
147	0xbc9f4f87	-0.019447101
148	0xbc4fd9c0	-0.012686193
149	0x3be4fca3	0.0069881245
150	0xbca1e795	-0.019763747
151	0xbd154ce3	-0.036450278
152	0x3c0df647	0.008664674
153	0xbd111815	-0.035423357
154	0x3d3e2dbf	0.046430346
155	0x3d5f4a58	0.05451426
156	0x3ce90196	0.028443139
157	0x3b5303d4	0.0032198327
158	0xbc8d5a54	-0.017254986
159	0x3c8bc983	0.017063862
160	0xbc2baa78	-0.010477655
161	0x3a552b42	0.0008131751
162	0xbcbcf2dc	-0.023065023
163	0xbc347ec5	-0.011016552
164	0x3c0c4c97	0.008563182
165	0xbbeb7529	-0.0071855974
166	0x3c83d361	0.016092004
167	0x3c87ca27	0.016575886
168	0x3d2fe282	0.042940624
169	0x3ca1da77	0.019757492
170	0xbce36eb1	-0.027762743
171	0xbb7313af	-0.003709059
172	0x3d062761	0.0327524
173	0xbc8a86a7	-0.01690991
174	0xbc27325f	-0.0102048805
175	0x3c7b3041	0.015331329
176	0xbad227a2	-0.001603354
177	0xbc509e84	-0.012733106
178	0x3c2147c6	0.009843772
179	0xbc8e26d9	-0.017352508
180	0xbc71e6fd	-0.014764545
181	0x3c7ecc09	0.015551575
182	0xbc22797d	-0.00991666
183	0xbc94b072	-0.018150542
184	0xbd010fb0	-0.0315091
185	0xbc21289f	-0.009836345
186	0xbcb79fb1	-0.022415014
187	0xbc5570dc	-0.013027396
188	0xbd0806d9	-0.033209655
189	0x3b5a10bd	0.0033274137
190	0x3bcf89fb	0.006333587
191	0xbca32716	-0.019916099
192	0xbcd72d81	-0.026266815
193	0x3bc59045	0.006029161
194	0x3b49e68b	0.003080758
195	0xbc399203	-0.011326316
196	0xbca7c74d	-0.020480776
197	0xbcb41502	-0.021982674
198	0xbbd29240	-0.0064261258
199	0xbd14d489	-0.0363355

net.6.weight f4 [200, 200]
0	0x3c59384a	0.013258049
1	0xbd37b6cd	-0.044852067
2	0x3d895d76	0.067072794
3	0x3d4e0dc4	0.050306097
4	0xbdbd1269	-0.09232027
5	0x3d951de8	0.07281095
6	0x3e67a8e8	0.22623026
7	0xbddd1b6d	-0.10796247
8	0xbd4b3b0d	-0.049616862
9	0x3d11e2d6	0.03561672
10	0x3dc4e983	0.09614851
11	0xbe22567d	-0.15853305
12	0x3d4964b7	0.049168315
13	0xbc8ead34	-0.017416574
14	0x3b969172	0.004594975
15	0x3e18c5a7	0.14919148
16	0x3e86159c	0.26188362
17	0x3cdfcc71	0.027319165
18	0xbe5ccf8e	-0.21563551
19	0xbc275b7e	-0.0102146845
20	0x3db51c11	0.08843244
21	0xbcfe4328	-0.031037882
22	0x3d852e64	0.06502989
23	0xbd863e3c	-0.06554839
24	0x3df617b4	0.1201624
25	0xbc2ec5df	-0.010667293
26	0x3e1c1dcf	0.15245746
27	0x3e043af3	0.12913112
28	0xbbe771e4	-0.0070631374
29	0xbd7e00b1	-0.062012378
30	0xbca5c8d5	-0.020237366
31	0x3e0300c9	0.12793268
32	0x3c6e2d96	0.014537236
33	0x3d3220d5	0.043488342
34	0xbd9a0a3e	-0.07521485
35	0xbdf54d22	-0.119776025
36	0xbdd744dc	-0.10511181
37	0x3d81191f	0.063036196
38	0x3ad61543	0.0016333241
39	0xbe7e192d	-0.24814291
40	0xbd8b2c51	-0.06795562
41	0xbc5066b5	-0.0127198
42	0x3dea2542	0.114328876
43	0x3e00f55f	0.12593602
44	0x3d9d13b4	0.07669774
45	0x3e2a2841	0.16616918
46	0x3d640b6b	0.05567495
47	0xbdf4d703	-0.11955073
48	0xbdbdf729	-0.09275658
49	0x3d22d529	0.039754067
50	0xbe5c2025	-0.21496637
51	0x3c38c15c	0.011276569
52	0x3dccc4e0	0.099984884
53	0xbc0cc86f	-0.008592709
54	0xbdf196f9	-0.11796374
55	0xbabbb125	-0.0014319761
56	0xbdbd7d6c	-0.09252438
57	0xbccf6eb7	-0.025321348
58	0xbdb09954	-0.08622995
59	0x3d977ff0	0.07397449
60	0x3d8fbbc5	0.07018236
61	0x3cae3526	0.021265578
62	0x3c80a4d0	0.015703589
63	0x3d8500a0	0.0649426
64	0x3db599c1	0.08867217
65	0x3d1c2090	0.03811699
66	0x3e24df23	0.16100745
67	0xbdd3d7fa	-0.10343929
68	0x3dddffd8	0.10839814
69	0xbd88735d	-0.06662629
70	0xbbafad20	-0.0053612143
71	0xbe1c33b6	-0.15254101
72	0x3cbc6d22	0.023001257
73	0xbdda31c9	-0.10654027
74	0x3dd62725	0.10456685
75	0x3e047da0	0.12938547
76	0xbde96a4c	-0.11397228
77	0x3d6d0fd0	0.057876408
78	0x3dc7f955	0.09764353
79	0x3c711a09	0.01471568
80	0xbdfd4211	-0.12366117
81	0x3d891f5e	0.06695436
82	0xbdb1e237	-0.08685725
83	0xbd6255cd	-0.055257607
84	0x3c00cad2	0.007860856
85	0xbdb5b6ab	-0.08872732
86	0x3d477264	0.048693076
87	0xb9bd8d4d	-0.00036154166
88	0xbb949221	-0.0045340215
89	0xbdc7af14	-0.097501904
90	0x3d65485e	0.055977218
91	0xbdd98f88	-0.106230795
92	0xbc0be9d2	-0.008539634
93	0xbcdf2bed	-0.027242625
94	0x3d0d7189	0.034532104
95	0xbdea9a80	-0.1145525
96	0x3db9c319	0.09070415
97	0x3df48537	0.11939471
98	0xbd13d424	-0.036090985
99	0xbd75917a	-0.05995319
100	0xbd08f1f6	-0.033433877
101	0xbdb1d4a5	-0.08683137
102	0xbde9ab5a	-0.11409636
103	0x3b971d12	0.0046116197
104	0xbcb093ee	-0.021554913
105	0xbe40b146	-0.18817624
106	0xbda4be34	-0.08044091
107	0x3e185f40	0.14880085
108	0x3cb3b445	0.021936545
109	0x3e080c7b	0.13286011
110	0xbe953bf1	-0.29147294
111	0x3e27049c	0.16310352
112	0x3a9dc7ce	0.0012037696
113	0x3df42ecd	0.11922989
114	0x3e1975c2	0.14986327
115	0x3e60ef59	0.21966304
116	0xbd3367b1	-0.04380006
117	0x3da9dfe6	0.08294658
118	0xbdef76d7	-0.11692589
119	0xbe0fc275	-0.14039023
120	0xbc73cc74	-0.014880288
121	0x3d8524d0	0.06501162
122	0xbc86cc7b	-0.016454926
123	0xbdc63472	-0.09677972
124	0x3daae799	0.08344955
125	0x3dfe8ecb	0.12429579
126	0xbd6ab6dc	-0.057303295
127	0x3cc488c6	0.023991
128	0xbdb8de8c	-0.090268224
129	0x3daa403c	0.08313033
130	0xbe1b923a	-0.151925
131	0xbdafce7f	-0.08584308
132	0x3bc2fa30	0.005950235
133	0xbba911f7	-0.0051596123
134	0x3d261093	0.04054315
135	0x3d6451a2	0.055741914
136	0x3e4b072b	0.19826953
137	0xbd45efe4	-0.04832448
138	0x3dbeef28	0.09322959
139	0xbd919343	-0.07108166
140	0xbdaab594	-0.083354145
141	0x3d878f89	0.06619174
142	0x3c6a921e	0.014317064
143	0x3de98582	0.11402418
144	0xbdd13c95	-0.10216633
145	0xbd3009c8	-0.042978078
146	0x3d8313c8	0.06400257
147	0x3d5c805e	0.053833358
148	0xbd989cb0	-0.07451761
149	0x3dd9ab06	0.10628323
150	0xbdbe6ee5	-0.09298495
151	0x3d745c1e	0.059658162
152	0xba7596b8	-0.0009368467
153	0x3dc5920c	0.09646997
154	0x3de43ce7	0.11144429
155	0x3d99dd1e	0.07512878
156	0x3d3c10c7	0.045914438
157	0xba3eb678	-0.0007275115
158	0xbdb6e053	-0.08929505
159	0x3c0c123d	0.00854927
160	0xbd99202d	-0.0747684
161	0x3d679d5b	0.05654655
162	0xbd018801	-0.031623844
163	0xbc78ae3e	-0.015178261
164	0x3e1acb58	0.15116632
165	0x3be659dd	0.0070297555
166	0x3d1b6d2f	0.037945922
167	0x3d81780d	0.06321726
168	0xbddd2e32	-0.10799827
169	0xbe2de934	-0.16983491
170	0x3c6c4b59	0.014422261
171	0xbd6061cb	-0.054780763
172	0x3cc7899b	0.024357608
173	0x3e9f0d84	0.31065
174	0x3dd97d26	0.10619573
175	0xbddb7739	-0.10716099
176	0x3c073aa7	0.00825373
177	0x3cf3eae1	0.029775085
178	0x3d5273d7	0.051380005
179	0x3e6af60f	0.22945426
180	0x3e028859	0.12747325
181	0x3e20c94b	0.15701787
182	0xbbe5cec9	-0.007013176
183	0xbd983959	-0.07432813
184	0x3e10db64	0.14146191
185	0x3dbcd706	0.092207
186	0x3d0165c1	0.03159118
187	0x3e20e487	0.15712176
188	0x3dae818c	0.08520803
189	0x3dc782ed	0.09741769
190	0x3d93418e	0.07190238
191	0xbd0bad39	-0.034100745
192	0x3d965d31	0.073419936
193	0x3dc85696	0.0978214
194	0xbc6a1956	-0.014288267
195	0xbda27277	-0.07931989
196	0xbc81f6f2	-0.015864823
197	0x3e3690de	0.178287
198	0xbdae64aa	-0.08515294
199	0x3e8bd50e	0.27310985
200	0x3d055bb9	0.032558177
201	0xbba174e5	-0.004927265
202	0xbd26e63e	-0.04074692
203	0x3d81b4eb	0.063333355
204	0x3e075147	0.13214599
205	0x3c8fc9e6	0.017552327
206	0x3e0c1b79	0.13682355
207	0xbdf61724	-0.120161325
208	0xbe02586b	-0.12729041
209	0xbdca1542	-0.09867336
210	0x3e0a6746	0.13515958
211	0xbdbdd5fc	-0.0926933
212	0x3e85f413	0.26162776
213	0xbdb498ba	-0.08818193
214	0x3d2315cb	0.039815705
215	0xbd44a461	-0.048008326
216	0x3d370241	0.044679884
217	0x3a58ec1d	0.000827493
218	0xbe27a30f	-0.16370796
219	0xbcae7c3e	-0.021299478
220	0x3a7e9a98	0.00097123673
221	0xbe065fac	-0.13122433
222	0x3d4fd4ae	0.050739937
223	0x3d036aa1	0.03208411
224	0x3df946f3	0.121717356
225	0x3d029241	0.03187776
226	0x3c5ec047	0.013595647
227	0xbe0766f2	-0.13222864
228	0x3d4a110e	0.04933267
229	0x3d6943f2	0.056949563
230	0xbcc0ba4d	-0.023526335
231	0xbe982710	-0.29717302
232	0x3d7b92b6	0.06141921
233	0xbd20ef9b	-0.039291006
234	0x3b3f8663	0.0029224388
235	0xbcd685ce	-0.02618685
236	0xbca18a35	-0.019719223
237	0x3ca175ac	0.01970943
238	0x3c0b4879	0.008501166
239	0x3d999c9f	0.07500576
240	0x3ceb3e5b	0.028716257
241	0xbd2ff9ec	-0.042962953
242	0x3e0d4adf	0.13798092
243	0x3e1dc3b3	0.15406685
244	0xbd5a9817	-0.0533677
245	0x3e1f8448	0.15577805
246	0x3dff0b7c	0.12453362
247	0x3e10d118	0.14142263
248	0xbcbeb182	-0.023278002
249	0xbd573171	-0.052537385
250	0x3caf50fa	0.021400917
251	0xbcd3da2e	-0.025860872
252	0x3da1e43d	0.07904861
253	0xbe4f1992	-0.20224598
254	0x3e527c37	0.20555197
255	0x3d1d9be9	0.038478766

net.6.bias f4 [200]
0	0xba6d9e13	-0.00090643874
1	0x3b51db1e	0.0032021473
2	0x3cc39937	0.02387677
3	0xbc2b90dd	-0.01047155
4	0xbbd32949	-0.0064441306
5	0xba7d8ad4	-0.0009671871
6	0x3b9b0d61	0.0047318195
7	0xbcb805b3	-0.022463655
8	0x3ca41f41	0.020034434
9	0xbc907034	-0.017631628
10	0x39ff3c48	0.00048682303
11	0x3cb67e6e	0.022277083
12	0x3c4bde58	0.012443148
13	0xbbb32e0b	-0.0054681352
14	0xbbeebd4e	-0.0072857505
15	0x3d2d4d5f	0.042310115
16	0xbc2e746a	-0.010647872
17	0x3d1d4ec7	0.038405206
18	0xbbe27aef	-0.0069116275
19	0x3c171b9c	0.009222891
20	0xbcf756d9	-0.03019278
21	0xba86459b	-0.0010244133
22	0x3c2e287e	0.010629771
23	0xbbc586c1	-0.006028027
24	0xbd15e594	-0.036595896
25	0x3ba60ebf	0.005067676
26	0xbd04a897	-0.032387342
27	0xbd05a60e	-0.032629065
28	0x3caed96d	0.021343911
29	0x3cee2cdc	0.029074125
30	0xbbfc63ba	-0.007702318
31	0xbcd05784	-0.025432356
32	0xbc5025ef	-0.012704357
33	0xbbe73afd	-0.0070565925
34	0xbb06e196	-0.0020581237
35	0xba81de36	-0.0009908143
36	0x3d32014a	0.04345826
37	0xbb727ee3	-0.00370019
38	0x3c956f6d	0.018241609
39	0x3ca611c7	0.020272149
40	0xbd00fe5c	-0.031492576
41	0xbc1d59d6	-0.009603938
42	0x3bb1c7ec	0.005425444
43	0xbbf3d3f0	-0.0074410364
44	0xbc25a59d	-0.010110286
45	0x3d33353f	0.04375195
46	0xbcb4ed88	-0.02208592
47	0x3b70dc8b	0.0036752548
48	0x3c9ee670	0.01939699
49	0x3cc298a1	0.02375442
50	0xbc541010	-0.012943283
51	0x3a0c8cb9	0.00053615455
52	0xbd0a1365	-0.033709902
53	0xbce79c81	-0.028272869
54	0xbce8e5e2	-0.02842993
55	0xbbbea569	-0.0058180583
56	0xbbcf9990	-0.0063354447
57	0x3bb1bf93	0.0054244488
58	0xbd10bcd3	-0.035336327
59	0x3c81d777	0.015849812
60	0xbc0a3fb8	-0.008438043
61	0x3cb14217	0.02163796
62	0x3b996561	0.0046812748
63	0xbcf2ce0c	-0.029639266
64	0xbcb0dfb6	-0.021591049
65	0x3c545e2e	0.012961907
66	0xbcf782bb	-0.030213704
67	0x3c89eba0	0.016835988
68	0x3d391fc4	0.04519631
69	0xbd1b28c4	-0.037880674
70	0xbcf3e5bf	-0.029772637
71	0x3b7ffe9b	0.0039061669
72	0xbc240014	-0.010009784
73	0x3c6c3d1f	0.014418869
74	0xbd0e254f	-0.03470355
75	0xbccb34cb	-0.024805447
76	0xbd30289e	-0.043007486
77	0xbc7fdc8d	-0.015616548
78	0x3ce4b96f	0.027920453
79	0xbbe03890	-0.0068426803
80	0x3b4ae287	0.0030957775
81	0x3ca314e4	0.019907422
82	0xbd11d609	-0.03560451
83	0x3c7700e0	0.015075892
84	0x3c053392	0.008129971
85	0x3c9e967f	0.019358872
86	0x3c486e8b	0.012233387
87	0xbc3118b2	-0.0108091105
88	0x3d02bc03	0.031917583
89	0x3c9b6a1d	0.018971497
90	0xbd1f296c	-0.038857862
91	0xbcbcb640	-0.023036122
92	0x3d03ee39	0.03220961
93	0x3d07bfce	0.033141904
94	0xbc0b98de	-0.008520333
95	0xbc5bebfa	-0.01342296
96	0xbcddc3f5	-0.027070979
97	0xbca8154b	-0.020517966
98	0x39b44d11	0.00034389694
99	0xbc51eb44	-0.012812439
100	0x3c178fc1	0.009250582
101	0xbb856dfe	-0.00407195
102	0x3cc2c479	0.023775326
103	0xbd325ef3	-0.043547582
104	0x3ccbda66	0.024884414
105	0x3c9658dd	0.01835292
106	0x3ca40237	0.020020587
107	0x3c1c6465	0.00954542
108	0x3c5d0eda	0.01349231
109	0xbc0a2c23	-0.008433375
110	0xbc48b56f	-0.012250288
111	0x3cb6ea90	0.022328645
112	0xbd138cde	-0.036023013
113	0xbc1cd8d5	-0.009573181
114	0x3c8c07fc	0.017093651
115	0xbc792bdc	-0.015208211
116	0x3b933862	0.0044928053
117	0x3c2a6a5a	0.010401333
118	0x3bde2295	0.006779025
119	0xbceb9f83	-0.028762585
120	0x3c0cdef2	0.008598076
121	0xbcb71bf9	-0.022352206
122	0xbbc4c022	-0.0060043493
123	0x3d073e3b	0.033018332
124	0xbc964aab	-0.018346151
125	0x3c5c4578	0.013444297
126	0x3cc708ab	0.024296125
127	0x3c6fb2ba	0.014630014
128	0xbc78fed6	-0.015197476
129	0x3ca3527d	0.019936794
130	0xbced7e7e	-0.02899098
131	0xbbe39bc5	-0.0069460594
132	0xbc68c326	-0.014206683
133	0xbd12aca5	-0.035809178
134	0xbc56e134	-0.013115216
135	0xbc9472fd	-0.018121237
136	0x3c9219b6	0.017834526
137	0xbce38584	-0.027773626
138	0x3bd0cbbe	0.006371944
139	0x3cac4eab	0.021033606
140	0xbd09f4a0	-0.03368056
141	0x3be4fac1	0.0069879
142	0xbc3ea8a6	-0.011636889
143	0x3c15a74c	0.009134125
144	0xba10877a	-0.00055133516
145	0x3c3aa71a	0.011392379
146	0x3c47356c	0.012158733
147	0x3c9179a5	0.0177582
148	0xbc1f0665	-0.009706114
149	0xbba7de98	-0.005122971
150	0xbd27b0c1	-0.04094005
151	0xbcd75e38	-0.026290044
152	0xbbfaa624	-0.0076492
153	0xbc1b593b	-0.009481723
154	0xbc3b40c3	-0.011429015
155	0xbcb086ba	-0.021548618
156	0x3d149f2a	0.036284603
157	0xbcb0a25c	-0.021561794
158	0xbc1c5632	-0.009542035
159	0x3b8d2420	0.004307285
160	0xbca8def6	-0.020614129
161	0x3cc98be6	0.024602842
162	0xbba74486	-0.005104604
163	0x3c5db9a0	0.013533026
164	0x3c33c530	0.010972306
165	0xbbbc0f92	-0.005739161
166	0xbb36c9a1	-0.0027891176
167	0xbc5d8e29	-0.013522663
168	0xbbd6fc43	-0.0065608337
169	0xbb6c6009	-0.0036067984
170	0xbc38a0d4	-0.011268813
171	0xbb4205d3	-0.0029605522
172	0xbc2a0d89	-0.010379204
173	0xbcbeb276	-0.023278456
174	0xbc4ad1b8	-0.012379102
175	0xbbd10bd6	-0.006379585
176	0xbab2aa37	-0.001363105
177	0xbac80241	-0.0015259461
178	0xbc5256bc	-0.012838062
179	0x3afdb8db	0.0019357459
180	0xbbcfb9d9	-0.0063392934
181	0xbc62b560	-0.0138371885
182	0xbcbe05c8	-0.023196116
183	0xbc9aed9a	-0.018912125
184	0xbcc66e09	-0.02422239
185	0xba22ff3f	-0.0006217844
186	0x3cb81218	0.022469565
187	0xbcc77496	-0.024347585
188	0xbbaecd3f	-0.005334526
189	0xbbc29a6b	-0.005938818
190	0x3a98a7f3	0.0011646732
191	0xbd1bffa1	-0.038085584
192	0x3b80c3b2	0.0039295787
193	0xbcbbfd0a	-0.022947807
194	0xbb82b978	-0.0039893948
195	0xbc874421	-0.016511979
196	0x3ce4d6ee	0.027934518
197	0xbc22b1d6	-0.009930095
198	0xbceda30a	-0.029008407
199	0xbcb234c3	-0.021753674
