r1/model-state-dict.pt (torch, 811821 bytes, 13 tensors)

net.0.weight f4 [200, 2]
00000000: 6a22 1a3e 327b ebbd 0546 273d ec37 873d
00000010: a0b9 d1bc bbc5 b2bd a2d9 96bd 8ee4 593e
00000020: f228 523e fdb4 403d a13b 4c3d 7fe1 37bd
00000030: ef32 983d 364c 6b3e 9324 ea3d 159e 8abd
00000040: 42c8 82bd 2d2f 5d3e 3da9 4cbc aaaf 6cbd
00000050: 8962 fb3b 217f c23d 7e3f d4bb 88e4 20bd
00000060: 2052 76bd 99a9 55bd 9f5d ea3d 94fb 3dbd
00000070: 2882 22be 19a3 f13d 1eab ec3c eeef f83d
00000080: 4890 f7bd 71a6 643d 18db 03be 583b 2fbe
00000090: b7f9 55bd af7c 5d3e cee5 5b3d 0604 73bd
000000a0: 759a aa3d 88fc a3bd 78f1 95bc 92db 82be
000000b0: 58ac 553e 7d80 8dbb a71b 283e 4746 fabb
000000c0: 017b 11bd 0965 7dbd a4b9 b93d 7143 9c3d
000000d0: 1330 78bc ef74 98be fa65 d2bd 4ba0 193e
000000e0: 3ff1 30bc fc74 37bd 8788 dd3d 17a3 06bd
000000f0: 02f0 273e 36b2 cfbd 6690 26bd 85fe 053c
00000100: 6223 4dbc 5c43 15bd e3ae e3bd 358f 23be
00000110: 9570 643e 009e 6b3d 3783 323e 4f3f 333d
00000120: 2e88 3a3e 021f d23c d090 6f3d bfff 99bd
00000130: 8214 313d b3a8 1a3d 6ecf 99bd 3a2c d3bd
00000140: 290a 34bc ef5f d13d e67a bd3d 3df1 133e
00000150: 75d4 553d b748 b4bc 74a3 fbbc 6569 9fbb
00000160: 8ad7 54bd 1f7e b1bd 57cc d63c 0e34 58be
00000170: 793e c8bd 654b 35be fa37 41bb ccf1 67bd
00000180: 354d 92bd 4925 fdbd 8a6f f9bb 79a6 4c3d
00000190: 78aa cf3b 33da 9ebd 998e 153e c47f 323e
000001a0: 3968 ef3d 8722 06be 197d 16be 4dcf 913d
000001b0: ddef 243e 75e0 2ebe 8401 9f3e 5f14 693c
000001c0: 6697 d4bd 3fcf 9c3d bd63 4f3e 0771 1a3e
000001d0: 7285 c73d 6433 f93c 63ab 0fbe 8fa3 963d
000001e0: aad7 fb3d 6d3a 53bd ecb2 ecbc 6dc7 c33d
000001f0: c83b 94bd 0ecf c3bc e5cd afbd c283 0b3d
00000200: 7050 c73c 93a9 80bd 1454 03be 7139 64bc
00000210: 44df b3bd 8ef2 693e 21d8 cfbd 07c0 363e
00000220: 8b89 7f3d c86d a8bd 9370 8e3e 26cf 11be
00000230: 67c0 853d 3c07 653d 07b4 f63c 55ab 3d3d
00000240: 2c4b a03c 86d8 45be 6db7 6d3d 33f1 67bc
00000250: 4bc7 813e e835 873c ecda a6bd 5a19 9b3a
00000260: 9955 8e3e c684 c7bd 1821 033e 0092 933c
00000270: 0382 603d 2add b93c 187a 9abc 6411 f0bc
00000280: 8972 a0bd b1a1 c4bc d89b a1bd 0446 293d
00000290: fbac f7bd 3c7f 4cbe 5021 69be 9929 753d
000002a0: 3faf 00bd 3f9f f8bd 0872 bdbc 7779 28be
000002b0: 5c2a a63b 0f8c 2bbc bcfd 37bd 98ad 793d
000002c0: 00e3 13be a238 06bd e4dc 613e 3c72 113d
000002d0: 284a 68bd d024 c5bd f667 19be c3e1 77bd
000002e0: e252 4e3e e98e fabd 54cd c03d bb3a 23bd
000002f0: 199b 8c3d 47a4 fd3c 7255 0f3e fde5 a3bd
00000300: c35c d5bd e2e8 a13c 6d3d fdbd cc61 20be
00000310: 1aed 1ebd 997f 5e3e f7cc 01bd 4148 cd3d
00000320: 4ba7 9dbd 5b0e 053e a611 11be dcd9 aabc
00000330: 88f3 3e3e fa33 07be dedd 05ba fa32 bdbd
00000340: ef22 3dbd 175d a5bd 3703 c53d 9abd 19bc
00000350: e987 eb3d 1822 be3d fc12 5e3e 8d9a c1bd
00000360: 0c78 1ebd d065 1c3e a999 a6b9 4b59 f83d
00000370: 7ec0 b4bd 3696 653d 9f8a d6bc d817 263e
00000380: d342 573d 65ea f33d 7097 203d 0a09 62bc
00000390: adf4 47be da49 e83d 8ac0 a03c 1879 b53d
000003a0: bf3b febd da8e 80be d6e1 e63c f7fa 3d3c
000003b0: bd9c 043e 75ed bdbc 45b0 af3d 476b 4dbd
000003c0: 8899 5cbd 77c9 4a3d 806d 7a3d eced 553e
000003d0: 92e4 cf3d fbbe 06bd fc15 eb3d 0421 323c
000003e0: 51c3 9cbd 19b9 353b 94e6 bc3d e146 a63d
000003f0: d107 35bd 1438 f1bd c527 263e 2005 983d
0.1505219 -0.11498107 0.04083826 0.06602463 -0.025601208 -0.0872912 -0.07365729 0.21278593
0.20523432 0.047047604 0.049861554 -0.044892784 0.0743159 0.22978291 0.11432757 -0.06768433
-0.063858524 0.21600027 -0.012491521 -0.057784714 0.0076716584 0.09496904 -0.0064772954 -0.039280444
-0.060136914 -0.052163694 0.11443638 -0.0463825 -0.15869963 0.117986865 0.028890189 0.12155138
-0.12088066 0.055822793 -0.12876546 -0.17112482 -0.0522401 0.21629594 0.053685956 -0.05933001
0.083302416 -0.08007151 -0.018303618 -0.25558144 0.20866525 -0.0043182955 0.16416799 -0.0076377722
-0.035517696 -0.061863933 0.09068611 0.07630051 -0.015148181 -0.29776713 -0.10273357 0.15002553
-0.010799705 -0.0447893 0.10817056 -0.03287038 0.1640015 -0.10141413 -0.040665053 0.008178358
-0.012520643 -0.036441192 -0.11117341 -0.15972598 0.22308572 0.057523727 0.17432867 0.043761548
0.18216011 0.025649551 0.058487713 -0.07519483 0.04323245 0.03775854 -0.07510267 -0.1031117
-0.0109887505 0.10223376 0.09251957 0.14447494 0.052204568 -0.02200733 -0.030717589 -0.004864859
-0.051963367 -0.08666634 0.026220484 -0.21113607 -0.09777541 -0.17704542 -0.0029482828 -0.05662708
-0.07143632 -0.12360627 -0.0076121734 0.04996345 0.00633746 -0.07756462 0.14605178 0.17431551
0.11689801 -0.13099109 -0.14696158 0.071196176 0.16107126 -0.17077811 0.31055844 0.014226048
-0.103804395 0.076567166 0.20252891 0.15082179 0.097422495 0.030420013 -0.14030223 0.07355415
0.12296994 -0.05156939 -0.02889391 0.09559522 -0.07237965 -0.023902442 -0.08584193 0.0340612
0.024330348 -0.06282344 -0.12825042 -0.013929711 -0.08782819 0.22846434 -0.10148645 0.1784669
0.06238703 -0.08224064 0.27820262 -0.14239177 0.065308385 0.055915102 0.03011514 0.046305973
0.019567095 -0.19320878 0.058036257 -0.0141566275 0.2534736 0.016505197 -0.08147225 0.0011833117
0.2779968 -0.097421214 0.12805593 0.018013954 0.05481149 0.022688467 -0.018857047 -0.029305167
-0.07834346 -0.024002882 -0.07891053 0.041326538 -0.1209354 -0.19970411 -0.22766614 0.059854124
-0.031417128 -0.12139749 -0.023125663 -0.16452585 0.0050709676 -0.010470404 -0.044919714 0.060956568
-0.14442062 -0.032768853 0.2205692 0.035509333 -0.056711346 -0.09626162 -0.14981064 -0.060518038
0.20148805 -0.12234289 0.09414163 -0.03985093 0.0686552 0.030962123 0.13997439 -0.08002851
-0.104180835 0.019764367 -0.12365232 -0.15662307 -0.038800336 0.21728362 -0.03168961 0.10023547
-0.07697924 0.12993757 -0.14166889 -0.020855837 0.18647587 -0.13203421 -0.0005106608 -0.09238239
-0.046175893 -0.08074396 0.09619754 -0.009383583 0.11500532 0.092838466 0.2168693 -0.09453306
-0.038688704 0.15273213 -0.00031776473 0.12126406 -0.088257775 0.056051455 -0.026189147 0.16220033
0.052553963 0.119099416 0.039206922 -0.0137961 -0.1952693 0.11342211 0.01962306 0.088609874
-0.124137394 -0.25108987 0.028183859 0.011595479 0.12950416 -0.023184517 0.085785426 -0.050151136
-0.053857356 0.049508538 0.061139584 0.20891541 0.10151018 -0.032896977 0.114788026 0.010872129
-0.07654441 0.0027728735 0.09223667 0.08118988 -0.044196907 -0.11778274 0.16226108 0.074228525

net.0.bias f4 [200]
00000000: 8927 983c c9e0 60bc 2c36 8abd ff8e 69b9
00000010: 0938 24bd bd85 0fbd 3899 9d3c 194f 53bb
00000020: b3a6 1b3c 6f4c 393d 8c79 4e3d 3034 603d
00000030: d5d1 5b3c 845a c8bc 7c61 28bd fa69 b4bc
00000040: f5d6 cd3b 2c0f c43c c556 bdbc 0a9b 133d
00000050: 4619 293d d250 b93c a73a 6cbd 65b0 89bb
00000060: ead4 923d d187 2e3c f511 753d f6fa 53bd
00000070: f912 603d dcff a9bc 17f7 ffbc ee86 133b
00000080: 631b 9f3d df65 31bc 2513 9cbd 39f4 69bd
00000090: 4f36 14bd 9e44 843d d336 ee3c 7cac 48bc
000000a0: 75c7 013d 76fb 393d f90d 68bc a0ae 99bc
000000b0: 8926 383d d843 6cbc 49be 893d 4022 023d
000000c0: 4660 9a3b 2e8f c0bc 1192 4f3d 63ce 2a3d
000000d0: c9af c4bb d91b d63a 5049 573d 221b e7bc
000000e0: ed94 08bd d874 bdbc 1c1f 7cbd 74af e6bc
000000f0: 460b 63bc e986 debc 4908 50bd 844f 27bd
00000100: 7f13 ccbc f552 4abd 59bd e8bc 36a1 24bd
00000110: 52db 5dbd bce4 60bc bee8 3f3d 0ddb 0d3c
00000120: 9279 afbb 890f 19bd 7db9 3fbd 9d4b 1abd
00000130: 1d8e f7bc f1ce 07bd b441 1abd 39ce 953d
00000140: f85f 5abd ee3f 15bd 343e 813d c2da 2dbd
00000150: 2031 823d 24f0 8f3d 5779 babc cf60 9fbc
00000160: 0bfb 17bc d0d9 09bd 6e65 043d 9e50 75bc
00000170: 4880 81bc 83ab 29bc 2a76 ecbc e6fd c5bb
00000180: 989b 57bd f118 813d cfb9 3a3d 82b3 b9bc
00000190: c110 21bd cd44 3dbd 37e3 813c c325 f13c
000001a0: 1211 913d 804a 06bd eba4 a7bd 9956 2fbd
000001b0: c28c 3bbd 3672 9b3d b756 1abd 639e cfbc
000001c0: c6a6 693d b988 e2bc 97c4 cdbc 086e e53c
000001d0: 8f9e 353d 239c 863d 8cc6 6fbc 8080 dd3c
000001e0: 35c4 443c a94c 8b3d 3931 dd3b 6dce 0dbd
000001f0: b0c6 62bd 9534 873c 61ef 1a3d fe5d 04bd
00000200: cb99 fdbc 74ef 03bd 5c30 693c defd debc
00000210: 2af0 413c abb8 dcbc 2c55 143d bf21 af3d
00000220: 10dd c1bc e338 13bd a16b 4b3c 0a66 36bc
00000230: 3f21 d7bc 0372 943d 2211 2f3d e965 403c
00000240: 5999 3f3d 0078 9c3c 09fe 263d 1ad6 47bd
00000250: 5eaa c9bc 4df2 81bc 2fdf 063c ccbf 21bd
00000260: db21 7ebd f711 05bc e85c 0a3d 5d38 29bd
00000270: 6a27 cebc d45c 6dbd 5fea 22bc 2def 54bd
00000280: 814c bd3c 429a 3abd 1a00 2d3d 7850 0d3d
00000290: 9dfa 5dbb a937 9abc e431 28bd 931d f43c
000002a0: a53d d8bc 16c7 7b3d c4e1 3bbd 1491 e5bc
000002b0: de29 2a3b f92a 8cbc 53d9 d23c c1d7 c8bc
000002c0: eead 33bd 5732 35bd 1424 38bd 2b63 43bd
000002d0: d5a4 f2bc f3ae eabc d0bb 4cbd 86f6 22bc
000002e0: 6a23 87bc c2e0 2bbd 4f50 ffbc f3eb 7fbc
000002f0: 2bbc b03c ba0b 03bd 5144 473c 1fd6 11bd
00000300: 68c1 823d 5dd6 353d 55b5 273d 9b1e a03b
00000310: c12c 573d bb89 7c3d a36d a03c 6f53 22bd
0.01857354 -0.013725468 -0.06748614 -0.00022273882 -0.0400925 -0.035039652 0.0192381 -0.003224319
0.009500193 0.04523891 0.050408885 0.05473727 0.013416727 -0.024457224 -0.041108593 -0.02202319
0.0062817284 0.023933016 -0.023112664 0.03603653 0.04128387 0.022621546 -0.057673123 -0.004201936
0.071695164 0.010652498 0.05983158 -0.051753007 0.054705594 -0.020751886 -0.031245751 0.0022510844
0.077688955 -0.010827511 -0.07620839 -0.057117674 -0.036184605 0.064584 0.029078877 -0.012248155
0.031684358 0.045405827 -0.014163488 -0.018760026 0.044958625 -0.014420472 0.06725747 0.031770945
0.0047111837 -0.023505773 0.05067641 0.041700732 -0.0060024005 0.0016335204 0.05256015 -0.02821118
-0.03334515 -0.023127005 -0.061553106 -0.028159834 -0.013857668 -0.02716394 -0.05078915 -0.040847316
-0.02491164 -0.04939552 -0.0284106 -0.040192805 -0.05416424 -0.0137264095 0.04685282 0.008658183
-0.0053550685 -0.03736833 -0.046807755 -0.037669767 -0.030219132 -0.03315634 -0.037660316 0.073147245
-0.05331418 -0.03643792 0.063106924 -0.04244495 0.06357026 0.07028225 -0.022762937 -0.019455342
-0.009276162 -0.033654988 0.032323293 -0.014972834 -0.01580824 -0.010355833 -0.028864939 -0.00604223
-0.05263862 0.06303585 0.045587357 -0.022668604 -0.03932262 -0.04620819 0.015855415 0.029436952
0.07083334 -0.032785892 -0.081857525 -0.042807195 -0.045788534 0.075901434 -0.037680354 -0.02534408
0.057043813 -0.027653085 -0.025118155 0.028006569 0.044340666 0.065727495 -0.01463474 0.027038813
0.01200967 0.06801731 0.0067502526 -0.03462069 -0.055365264 0.016504565 0.037825946 -0.0323162
-0.030957123 -0.032210782 0.014232721 -0.027220663 0.011837045 -0.026943525 0.03621404 0.085513584
-0.023664981 -0.035942923 0.012415797 -0.011132726 -0.02626097 0.072483085 0.04274095 0.011743047
0.046777103 0.01910019 0.04076961 -0.048788168 -0.02461737 -0.015862608 0.008231922 -0.039489552
-0.062044006 -0.008121959 0.03378001 -0.041313518 -0.025165278 -0.057949856 -0.009943574 -0.05198591
0.023107769 -0.045557268 0.042236425 0.03450057 -0.00338713 -0.018825369 -0.041063204 0.029799258
-0.026396582 0.06146916 -0.045869604 -0.02802328 0.0025964896 -0.017110335 0.025738394 -0.024516942
-0.043867044 -0.04423746 -0.04495628 -0.047701996 -0.029619614 -0.028647875 -0.0499838 -0.009946471
-0.016496379 -0.041962393 -0.031166224 -0.0156202195 0.0215741 -0.031993605 0.012162284 -0.035604592
0.063845456 0.044393886 0.040944416 0.004886461 0.052532915 0.061654788 0.019583529 -0.03963035

net.2.weight f4 [200, 200]
00000000: a0e4 0abe 9dc7 40bd 75a5 16bd d354 e1bd
00000010: 69e7 f13d 205d 44be 1f8a 42bc f029 9dbd
00000020: 926d db3d da7e 1bbe f949 193d 7b89 8d3d
00000030: 4f15 b73c e4ff 463d 44fe a5bd af4a dabc
00000040: 77a8 13bd 3b36 b6bd a3a9 043e fdbe ef3c
00000050: 4af9 05bd 8c88 3c3d f264 3a3e 013a 173e
00000060: b31b cb3d e6c4 013d d92c c33d 26c6 08bd
00000070: 3b58 01be 3094 8cbd d006 b53d 23f6 cb3d
00000080: aa20 9abd 7a86 c4bd 9994 1d3e 0789 f6bc
00000090: e307 f9bd ccec 593e b270 06be 54e0 003c
000000a0: f8fc 8b3a b9e0 4c3e e3c0 4f3e 5808 e63d
000000b0: 7738 86be 48be 8c3d 9a57 033c b795 8fbd
000000c0: cedf a23d 5477 f5bd 3704 9ebd 134c 473d
000000d0: c2f3 8bbc 9295 193e a1c1 7b3d e7bd fabd
000000e0: 108d c83d 4fb0 e73c 56ce 303e a3d0 5abc
000000f0: 9635 67bd b443 15be 1b44 e03d 46e1 aa3c
00000100: 3cd0 a1bd 4712 963d 1f41 053e efc7 ce3d
00000110: dec9 113e 58a0 453d ced4 2f3e e2c0 a63d
00000120: 2d98 223b 076e 483e 2523 cf3d c2bb 453e
00000130: 1247 173e 0b93 f1bd 8fea 393e 4b50 f8bc
00000140: 5766 933d e025 15bd 6016 bf3c 0c50 7cbd
00000150: 2865 1b3b 6994 16bd 2023 9cbc 78b7 30bc
00000160: 9263 9b3c 433b cc3d c151 b93c 6a72 413e
00000170: d512 703e 94df ee3d 30e6 15bd 1198 4b3e
00000180: 7312 203d 95d7 67bd ec7f d9bd 567e bb3d
00000190: 9089 473e d754 1d3d 764e 7bbd 348c c8bd
000001a0: 5259 5dbd 7513 b4bd cea7 c1bc b7c0 123e
000001b0: afdb 173d 4823 263e 3361 0bbc cafd c43d
000001c0: 004a 51bd f5dd 963d 56e5 c63d 361a 04be
000001d0: 1bd2 da3d ed61 033d 0b9a 70be c83e 5d3d
000001e0: 2ef2 2cbd 85b1 123d cf86 c33d dabf b3bc
000001f0: 7b43 45bc adb2 543e c1e5 6d3d 8fa5 2ebd
00000200: f416 ca3d ac56 ca3d 5733 193e 9f87 cdbd
00000210: 0e04 29ba 4e53 0a3d 10b5 ae3d 2d1c c73d
00000220: 4b5e f73c 17e5 733e 6953 8b3e 3349 cd3b
00000230: 7a3e d4bc c374 3bbd 71a9 9ebb fa0c 4dbd
00000240: 3514 fcbd 508f 993d 49d2 1cbe 6604 6f3c
00000250: b47a b53d 5437 4abc 4008 983d cfa1 533e
00000260: 2ebc 903b 64c3 0a3e 6e99 e63c 6879 47be
00000270: 2ec2 d13b 1ef7 1abe 731c 84bd c3c3 48be
00000280: 72a6 55be ce92 73be d577 d9bd aa1e 67bd
00000290: 8747 143e 29a8 36bd 65e1 1dbe abdf af3d
000002a0: bbe5 933d e209 c13d a9d5 c43d 3d8a 22bd
000002b0: 840f 84bc 880d acbd 8903 afbd 3de3 f1bd
000002c0: 0267 5e3c 15af d13c f69e 1abd 9841 cebc
000002d0: 06d3 023e e263 d73d b7f4 e0bd 1ec8 26bc
000002e0: 74bb 193d db5d 753c 11b2 76be 0973 66bb
000002f0: e638 093c ccfc 1e3e a002 10bc 1bd4 2b3e
00000300: ae6e 603d 505b 2bbd 30ba e4bd d476 2f3e
00000310: 0f69 363d 354a a0bd ff8d 85bd 640e 0b3d
00000320: d455 acbd 536d 62bc 1915 2b3e 5437 cf3c
00000330: cb3d 633d d15c ed3d c0d3 f6bd 0d6a f43c
00000340: 22ff 47bd 4243 263c d6a6 c93d 473f 82bb
00000350: 24d1 eb3d 92e1 6a3c 79df 8abd 4334 88bd
00000360: c7fa 403e 6ede 97bd db5e 0cbd 030d 7a3d
00000370: 8cfd c0bd dc01 09bc 0c2e 8cbd 2858 cfbd
00000380: 405c b2bc 3bb0 7ebd 2162 593e 3c9c c5bd
00000390: 71a9 173e f79f 4fbe e233 dc3d 396b 603e
000003a0: f719 4a3d cca1 a73d a033 e63c ce03 7fbd
000003b0: 19a6 da3c cae8 13be ba66 ff3c cf03 62bd
000003c0: 55f8 9e3d 74bb 9dbc cb32 283d 579f 873d
000003d0: deef 0e3e 95ed 313e d1d1 ddbc 01a3 4cbd
000003e0: e991 e23d c895 f1bd 8682 753e fb1b a93b
000003f0: 19d7 d53d f345 ab3d 7c8a 4cbd 3ffa 85bd
-0.13563776 -0.047065366 -0.036778886 -0.11002507 0.11811716 -0.1917615 -0.011873751 -0.076740146
0.10714258 -0.15185109 0.03742406 0.06910988 0.022349028 0.04858388 -0.08105138 -0.02664694
-0.036049332 -0.088970624 0.12955336 0.029265875 -0.032708444 0.04602866 0.1820257 0.1476822
0.099173926 0.031681918 0.095300384 -0.033392094 -0.12631314 -0.06864202 0.0883919 0.09959056
-0.075257614 -0.09595962 0.15388717 -0.030094637 -0.121597074 0.21281737 -0.13128927 0.007865984
0.0010680249 0.200076 0.20288424 0.1123206 -0.26214954 0.06872231 0.008016491 -0.07010978
0.079528436 -0.11985651 -0.07715648 0.048656534 -0.017084006 0.14998463 0.061463956 -0.12243252
0.097925305 0.028282313 0.17266211 -0.013355407 -0.056447588 -0.14576608 0.1095049 0.020859372
-0.07901046 0.07327705 0.13013123 0.10096728 0.14237162 0.04824862 0.17171022 0.08142258
0.0024809942 0.19573222 0.10114125 0.19309905 0.14773205 -0.11795624 0.18155883 -0.030311724
0.07197254 -0.036413074 0.023326099 -0.061599776 0.0023711417 -0.03676263 -0.019059718 -0.01078593
0.018968377 0.09972241 0.022621991 0.18891302 0.23444684 0.11663738 -0.036596477 0.19882227
0.039080095 -0.05660208 -0.10620102 0.09154956 0.1948607 0.038410988 -0.061354123 -0.097923666
-0.05404026 -0.08792774 -0.023639586 0.14331327 0.03707474 0.16224396 -0.008507061 0.09618719
-0.051095963 0.07366554 0.09711711 -0.12900624 0.10684606 0.03207581 -0.23496263 0.05401495
-0.042223148 0.035813827 0.09547197 -0.021942068 -0.012040014 0.20771284 0.05808044 -0.042638358
0.09867659 0.098798126 0.14960991 -0.10035633 -0.00064474426 0.03377085 0.08530629 0.09722171
0.03019633 0.2381786 0.27212074 0.0062648295 -0.025908697 -0.04576565 -0.0048419763 -0.050061204
-0.12308542 0.07498038 -0.15314592 0.014588451 0.088612944 -0.012342293 0.074234486 0.20667194
0.004416964 0.13551098 0.028149333 -0.19479907 0.006401322 -0.1513333 -0.06450739 -0.19605927
-0.20864275 -0.2378647 -0.10618559 -0.056425728 0.1448041 -0.044593964 -0.15418012 0.08587583
0.07221552 0.09425713 0.09611065 -0.039682616 -0.01612068 -0.084010184 -0.08545596 -0.118109204
0.013574364 0.02559618 -0.037749253 -0.025177762 0.12775812 0.10517098 -0.10984176 -0.010179548
0.037532285 0.01497599 -0.24091364 -0.003516378 0.008375382 0.15526122 -0.008789688 0.1678013
0.054793052 -0.04183513 -0.11168325 0.17135173 0.044533785 -0.07826654 -0.06521224 0.03394927
-0.08414808 -0.01382001 0.16707267 0.025294937 0.055478852 0.11589969 -0.12052107 0.029835725
-0.048827298 0.010147871 0.098462746 -0.0039748284 0.115145 0.014336007 -0.06780905 -0.06650593
0.18845664 -0.07415472 -0.03427015 0.061047565 -0.0942336 -0.00836226 -0.0684472 -0.10124236
-0.021772504 -0.062179785 0.2122884 -0.0964894 0.1481073 -0.20275865 0.10752083 0.21915902
0.04934117 0.08185157 0.028100789 -0.062259488 0.02669053 -0.1444427 0.031176914 -0.055179413
0.07762209 -0.019254424 0.041064065 0.066221885 0.1395869 0.17375787 -0.027077587 -0.04996014
0.110629864 -0.11796147 0.23975572 0.0051608062 0.10441417 0.08362951 -0.049936756 -0.06541871

net.2.bias f4 [200]
00000000: 1f68 253c be7e 7e3d 3788 173d be96 ddbc
00000010: 85ca 95bc c42d 323d 9a43 2cbd b9cb 78bc
00000020: 8147 333c aa63 4f3d c66f fa3c 4e7e 26bd
00000030: 0d3e c73c 5658 193d 5a49 693d d5f3 5f3c
00000040: ca57 2b3c 9091 1cbd 2384 6abc c214 bcbc
00000050: 0434 0f3d 0568 46bd 91b9 d3bb 12fc 2bbd
00000060: 06e9 963c 20a8 42bd fcdb 2abd db08 dcbc
00000070: d157 83bc 8a96 0d3d a393 9a3d b172 39bd
00000080: 9376 21bd 68f1 e7bc fb3f b0bc 4bfb 8d3c
00000090: 78f5 b5bb 9572 ddbc 3984 143d 95a9 983c
000000a0: 5440 e2bc aad5 48bc 626e 37bb 9b66 42bc
000000b0: 048c f2bc 0e42 733d 2e56 90bd 6281 07bb
000000c0: 2526 ed3c fc8e 05bd 6329 5c3d 6298 f03c
000000d0: 6a9b 0ebd c888 e13b 360f 963d b768 10bc
000000e0: 7072 3ebc 831b 03bc bb95 713c 0440 a13c
000000f0: 9ff3 45bd 506a f63c a7d1 013b 9a93 933c
00000100: 60d3 153d 0bda 4a3c 1cba 34bd 062e cfbc
00000110: 911a 323d 2a38 dc3c 394f ffbc aa06 8bbc
00000120: d810 08bd 3bde 97bd 88ed 733d f733 aabd
00000130: 27a9 07bc 5c83 a9bc ae56 053d bc54 64bd
00000140: 14bb 86bd b9a1 22bd 287e c93c ffba 673d
00000150: 85f0 6cbb 3871 e5bc b27e c9bc 9eb8 4cbc
00000160: ff05 4a3d ce05 8abc 5b05 08bd bc45 09bd
00000170: 88d1 ebbc dfff 83bc a178 c6bc 727a f8bc
00000180: a7ba 433d 5af3 2ebc 1c89 81bc 5181 dcbc
00000190: 0284 33bc 04b6 c3bc 529b 973c 9557 ad3c
000001a0: 1515 38bd 17d9 d73c 3c13 e8bc 4dd9 03bd
000001b0: adc6 93bd 85b5 b4bc 42b8 a1bc ef96 21bd
000001c0: 8840 a2bc 5cc2 21bd 3fda fd3b c8e5 a23c
000001d0: 047b cabc a0b0 dbbc c784 6fbd 81bf 45bd
000001e0: 5e96 25bd ebf6 00bd aae7 30bc 77bf 93bc
000001f0: 610d 0abc 35ed b6bc d562 1cbd 872f 823d
00000200: e3a7 2b3d 826d 81bc 7b3d 39bd 5ccb 0abd
00000210: 321f 5e3c 09b6 8dbc 1069 4ebb dc8b e9bc
00000220: c092 cabc ffcb 073c e354 62bc 6710 f03c
00000230: bbfd 5cbc ddf4 32bc 8d17 9cbc 23a4 d13c
00000240: c76b 67bc 9240 55bc f925 feba c891 27bd
00000250: c50d 8ebb 1de0 9b3c 51b5 dc3a 0334 35bb
00000260: 463b 3cbd 0492 afbc 008c 8cbc 6bb1 953d
00000270: 2340 24bd 8ab6 1d3d c595 983d 6ead adbb
00000280: f901 ca3a 10eb 0a3c 27f3 243d ae90 3abb
00000290: 4381 82bc a877 f23b 0b53 1bbd f4f5 953a
000002a0: 5c66 10bd 460f c7bc daaf b0bc 8c59 2e3c
000002b0: 0043 0fbd 590f 55bc 1370 183c d14b f2bc
000002c0: fee5 2ebc 32a0 61bc 2a51 30bc 1453 91bc
000002d0: bae2 f4ba bef7 b93b 27b3 82bd b7b0 2cbd
000002e0: 97a7 43bd e508 cd3c 266e c6bc 5183 3bbc
000002f0: 6451 833b 2fb7 2abc 6075 c5bc a128 f1b9
00000300: 0dbb e0bc c5fa d4bc 3538 4a3d 53fc cebc
00000310: 8cb6 5c3d e7b9 cfbc 095a 3d3d b8ff 803d
0.010095625 0.06213259 0.03699514 -0.027049419 -0.018285045 0.043500677 -0.042056657 -0.01518529
0.010942341 0.050632156 0.030570876 -0.040647797 0.02432158 0.03743776 0.05695472 0.013668974
0.010457942 -0.038224757 -0.01431373 -0.022959117 0.034961715 -0.048439045 -0.00646133 -0.04198844
0.018421661 -0.047523618 -0.0417137 -0.026859691 -0.016033085 0.034567393 0.07547691 -0.045275394
-0.03941972 -0.028313354 -0.021514883 0.01733174 -0.005552944 -0.027032176 0.03625891 0.01863555
-0.027618565 -0.012257973 -0.0027989377 -0.011865283 -0.02960778 0.059389167 -0.070476875 -0.0020676483
0.028948853 -0.032607064 0.053750407 0.029369537 -0.034816183 0.0068827607 0.0732712 -0.008814028
-0.011623964 -0.008002165 0.014745171 0.019683845 -0.04832804 0.03007999 0.00198088 0.018014718
0.036578536 0.012381087 -0.0441228 -0.0252905 0.043482367 0.02688225 -0.031165706 -0.016970951
-0.03321919 -0.07415434 0.0595527 -0.08310693 -0.008280075 -0.02069252 0.032553367 -0.05574487
-0.06578651 -0.039705012 0.024596289 0.056574818 -0.0036154103 -0.028008088 -0.024596546 -0.012495188
0.049322125 -0.016848471 -0.033208232 -0.03351377 -0.028786436 -0.01611322 -0.024227442 -0.030331824
0.047785427 -0.010678137 -0.01581245 -0.026917132 -0.010956766 -0.023890503 0.01850668 0.021159926
-0.04494198 0.026348634 -0.028329484 -0.032189656 -0.07215629 -0.022059212 -0.019741181 -0.039450582
-0.019806162 -0.039491996 0.007746964 0.019884959 -0.024716862 -0.02681762 -0.058476236 -0.048278335
-0.040426604 -0.03148548 -0.0107974205 -0.018035633 -0.008426041 -0.022329906 -0.03818019 0.06356721
0.041908156 -0.015799288 -0.045224648 -0.033885345 0.013557242 -0.017298715 -0.0031495728 -0.028509073
-0.024728179 0.008288383 -0.013814184 0.029304696 -0.013488228 -0.010922638 -0.019054199 0.025590962
-0.014124817 -0.013015883 -0.0019389979 -0.040910512 -0.0043351375 0.019027764 0.0016838704 -0.002764941
-0.045954965 -0.02143193 -0.017156601 0.073092304 -0.040100228 0.03850416 0.07450441 -0.0053002154
0.0015411965 0.008478895 0.04027095 -0.0028467583 -0.015930777 0.007399518 -0.037920993 0.0011441098
-0.035253868 -0.024299275 -0.021568228 0.010641467 -0.034976006 -0.013004147 0.009304064 -0.029577168
-0.010674952 -0.013771104 -0.0107615385 -0.01773981 -0.0018683292 0.005675285 -0.06381827 -0.042160716
-0.047767248 0.025028655 -0.024222445 -0.0114448825 0.0040075053 -0.010419651 -0.02410382 -0.00045997373
-0.027432943 -0.025998482 0.04937001 -0.025266802 0.053885028 -0.0253572 0.046228442 0.062987745

net.4.weight f4 [200, 200]
00000000: a236 09be 58b9 533c 9646 a2bd 44e9 6a3d
00000010: bf35 643e 0a15 00be 77b4 933d 48ba 3cbc
00000020: 5ab2 61bd 63d1 223e c37f e9bd a55a 613e
00000030: 07ab 753d 649a 563c 01c2 acbe 920c 96bd
00000040: 11d5 153e 8d56 ec3d 1676 cd3c 3e01 ec3d
00000050: 0184 8dbc ed1d 20be 2b58 81bd ff68 1d3e
00000060: e04b 163d 6191 693d d6ae 0c3e f011 03be
00000070: aa7a bdbc eda8 cd3d fe81 11bd 3bd0 643d
00000080: 6ffb 91bd 5865 80bb 7741 b93c ed46 913d
00000090: e875 023c 924f 77be 56b5 333d 4e45 643d
000000a0: a925 4ebd a0b9 ac3d 3f0e e23c d40f 563d
000000b0: 43c5 2a3e 26de b43a b854 bdbd 2260 a2bd
000000c0: 452a 743c 98b5 7f3c 071f 41bd d120 75bd
000000d0: d8e1 ad3e 8017 84bd 9edf 403d e451 e63b
000000e0: 08a3 893c 706c e43d 8fd3 2abd f546 0cbe
000000f0: 0550 ecbd 2768 78be c82a 3a3e 2377 ac3d
00000100: 5bed 08be 0973 b4bd c7be 663d b67e 733d
00000110: e210 ebbd b086 29be 122e 56be 1030 103d
00000120: d440 633e 6e2a 223d 9585 62bc e634 3fbd
00000130: 70e3 163e a963 e03c c919 153e db0b 113d
00000140: e3da 163d d558 c43d e30d 13be a12f f8bd
00000150: 50e2 0bbd e2c8 293e 82e2 2abd 0c5a bfbd
00000160: 41a0 89be f498 afbc dcdb d03c d906 71bd
00000170: da30 0abe e3e1 96bc d91b 4abc fd7c 2fbd
00000180: 932d a7bd cb39 11be 5a1e 913d afc7 e33c
00000190: 44cd 3bbc 459d ba3d 8b7f 40be a97d 013c
000001a0: b1fb 31be 9c08 1a3e 7e10 d1bd 633a 433d
000001b0: fea8 3f3e 6ea2 a1bd c108 dd3d 75cf 463c
000001c0: 9549 a7bd 2ed5 5abd 46ca 3dbd f1bd ddbd
000001d0: ff2c 89be 5d20 95be c52d 63bc 2db8 68bc
000001e0: 6355 ecbb 09e1 bd3d df99 2d3d 9937 1abd
000001f0: e3ab 123e 7531 cf3d 1db3 95bd e916 f43d
00000200: e5be c8bd 0e52 d8bd 5b0c dc3d 7ac8 903d
00000210: cd27 82bc 829b 7b3c a88c 5c3e 096c 40bd
00000220: 85a0 f8bd 3c67 c73d 882d 2abe a6c4 6dbd
00000230: 9a98 013e f291 5e3b d50b 1a3d 5e4d 6bbe
00000240: d409 2cbd 5094 02bd 2fda e43c 153e 60be
00000250: d843 083e bed8 a9bd 74f2 d3bd 828b b23d
00000260: bdba dfbd 8a9d 01be 9fc4 5e3d e7bf b63d
00000270: 584f 223d 3567 523e 4e36 823a 4cf0 e53c
00000280: 6a29 25be bd2b 1fbe 4370 60bd e009 d8bd
00000290: bdfa 97bc db84 803e 302d c4bc d267 ef3d
000002a0: a6d3 18bc 9268 1ebd e591 dd3c a0cd 4cbb
000002b0: a03d f23c fc13 75bd 2942 6ebc 3557 17bd
000002c0: 9276 003e c977 863d 5dd5 393d 0e3e 1a3d
000002d0: 5c85 a0bd 23b2 26be 3541 043e 590c 1f3e
000002e0: 1711 bd3d 4675 643d c3ea bcbd 1143 1ebe
000002f0: 111a 08bd 0af4 82bd d2f7 34bd bc92 4a3c
00000300: f41a a3bd b2c0 6c3e 81e4 d9bb 1bd0 cc3c
00000310: 5f67 c23d 57e6 02bd af10 55bd 6a78 003c
00000320: af30 343e baed a23d 5bf0 6abc fd41 ca3d
00000330: d50a 6fbc f71b d73d 5aee cebd 16c2 d9bc
00000340: 3a6e ccbc ff6d 273d 5623 fabd ccfe 85bb
00000350: c718 0e3e f365 e13c 93c5 943c 2a01 15be
00000360: fece ecbc 4d4b a3bd ed0a 65bc 30e0 5f3e
00000370: 7452 023e 9f28 17bd 9dc7 2bbd 3785 543c
00000380: 4268 8c3c 1200 20bd b9f8 f5bd e3db a4bc
00000390: 3b65 1c3e c9a7 77be 8716 fb3d 48a6 013a
000003a0: 0809 6abc 8c21 be3a 046a 08bd 5918 05bd
000003b0: fa45 8b3d 30cb 863c b3ce 1b3d fb61 13bd
000003c0: 9b24 c9bb d048 9b3d ce67 a7bd e5aa bcbd
000003d0: 9eeb 1f3d 2117 683e ba68 bfbc 07ef 9c3d
000003e0: 66dc e1bd 1fdc 123c ac74 bd3d 1045 ec3d
000003f0: c242 76bd eeb8 8cbd 8ee3 e63d a9eb f0bd
-0.13399747 0.012922607 -0.079236194 0.057351366 0.22286128 -0.12508026 0.07212155 -0.011519022
-0.05510173 0.15900187 -0.11401322 0.22007234 0.059977558 0.013098333 -0.33741763 -0.07326616
0.1463206 0.11539946 0.025080722 0.115236744 -0.017274858 -0.15636416 -0.06315645 0.15372084
0.036693454 0.05702341 0.1373857 -0.12799811 -0.02312978 0.10041986 -0.03552436 0.055862647
-0.07128035 -0.003918331 0.022614224 0.07093606 0.007962681 -0.24151447 0.043874107 0.055730157
-0.050328884 0.08433843 0.027594684 0.05226119 0.16676812 0.0013799116 -0.092446744 -0.07928492
0.014902656 0.01560726 -0.04714873 -0.05984575 0.33961368 -0.06449795 0.047088258 0.007028805
0.016801372 0.11153495 -0.041705664 -0.13698943 -0.115387 -0.24258481 0.18180382 0.08421161
-0.13371794 -0.08811004 0.056334283 0.059447013 -0.114778295 -0.16555285 -0.20916012 0.035202086
0.22192699 0.039591245 -0.013825794 -0.046681307 0.14735198 0.027391272 0.14560618 0.035411697
0.03682984 0.09587256 -0.14360766 -0.121184595 -0.034151375 0.16580537 -0.04171992 -0.09343347
-0.26880077 -0.021435238 0.025495462 -0.05884442 -0.13495198 -0.018418258 -0.012335741 -0.042843807
-0.081629895 -0.14182203 0.07085867 0.027805177 -0.011462513 0.09112028 -0.18798654 0.007903495
-0.17381169 0.15042347 -0.10208224 0.047663104 0.18716809 -0.07892309 0.10792685 0.012134423
-0.081683315 -0.05342596 -0.04633548 -0.10827244 -0.26792142 -0.29126254 -0.013865893 -0.014204067
-0.0072123273 0.09271438 0.04238307 -0.03765068 0.14323382 0.10116855 -0.07309554 0.11918432
-0.09802035 -0.10562526 0.10744544 0.07069488 -0.01588812 0.0153569 0.21538031 -0.04697803
-0.12139992 0.09736487 -0.16618931 -0.058048867 0.12655869 0.0033961502 0.03760894 -0.22978732
-0.04200156 -0.031879723 0.02793607 -0.21898682 0.1330713 -0.082932934 -0.10348979 0.08718015
-0.109242894 -0.12657753 0.05438673 0.08923321 0.03962645 0.20547183 0.0009934397 0.028068684
-0.1612908 -0.15544029 -0.05479456 -0.105487585 -0.018552179 0.2510136 -0.023947328 0.11689724
-0.009327805 -0.038673945 0.027047107 -0.0031250492 0.0295704 -0.05983351 -0.014542141 -0.0369484
0.12545231 0.06565816 0.045369495 0.037656836 -0.07837936 -0.16278891 0.129155 0.15532054
0.09231775 0.055775903 -0.09224465 -0.15455271 -0.033227984 -0.06394203 -0.044181652 0.012364086
-0.07964125 0.23120382 -0.0066495542 0.025001576 0.09492373 -0.03195795 -0.052017864 0.007841209
0.17596696 0.07955499 -0.014339532 0.098758675 -0.014589985 0.10503381 -0.10104056 -0.026581805
-0.024954904 0.040876385 -0.12213771 -0.004089212 0.1387664 0.027514433 0.018160617 -0.14551225
-0.028907295 -0.07973347 -0.013979656 0.21862864 0.12726766 -0.036903974 -0.041938413 0.012971214
0.017139558 -0.039062567 -0.12010331 -0.020124381 0.15272991 -0.24185099 0.12260156 0.00049457373
-0.01428438 0.0014505847 -0.03330423 -0.032493923 0.06800456 0.01645431 0.03803892 -0.035982113
-0.006138397 0.07582247 -0.08174096 -0.09212283 0.03904306 0.22665073 -0.023365367 0.07662778
-0.11028366 0.008963614 0.09250769 0.1153661 -0.06012226 -0.0687121 0.11273871 -0.117636986

net.4.bias f4 [200]
00000000: 6739 07bd 7825 393d 0731 403c 6ea9 6f3d
00000010: 3793 4ebd a374 1bbd 7653 ef3a 7f44 d5bc
00000020: 9d91 403c fd66 2bbc cd70 43bd 3737 b73c
00000030: 461e 883c 19f9 273d 7a8c 593d 3f13 fb3c
00000040: 64b8 493d 4d5e 093c eee2 d03c 86a9 1ebd
00000050: 0e62 28bd 99fc 863c cfaa 31bd 0f2f 0dbd
00000060: 1f34 cdbb 5757 573d 560a 543c 490c 1bbd
00000070: e46a 2dbd 1d40 ba3a 8e3e 5cbc 6914 febc
00000080: e63a 6c3c dbe3 cb3c 0281 3e3d 7879 54bc
00000090: 7b2d b3bc 73d5 c1bc 4839 9bbc e1d2 683c
000000a0: 1797 88bc 6c72 333c e77c f938 5574 0dbc
000000b0: b98b 8bbc 150b 0d3c 60dd 0fbd 0146 9b3c
000000c0: 2229 c6bb fbe6 28bb c7b3 1abd 057f 2b3b
000000d0: 1c23 3c3b ed6d 6cbb 28a3 133d 43a7 03bc
000000e0: 2e32 35bd 2be5 98bc f686 623d 80da 84bc
000000f0: 299f 073c 6314 933b dd5a 45bd 4ab4 7dbc
00000100: 3366 58bc e6e2 98bc c911 f4bc d462 6e3d
00000110: c1fd 30bd 414b e6bb 19c1 033d e11c fabc
00000120: b869 d8ba 7e91 8cbc a26d 8fbc c8b9 28bd
00000130: 3ad8 44bc 0134 0a3c c4ff 9cbc e255 5fbc
00000140: 26a1 e7bc 57e6 1f3d 1fc5 1cbd ac7b 15bc
00000150: bb05 5e3c 8da3 12bd 422e 3aba c3e1 873c
00000160: 840c 683c 06a5 debc 56b4 843b ecf0 653b
00000170: 9bf5 bfbc d6ee 38bd b3f3 0bbc 3121 d43c
00000180: 53a3 233c daca c1bc 5f57 e13c c3b0 1ebc
00000190: c0b7 1abd 0f94 7c3c a273 aa3c 0826 14bc
000001a0: 6a69 843d 0368 83bd 57fa b8bc 4e51 fcbc
000001b0: 985a 883c 10fd b5bc 7bf0 38bc ecad 49bc
000001c0: 8d0f ee3a f791 cdbb 3056 ed3c d8f3 13bd
000001d0: 7ff5 6ebd 2623 b7bc 3ccd ef3c 7eef 22bd
000001e0: 2fed 4cbc bc91 4a3c 28c7 c43c 0f6a 03bc
000001f0: 0071 2dbd eb38 ddbc 4231 50bb 18f8 013b
00000200: 7e7d c5bb 1742 963b 8b2c 84bb f0f6 36bb
00000210: c96d e7bc e233 4abc 5e0c a03d 4cb9 da39
00000220: 617d 093d f576 27bd a246 8cbb 2510 7cbc
00000230: 5957 123d a94b 04bc 34ac febc 49d4 1cbc
00000240: f2a0 54bc b5ff 2b3b 0541 8ebc 570f 0fbc
00000250: a517 21bc 503e 0c3d 42f3 dcbc 7ad0 94bd
00000260: 87fe 06bd 49bc 16bd f006 743d d058 283d
00000270: 614e 2fbd d5cf 613b 190c 733d ce8a 6b3b
00000280: d392 35bc 0d6f dc3c ec8f f7bc 25f5 f03c
00000290: f588 0b3d 0d6d 1b3c f88c 1ebc 0ec8 0dbd
000002a0: 9a03 48bc 08ab edbc a33b 80bc 9f83 5a3d
000002b0: a8c8 483c 857b ff3a 1538 58bc 70e9 9c3c
000002c0: 08d8 17bd dae1 afbc 15d7 423b bf59 29bc
000002d0: a61f b33c 94c9 51bd c659 343d 9fec 30bd
000002e0: d97a 2bbd 9b77 dd3c ad95 193b 245c e3bc
000002f0: ca8a ac3c e4d4 d9bc d0ee 073d 4473 433d
00000300: f137 3cbd 9d29 93bc 9074 9ebc 37a1 6a3d
00000310: 5222 383c 504b 37bc e3a4 873c 71b0 933b
-0.033013728 0.04520175 0.011730439 0.05851119 -0.050433364 -0.03795303 0.0018259126 -0.026033638
0.011753467 -0.010461566 -0.047714997 0.022365196 0.016615998 0.041009042 0.053112485 0.030648826
0.049248114 0.008384299 0.025498834 -0.03873589 -0.041109137 0.01647787 -0.043375786 -0.034468707
-0.006262317 0.05257353 0.012941917 -0.037853513 -0.042338267 0.0014209781 -0.013442649 -0.031015592
0.014418339 0.024888923 0.04650975 -0.0129684135 -0.021872273 -0.02366135 -0.018948212 0.014210434
-0.016673608 0.010952573 0.0001189651 -0.008633693 -0.017034398 0.008608599 -0.03512323 0.018954279
-0.006047384 -0.002577244 -0.037769105 0.002616824 0.002870745 -0.0036076263 0.03604427 -0.008035484
-0.04423731 -0.018663963 0.05530449 -0.01621747 0.008277693 0.0044885143 -0.048182357 -0.015484879
-0.01320796 -0.018662881 -0.029793637 0.05819972 -0.04321075 -0.007028014 0.032166574 -0.030531349
-0.0016510999 -0.01715922 -0.017508332 -0.0411928 -0.012014443 0.00843525 -0.019164927 -0.013631316
-0.028275084 0.03903803 -0.038273927 -0.009123724 0.013551171 -0.035800505 -0.000710223 0.016587144
0.01416314 -0.027178299 0.004049818 0.0035086228 -0.023432544 -0.045149647 -0.008541989 0.025894733
0.00998767 -0.023656297 0.027507482 -0.009685698 -0.037772894 0.015416159 0.020807091 -0.0090422705
0.06465419 -0.06416323 -0.022580309 -0.030800488 0.016644761 -0.022215396 -0.011287804 -0.012309533
0.0018162593 -0.006273504 0.028971761 -0.03612122 -0.058339592 -0.022355627 0.029272668 -0.03977918
-0.012507721 0.012363847 0.024020746 -0.008020892 -0.042344093 -0.02700468 -0.0031767641 0.0019831713
-0.0060269227 0.0045855152 -0.0040336302 -0.0027918182 -0.028250592 -0.012341471 0.07814859 0.00041718257
0.033566836 -0.04088493 -0.004280881 -0.0153847085 0.035727832 -0.008074679 -0.031087972 -0.009572097
-0.0129778255 0.0026244943 -0.017364988 -0.008731685 -0.009832297 0.034239113 -0.026971463 -0.07266326
-0.03295758 -0.036800656 0.05957693 0.041100323 -0.042799357 0.0034456153 0.05933771 0.0035940888
-0.011082369 0.026908422 -0.030219994 0.029413769 0.03406616 0.009486449 -0.009677164 -0.034614615
-0.01220789 -0.029012218 -0.015653437 0.05334818 0.012254871 0.0019491768 -0.013196965 0.01915428
-0.037071258 -0.02147 0.002973025 -0.010336339 0.021865677 -0.05121763 0.044030927 -0.04319441
-0.041865204 0.027034571 0.002343516 -0.027753897 0.021062274 -0.026590772 0.033186734 0.047717348
-0.045951787 -0.017964179 -0.01934269 0.057282653 0.011238651 -0.0111873895 0.016558116 0.0045071174

net.6.weight f4 [200, 200]
00000000: 485a 8c3c 73e7 293d 116f 093d e71f 8f3e
00000010: 6c05 bc3d 66ad f03d 6be8 3dbe 4d28 bfbd
00000020: adb5 04be 669e 1fbe 6c33 ee3d d032 443e
00000030: d64d 1cbe 48eb 42be 77df 87bd 7840 43be
00000040: 5e98 e33d d734 1fbd ce55 53bd 1be5 afbd
00000050: a04b f43d 46f9 1e3a 3dc1 003e f8ca 3ebc
00000060: 8431 0dbd 371f 873c 6d05 0dbe 9043 cd3d
00000070: 5975 383d b4aa 433d 7e12 4c3c 6a8c 29be
00000080: 4f27 463e 82a7 073d b64d 273d c434 10be
00000090: 2692 2a3d 980f 3f3d ad22 85bd 2987 373d
000000a0: d18f c23d b54f 0abe c1c8 183e 280d 16bd
000000b0: eaaa 84bc 8e90 893d 8f47 2bbd d521 89bd
000000c0: ffa7 4e3b 1bea f9bd f8ff e33c 4d5f 22bd
000000d0: 8dba 3abe 5a1d 6b3e 7bd7 efbb 4967 1f3e
000000e0: 96c5 3fbd 7808 c1bc ac48 35bd ae59 14be
000000f0: 9367 473e 6ee3 173d 10de 17bb 5c2f fe3d
00000100: 80f8 95bd e9e5 a7bd 6e32 4c3d dce5 9bbd
00000110: 1e57 2d3d 6ca1 29be 6eb2 2fbd f72a ffbd
00000120: 126d babd 3fb1 d43a e0ce 6e3c d891 05bd
00000130: b14b 793e 40e9 8d3c c4d0 6abe 42cd a6bd
00000140: e11a 96bd 9e2b 8ebc 9c60 5e3e bace 3ebe
00000150: 95cf 533c 1d81 9c3d 1fc4 043c 645a 5b3d
00000160: e3db 083e a1fb c6bc 6593 1cbe 61b5 10bd
00000170: 0ffc 0c3d c249 51be 66e1 88bd eb78 883c
00000180: e6f1 11bd 1787 6a3d 07a6 163b 6876 c03d
00000190: 3e6f a4bd 6e1d 133d 9e55 cdbd bc1a 9c3e
000001a0: b3a8 353e 1888 59bc 9f1d 853d ad21 c9bd
000001b0: 5cc4 14bd 80ea b73d 320d a1bd 4941 c23b
000001c0: 0e20 e83d 336b a83c 3997 87be f432 98bd
000001d0: 8110 babd 6f2a c7bd 0078 89bd 06a8 013d
000001e0: c167 afbd fc3e cb3d d065 2a3d 671f acbb
000001f0: 376f f1bd 86a0 433e c1aa 7ebd 26f5 2cbd
00000200: 3d5d 1a3e 8484 82ba c0ad 1fbe 8251 43bd
00000210: 6a13 34be c14e b53d 3496 963d 8176 50bc
00000220: 9af9 5f3d 705d a13c 48d3 80bc f7b3 c1bd
00000230: 26b2 64be 35f7 ba3c 198e b83d 2449 5a3d
00000240: 3d3e cebd 65c6 a8bc f193 acbd 337a a13d
00000250: cf19 0dbe c06c ca3d 5cec 1dbd 28b1 1b3e
00000260: 88d4 563e 4089 fa3d b5b9 193d 9ca0 38be
00000270: 002c 4cbd a203 e93d a1c6 54bd e539 923c
00000280: 0d38 bc3d 0bc9 033d fa1b c6bd bcf0 0e3e
00000290: 9c48 5e3e 21bf 9e3d 8259 11be b9fa 15bc
000002a0: 3b5a ffbc a793 bb3b 9aae 19bd 77f5 a0bd
000002b0: 67c8 8fbd 5e1f 68bd bd84 413e 7222 693d
000002c0: b1ab 87bd bf87 7f3c 5af9 7fbd 4636 c7bd
000002d0: c447 db3d 0e60 7dbe 53d6 4d3d 7e53 3bbe
000002e0: 3ef1 d0bc fe07 5b3c 7f1c 513b 1ac9 e5bd
000002f0: 4415 383e 741c 29be a82a 35be 835e b3bb
00000300: 4046 fd3d 7a8c 82bd 81f4 cf3c ee1b 453e
00000310: 76e5 1f3d 06b7 753c 205f b23d 375e cf3c
00000320: 52dd 093e 6d30 67be 3584 91bd 7bde 4bbc
00000330: 9787 ef3d 789d b23d 510b efbb 133e d03b
00000340: 84b8 21bc d7a0 033c c60e fcbb 8fbe cb3d
00000350: 52da 15be 4bdd bd3d dc37 a83d 7960 e43c
00000360: aebb 04be 1d9e 0d3e bf37 063e 1ae0 0d3e
00000370: 2c3f 213c 4f03 98bc 802a dd3d 7452 59bd
00000380: bbc4 923c 99a7 853a bb3d 08bc b9b2 633d
00000390: 92fe b53d 6cef e7bd 0ee1 26bc 48ed 13be
000003a0: 05a1 833d e329 51bd 6b4b f83d dd20 5f3d
000003b0: aa0e 80bd 6d8a a2bd f367 3bbe 8bec a1bd
000003c0: e5d9 873d fa18 52be 01d5 453d 0d7f ce3c
000003d0: 735a 3dbe 15d4 d3bc 3a00 20be eb3c 403e
000003e0: 7c3b 8b3d e7a2 543e 5a04 913d e53b 613d
000003f0: ded4 ccbd 6c43 7ebd 5f7f 1fbc 36e4 45be
0.017132893 0.041480493 0.033553187 0.27954027 0.09180722 0.11751823 -0.18545692 -0.09333859
-0.12959929 -0.15587768 0.11630902 0.19160008 -0.15264067 -0.19035065 -0.066344194 -0.19067562
0.11113046 -0.03886875 -0.0515955 -0.0858862 0.11928487 0.00060643663 0.12573715 -0.011645071
-0.03447105 0.016494377 -0.13771601 0.10022652 0.045033786 0.047770217 0.012455581 -0.1655747
0.19350933 0.033118732 0.040845595 -0.14082628 0.041643284 0.04664573 -0.065007545 0.044806633
0.09500087 -0.13506968 0.14920332 -0.03663364 -0.01619478 0.06717025 -0.04181629 -0.06695906
0.003153324 -0.12202855 0.027832016 -0.039641667 -0.18235226 0.22960415 -0.0073193884 0.15566744
-0.046819292 -0.023563609 -0.04425876 -0.14487335 0.19473104 0.03708213 -0.002317313 0.12411377
-0.07322788 -0.08198149 0.04985278 -0.076122016 0.04231941 -0.16565484 -0.042894773 -0.12459367
-0.09102835 0.001622714 0.01457569 -0.03260979 0.2434528 0.017323136 -0.229312 -0.081446186
-0.073293455 -0.017354783 0.21716541 -0.18633547 0.012927909 0.07641814 0.0081034 0.053553
0.1336513 -0.024289908 -0.15290602 -0.035329226 0.03442007 -0.20438293 -0.06683616 0.01665922
-0.035631083 0.057257738 0.0022987144 0.09397584 -0.0802903 0.03591674 -0.10026096 0.30489147
0.17740135 -0.013277076 0.064997904 -0.09820876 -0.036320075 0.08980274 -0.07863845 0.0059281928
0.11334239 0.02055893 -0.2648256 -0.074315935 -0.09085179 -0.097248904 -0.06712341 0.03165438
-0.08564711 0.09924123 0.041601002 -0.005252767 -0.11788791 0.19104204 -0.062174562 -0.04222598
0.1507463 -0.0009957706 -0.15593624 -0.047685154 -0.17585531 0.08852912 0.07352868 -0.012723566
0.054681398 0.019697875 -0.015725747 -0.09458154 -0.22333583 0.022822956 0.09011478 0.05329241
-0.10070465 -0.020602414 -0.08426655 0.07884636 -0.13779376 0.09884024 -0.038555488 0.15204298
0.20979512 0.122332096 0.03753062 -0.18030018 -0.04984665 0.11377646 -0.05194724 0.017849872
0.09190378 0.03217415 -0.09673305 0.1395902 0.21707386 0.07751299 -0.14194301 -0.009154015
-0.031170955 0.0057243886 -0.03752003 -0.07859319 -0.070206456 -0.05667054 0.18898292 0.056917615
-0.066245444 0.015596329 -0.06249366 -0.09727149 0.107070476 -0.24743673 0.050253224 -0.18293568
-0.025505658 0.013368605 0.0031907854 -0.11219998 0.17976862 -0.1651476 -0.17692053 -0.005473913
0.12366915 -0.0637445 0.025385143 0.19248936 0.03903719 0.0149972495 0.0870955 0.02531348
0.13463333 -0.22577067 -0.071052946 -0.01244318 0.116957836 0.08721441 -0.00729505 0.006355056
-0.009870652 0.008033953 -0.007692191 0.099484555 -0.14634064 0.09270724 0.08213779 0.027878033
-0.12962219 0.13829847 0.13107203 0.13855019 0.0098417215 -0.018556265 0.10799122 -0.05305715
0.017916074 0.0010197043 -0.008315499 0.055590365 0.08886446 -0.11324963 -0.010185493 -0.14445984
0.064271964 -0.051065337 0.1212376 0.0544747 -0.06252797 -0.07936559 -0.18301372 -0.07906445
0.06633357 -0.2051734 0.04829884 0.025207067 -0.18491535 -0.025857965 -0.15625086 0.18773238
0.06798455 0.20765267 0.07080908 0.05498876 -0.10001539 -0.062076017 -0.0097349575 -0.19325337

net.6.bias f4 [200]
00000000: b7dd 853c 3051 81bc 0a64 073d ee82 ed3b
00000010: f2a1 c8ba c516 24bc 5f0f 2ebd a05e 9dbc
00000020: d80e d73b c12d 1cbc 528d 2d3c dd96 81bc
00000030: 4e0c 02bd 8dd6 143c 78ea 4b3d 0dc9 03bc
00000040: 322b e73b 934d debb 8526 84bb f2ef 6f3c
00000050: d331 9fbc 2807 413b b3a5 5abc f349 023c
00000060: ebab a9bb d2c2 73bc f2ef 5dbb 1c72 8e3b
00000070: 03c3 263c 76d4 12bc 3542 93bc 79e3 823b
00000080: fccd bf3c a6c1 853b 5467 c6bc 3835 febb
00000090: bc81 a1bc 4233 be3a c98f 22bd ae5e f3bb
000000a0: 0941 d13c ae5f 3e3b 8c83 563b 2614 49bc
000000b0: c504 0c3c 79af 113d c1a3 9ebc fdc5 51bc
000000c0: 21e4 e8bc 3557 043c 530e cb3c 218b 25bc
000000d0: 1512 a3bc 7bef 343c 61e9 58bc e1dc 55bb
000000e0: 0838 6cbc 2072 da3c 2183 0d3c aa37 04bd
000000f0: 0fe9 953c a6fa 89bc 80a6 87bc ec67 1b3c
00000100: 65cb a1bc 40d2 fcbc 296f 42bd 3f77 613d
00000110: aa4f 48bd 695a 193d 43c7 b13b 10c0 8e3c
00000120: 09aa 91bc 89d5 0fbd 910f f2bb 5a59 ee3c
00000130: 5c9d 09bc 3705 b8bb 08bb ccbc 239d 4bbc
00000140: afe0 6e3c cbff 80bb a681 bc3b dbb9 67bc
00000150: d457 85bc 845c 38bc a58c b93b ae6c 883d
00000160: 7126 d0bc e8ea f0bc 8e52 3e3d c999 1bbd
00000170: 1975 633a 0a19 2f3c 3b5c 5abb 00be d5bc
00000180: 2748 ac39 bdc8 933b 3fc6 0f3a b8c5 4b3c
00000190: e2c6 113c f399 55bc 93c9 c0bc f48f 62bc
000001a0: d85d 2a3d 59bc 1cbc 9a56 c6ba 1668 7fbc
000001b0: 34db 153c 3ac6 af3c 7eca fc3a 4f52 703c
000001c0: 0016 99bc 3933 4a3c f609 77bc 08dd 123c
000001d0: d914 fb3b 7bee 57bd 2b44 833c 02bc 4b3c
000001e0: 1994 04bd 8150 f7bc 8a42 e93b 2c20 c93b
000001f0: 727e 9fbc f74e 9bbc 40f1 113a 009d 6f3c
00000200: a873 a9bc a704 203c 0954 aabc 4a37 b23b
00000210: 8b93 20bc 7fac 2fbc 61fb 0cbc f863 973c
00000220: 1523 c23c 6cfa 76bb 91e4 3cbb 4156 e83c
00000230: 550f e9ba 23d1 3cbc 43e9 34bb cc74 27bc
00000240: e17f 18bd 48fb debc 00af 573a 6238 dd3c
00000250: 5dd5 2bbb 8bd5 f9bc 66d6 1abd 97bc 273d
00000260: b948 5a3b b210 6d3b 0397 d9bc 9759 b83b
00000270: a503 4b3c 9a80 a73c 95c0 e2bc fca8 e23b
00000280: 6771 94bb fded 9539 f9fd 44bc e0a3 573c
00000290: 7e75 a2bc c159 593b bc6c 44bc 9436 e1bc
000002a0: 1afa f7bb ceac e6bc 1371 b7bc cd3a 4bbb
000002b0: 22e5 acbc 4071 76bc 47c5 56bc ef52 403c
000002c0: 85b9 e2bc efa4 fa3a 05a4 15bc d46d 2dbd
000002d0: c9d5 943c 308a 9c3c baaf a7bc 2245 0bbc
000002e0: 6f3e debc 4475 18bc b34a 273c bade 8abb
000002f0: f61e 40bc 7835 8b3c f7e2 afbc 912e d5ba
00000300: df4f a03c 30e7 183b eacf 4b3d 9e6f d0bc
00000310: 268d 31bc 1973 20bc 434c 903b 3fff 11bc
0.016341073 -0.015785784 0.03305439 0.007248274 -0.0015307053 -0.010015194 -0.042495128 -0.01921016
0.006563049 -0.009532393 0.010592775 -0.015819008 -0.031750016 0.009084356 0.049784154 -0.00804354
0.00705471 -0.00678415 -0.004032912 0.01464461 -0.019432938 0.0029453728 -0.01334517 0.007952201
-0.005177965 -0.014877992 -0.0033864942 0.004347099 0.01017833 -0.008961787 -0.017975906 0.003994402
0.02341365 0.0040819226 -0.024219193 -0.007757809 -0.019715182 0.0014511126 -0.039687905 -0.007427058
0.025543706 0.0029048729 0.0032732217 -0.01227287 0.008546059 0.035567734 -0.019365193 -0.012803552
-0.028429093 0.008077432 0.024787104 -0.010103972 -0.019906083 0.011043425 -0.013239236 -0.0032632875
-0.014417656 0.026665747 0.008637221 -0.032279648 0.018299608 -0.016843151 -0.016558886 0.009485226
-0.019750306 -0.030861974 -0.04746929 0.055045363 -0.0489041 0.037439737 0.005425365 0.017425567
-0.017781274 -0.035115752 -0.0073871096 0.02909534 -0.008399334 -0.005615856 -0.024991527 -0.012427601
0.014579936 -0.003936743 0.00575276 -0.0141434325 -0.016277231 -0.011252526 0.005662518 0.06661354
-0.025408955 -0.029408887 0.04646545 -0.037988458 0.00086768117 0.010687122 -0.0033319134 -0.026091576
0.00032860154 0.004510014 0.0005484558 0.012437277 0.008897515 -0.013037193 -0.023533618 -0.013828266
0.041593403 -0.00956639 -0.001513201 -0.015588781 0.0091465 0.021456826 0.0019286422 0.014668061
-0.018687248 0.012341314 -0.0150780585 0.008963831 0.0076623973 -0.052717667 0.016023716 0.012434961
-0.0323678 -0.030189754 0.007118528 0.0061378684 -0.019469474 -0.018958552 0.000556726 0.014624834
-0.020685032 0.009766734 -0.020792024 0.00543872 -0.009800802 -0.010722279 -0.008604855 0.018480286
0.023698369 -0.0037685884 -0.002882276 0.028361442 -0.0017781059 -0.011524471 -0.0027604855 -0.010220718
-0.03723133 -0.02721943 0.0008227676 0.027004424 -0.0026219704 -0.030497333 -0.037802123 0.040951338
0.0033307506 0.0036173281 -0.026561266 0.0056259143 0.012391006 0.020447064 -0.02767972 0.006917117
-0.00453012 0.0002859681 -0.012023442 0.013161629 -0.019831415 0.003316507 -0.011988815 -0.027491845
-0.007567656 -0.028158572 -0.022392785 -0.003101039 -0.021105353 -0.015041649 -0.013108558 0.011738523
-0.027676353 0.001912264 -0.009133344 -0.04234107 0.018168347 0.019108862 -0.020469535 -0.008500369
-0.02712938 -0.009305302 0.010210681 -0.004237977 -0.011726132 0.01699327 -0.02147053 -0.0016264488
0.019569336 0.0023331158 0.04975883 -0.025443848 -0.010836875 -0.009793066 0.0044036224 -0.008910953
