r2/model-state-dict.pt (torch, 811821 bytes, 13 tensors)

net.0.weight f4 [200, 2]
000000 71 d6 13 3d 1a 53 74 3b ee 92 29 bd 8e d1 83 bc
       0.03609318 0.0037280978 -0.04139989 -0.016091134
000010 a6 60 ca 3c 2f 96 cc 39 16 26 25 bd 91 80 8d bc
       0.024704289 0.00039021808 -0.040319525 -0.01727322
000020 65 4f 12 3d 82 11 82 3b b8 60 a9 bb bd ac 4a bd
       0.035720248 0.0039693723 -0.0051690005 -0.049481142
000030 54 d6 8a bd bb 78 6f 3d 23 b4 24 bd 02 f3 8e bc
       -0.06779161 0.058464747 -0.040210854 -0.01744986
000040 ad 38 15 3d 54 6d 80 3b 59 e5 07 be 84 ff 36 3d
       0.036431003 0.003919283 -0.13271083 0.044677272
000050 7b 6b 0e be 7f 47 e5 3c fc 69 08 bd 6d 86 aa bc
       -0.13908188 0.027988194 -0.0333042 -0.020816052
000060 13 6e 98 bd 56 2e a4 3d f2 3a 14 3d d4 74 8d 3b
       -0.0744287 0.080166504 0.036189027 0.0043169055
000070 28 5a 17 bd d8 04 4e bd 21 bf 15 bd 41 64 6e 3c
       -0.036951214 -0.050297588 -0.036559228 0.01455027
000080 18 3a 16 3d c1 5d 87 3b 86 3a 13 3d 20 47 79 3b
       0.036676496 0.0041310494 0.035944484 0.0038036779
000090 ee 85 06 bd 85 07 20 3c bd 6b 10 bd 3a c5 3d bc
       -0.03284257 0.009767418 -0.035258997 -0.011582667
0000a0 a9 17 e1 bb 1d 9e 2d bd 51 70 41 bd ce 84 16 3d
       -0.0068692756 -0.042387117 -0.047226254 0.036747746
0000b0 03 84 e8 bc bd 2e ba bc cd 23 06 bd 8a 6e ae bc
       -0.02838326 -0.022727365 -0.032748986 -0.021292944
0000c0 73 8d 2a bd 8c a8 21 bc a9 e3 d9 bc 69 ed dc bc
       -0.041638803 -0.009866845 -0.026597815 -0.026968675
0000d0 01 98 86 bd 66 e9 70 3d a9 96 11 3d 4d 95 81 3b
       -0.06571961 0.058816336 0.03554407 0.0039545656
0000e0 48 43 12 bd 8f 9b 8b bc d8 46 16 3d 00 19 85 3b
       -0.035708696 -0.01704195 0.036688656 0.004061818
0000f0 45 87 3c bd 81 4e 16 3d d7 a3 16 3d cf 04 82 3b
       -0.04602744 0.03669596 0.036777344 0.0039678584
000100 8e 97 f0 3c ec a7 83 3b a8 ca 18 bd 92 0c 3e 3c
       0.029369142 0.0040178206 -0.037302643 0.011599677
000110 e3 32 13 3d 4a 48 7a 3b 5c 1e 12 3d 0a d5 81 3b
       0.0359372 0.003819006 0.035673484 0.003962164
000120 b1 1c 18 bd 4f ce 1f 3d b8 61 e9 bd b6 bc 64 3c
       -0.037136737 0.03901511 -0.113955915 0.013961008
000130 cc 3d 17 3d fb 0e 8c 3b 19 c5 13 3d 0d 43 76 3b
       0.03692417 0.0042742467 0.03607664 0.0037576586
000140 92 e7 15 3d 3f dd 96 3b 82 b2 13 bd 01 42 46 bd
       0.036597796 0.0046040113 -0.03605891 -0.04840279
000150 dc 0a 17 3d b6 cf 89 3b da d8 10 3d a2 31 82 3b
       0.03687559 0.0042056693 0.035363056 0.003973202
000160 42 ce 12 3d 0b 0e 85 3b f0 42 eb bb 93 e3 a5 bd
       0.035841234 0.004060512 -0.0071796104 -0.08100047
000170 b8 ed ef bc 78 c1 2b bd 1d 54 12 3d a6 65 81 3b
       -0.029288158 -0.041932553 0.035724748 0.003948885
000180 3a d8 13 3d 2b c2 79 3b 17 37 11 3d 76 3d 83 3b
       0.03609488 0.0038110118 0.03545293 0.0040051294
000190 7c c1 13 bd d7 89 5e bc a1 f5 12 bd 63 77 34 3c
       -0.036073193 -0.013582668 -0.03587878 0.011014792
0001a0 12 71 15 bd 3f 9d 22 3c ff 50 16 3d 2e a7 9c 3b
       -0.036484785 0.009925186 0.036698338 0.0047806716
0001b0 47 41 09 3d 5d 14 8a bc 25 7b 12 be 3f 23 af bb
       0.03350952 -0.016855413 -0.14304788 -0.005344778
0001c0 08 2d 11 3d de 50 84 3b 99 7a ce bc 6c d8 00 3c
       0.035443336 0.0040379604 -0.025204943 0.007864099
0001d0 8d f3 3b bd de 0e 53 3c c2 0a 12 3d f8 60 98 3b
       -0.045886565 0.012881963 0.03565479 0.0046502315
0001e0 89 c6 c1 bc 8f 54 7d bd db 1e cd 3c 8f 13 44 3a
       -0.02365424 -0.06184822 0.025039127 0.0007479721
0001f0 1b b9 13 3d 63 99 77 3b 72 7d 1a bd e8 27 cf 3c
       0.036065202 0.0037780635 -0.03771729 0.025287583
000200 31 ba 13 bd 5a 43 2e 3c 67 2e 03 bd e3 16 ae bc
       -0.036066238 0.010636175 -0.032026675 -0.021251148
000210 fc 40 2d bd 26 dd 71 bc 33 65 13 3d f1 fa 7a 3b
       -0.042298302 -0.014762199 0.035985183 0.0038296545
000220 cd d3 f9 bc 89 75 5d 3b 0e f3 5e bd 6d d1 5e 3c
       -0.030496502 0.003379198 -0.054431014 0.013599736
000230 24 ab f2 3c c2 49 87 3b 53 9d 12 bd 5c 45 3c bc
       0.029622622 0.0041286657 -0.035794567 -0.011491146
000240 df 25 11 3d 7c 6c 85 3b 72 b3 13 3d 93 48 8f 3b
       0.035436507 0.0040717702 0.036059804 0.004372665
000250 26 0e 1b bd 69 cc 2d 3c 43 94 12 3d 7d 0d 6d 3b
       -0.03785529 0.010607817 0.035785925 0.003617137
000260 c5 72 12 bd c8 f2 26 3c 6c e3 cb 3c d9 08 d6 39
       -0.035753984 0.0101897195 0.024888717 0.00040823853
000270 42 af 0f 3d 0c fd 85 3b 7a 29 16 bd 61 c5 23 3c
       0.03507925 0.0040890034 -0.03666065 0.009995789
000280 f0 09 16 3d 35 54 91 3b 9b 51 c1 3c 31 4c 02 3b
       0.03663057 0.004435087 0.023598483 0.001988184
000290 18 e8 e8 3c 95 cf 61 3b 41 c6 f7 bc cc 41 ad bc
       0.028430983 0.0034456004 -0.030245902 -0.021149538
0002a0 c4 51 0e 3d 03 8e 8d 3b a9 96 ec bc dc b6 e1 bc
       0.034745947 0.0043199076 -0.028880434 -0.027553014
0002b0 c7 b5 0f bd e7 10 18 3d f6 5c 0e be 9b b7 e8 3c
       -0.035085466 0.037125494 -0.1390265 0.028407862
0002c0 74 b5 fe bc d0 df 18 3c fe f4 96 bd df 4e a9 3d
       -0.031092383 0.009330705 -0.07370947 0.082669966
0002d0 9f dd 23 bd 32 6b 5b bc be 9d 13 3d 11 f1 79 3b
       -0.040006276 -0.013392257 0.036039107 0.0038138072
0002e0 61 32 13 3d da ab 7e 3b cd ec 12 3d 16 b6 7f 3b
       0.035936717 0.0038859756 0.035870362 0.0039018444
0002f0 de e0 2e bd 9a a7 62 bc 8d fe 2a bd 4a 74 7c bc
       -0.04269492 -0.013833905 -0.041746665 -0.015408585
000300 54 08 0b bd eb 15 3a bd ec 75 0e bd 4b 9e 98 bc
       -0.03394349 -0.04543106 -0.034780428 -0.018630167
000310 de 2c f8 bc cc 00 ef bc 3c 14 2a bd 5d 05 22 3b
       -0.030294832 -0.029175185 -0.041523203 0.0024722435
000320 3a 8e 16 3d cf 71 8a 3b 4b a9 fc bc c3 10 fa 3b
       0.03675673 0.004224993 -0.030842444 0.0076313927
000330 83 32 18 3d 4d 2b 8a 3b ef 36 35 bd 41 78 0f 3d
       0.037157547 0.0042165876 -0.044241842 0.035026792
000340 8d 71 e2 3c 2d 83 2e 3b 9f c1 0d bd 28 98 5f bc
       0.027642036 0.002662848 -0.03460848 -0.013647117
000350 53 3b 13 3d a2 70 7b 3b 8e 24 03 3d 9d 11 97 3b
       0.035945248 0.0038366695 0.032017283 0.004610254
000360 65 a5 0c bd d0 c2 0d bc b6 8b a4 bd 7a a9 8b bd
       -0.03433742 -0.008652404 -0.0803446 -0.068194345
000370 88 31 12 3d 96 bd 88 3b ba bd fc bc 0e eb 4a bc
       0.035691768 0.004172991 -0.030852187 -0.012385143
000380 ae 34 11 3d 27 fb 83 3b 0b ca 9e bc c5 3b 74 bd
       0.03545063 0.0040277424 -0.019383451 -0.059627313
000390 c3 bf 15 3d f2 d7 92 3b 1d 5a 13 3d 29 34 82 3b
       0.03655983 0.004481309 0.03597461 0.003973503
0003a0 1c 68 fc 3c 61 06 94 3b 68 a1 03 bd 04 41 ae bc
       0.030811362 0.004517362 -0.03213635 -0.021271236
0003b0 cb 64 19 bd 2c 46 48 bc ee a1 da bc c0 e9 7e bd
       -0.03744964 -0.0122237615 -0.026688542 -0.06223464
0003c0 10 fd f9 3c ea 99 8d 3b aa 0d f6 3c 17 27 85 3b
       0.030516177 0.0043213265 0.030035812 0.0040634978
0003d0 4e 79 f3 bc 99 36 81 bd 52 dc e2 bc a8 4c ec 3b
       -0.029720929 -0.06309242 -0.027692948 0.0072112866
0003e0 63 cc f4 3c 85 e2 80 3b 43 c7 1c bd 12 3c 92 bc
       0.029882615 0.003933253 -0.03827597 -0.01785091
0003f0 43 c2 17 3d d9 f6 9a 3b b5 09 f6 bc 7d 76 1e 3c
       0.037050497 0.0047291336 -0.030033926 0.0096718045

net.0.bias f4 [200]
000000 e5 93 13 bc 56 a9 91 3c 96 e5 74 bc 81 3e 95 3c
       -0.009007429 0.017780941 -0.014947316 0.01821828
000010 7f f3 14 bc 62 a4 1c 3d 89 de 86 bd c9 d9 95 3c
       -0.009091257 0.038242705 -0.06585414 0.018292325
000020 c7 b3 16 bc d6 14 d8 bd ef a7 c0 bd eb 40 0c 3d
       -0.009198136 -0.10550849 -0.09407031 0.034241598
000030 cb c8 51 bd 59 d5 1a bc cc ae 19 3d 55 db af 3c
       -0.05121688 -0.00945028 0.037520215 0.02146689
000040 4d 6f 0c bc e2 e4 13 bc 3e 02 ed 3c 2c dc 63 3c
       -0.008571458 -0.009026738 0.028931733 0.013907474
000050 26 31 0b 3d 58 4e 3c bb 32 12 0e 3d e7 39 0c 3d
       0.03398242 -0.002873322 0.03468532 0.034234907
000060 8a 57 f1 3c 47 93 b1 3c 26 c7 91 bd b3 44 14 bc
       0.029460687 0.021676673 -0.07118063 -0.009049582
000070 29 71 02 3d 94 b3 0c bc 64 26 61 bb 87 e6 08 bc
       0.0318462 -0.008587737 -0.0034355158 -0.008355743
000080 a3 87 18 bc 10 d3 da 3c 4b 09 14 bc 0e bb 14 bc
       -0.009309682 0.02671197 -0.009035419 -0.0090778
000090 2f 1e ae 3c 5e 9f 04 be fc 82 05 bc b2 d6 13 bc
       0.021254627 -0.12951419 -0.008148905 -0.009023355
0000a0 39 9d 11 bc eb 39 14 3d a5 f5 0b bc c3 dc 13 bc
       -0.008887582 0.036188047 -0.008542453 -0.009024802
0000b0 81 49 16 bc e8 1e 0b 3d 82 72 fd 3c 7a c3 14 bc
       -0.009172798 0.03396502 0.03093839 -0.009079808
0000c0 fe 70 14 bc 0b 85 14 bc 16 2b 79 3c b3 96 ee 3c
       -0.009060143 -0.009064923 0.015208026 0.029124593
0000d0 32 19 ef 3c 5e 22 11 bc f7 3e a5 bc c2 d0 1f be
       0.029186819 -0.008858291 -0.020171626 -0.15606979
0000e0 16 d1 14 bc ef de 02 3d 96 b1 93 bc d2 0c 1e bc
       -0.009083053 0.031950887 -0.018029016 -0.009646611
0000f0 0b 4a 2f 3d fd 18 7a bc 3f fe 13 bc 50 ec 18 3c
       0.042795222 -0.015264747 -0.009032785 0.009333685
000100 4c 84 ef 3c 76 b4 0f 3d 54 e4 8c 3c 05 4a 14 bc
       0.029237889 0.03508421 0.01719872 -0.009050851
000110 fe b3 ad 3c 15 7c 07 bd 0e 5c 19 bc de cf 64 3c
       0.021203991 -0.03307732 -0.009360326 0.013965575
000120 b7 23 15 bc ee 26 1b bc e1 27 ef 3c 13 62 11 bc
       -0.009102753 -0.009469731 0.02919382 -0.00887348
000130 f1 68 e9 3c 8c d1 76 bc 82 3d 14 bc 15 7e e9 3c
       0.028492423 -0.015064608 -0.009047868 0.028502503
000140 f5 a9 0a bc f3 f8 80 bc 35 e0 27 bc f4 11 09 3d
       -0.0084633725 -0.015743708 -0.010246326 0.033464387
000150 1e f0 15 bc f2 0e b8 3c cb 06 a4 3c 5d 59 c1 bd
       -0.009151487 0.022468064 0.02002277 -0.09440873
000160 df 8a e1 3c 52 d7 56 bd f1 c7 82 3c 54 4c 14 bc
       0.02753204 -0.05245144 0.01596448 -0.009051401
000170 fd b9 14 bc f5 b2 14 bc 55 42 89 3c 44 ed 8e 3c
       -0.009077546 -0.00907587 0.016755262 0.017447121
000180 da 2e 0b 3d 92 bf 09 3d 82 4a c2 3c d0 13 bc bc
       0.033980228 0.03362996 0.023717169 -0.022958666
000190 a9 4d 0c bc 30 f3 fe 3c ee 4b 04 bc 1c d6 4c bb
       -0.0085634375 0.03112182 -0.008074744 -0.0031255549
0001a0 01 2a 34 bc 6f 2b 74 3c 88 3b 14 bc e8 d6 11 bc
       -0.010996343 0.0149029335 -0.0090473965 -0.008901335
0001b0 37 d2 43 3c 6d 61 10 bd 08 16 17 bc c7 34 5c 3c
       0.011951975 -0.035249162 -0.009221561 0.0134403175
0001c0 48 be 14 bc bc 6b 2e 3d 05 0e 12 bc 9f c1 15 bc
       -0.00907857 0.042583212 -0.008914475 -0.009140401
0001d0 82 20 0f bc bd ec 0e 3d 0e f6 c1 3c 72 8f 2c 3d
       -0.008735778 0.03489374 0.023676898 0.042128988
0001e0 8d 15 0b bc 67 e9 15 bc f7 3c 2f 3d 76 2b fc 3c
       -0.008489025 -0.009149886 0.04278275 0.030782443
0001f0 38 a5 24 bc 9b ef 0c 3d 07 9d 0e bc 4d 5a ea 3c
       -0.010049157 0.034408193 -0.00870443 0.028607512
000200 c3 0b ab bc be e5 88 3c cf 08 12 bc 4a 8f 08 bc
       -0.020879632 0.016711112 -0.008913233 -0.008334944
000210 86 65 e4 3c b4 2d e8 3c bf cb 13 bc 3f a8 12 be
       0.027880441 0.028342105 -0.009020745 -0.14321993
000220 e8 87 07 3d 5a 52 13 bc 13 d6 ca 3c 4c 32 0c bc
       0.033088595 -0.008991802 0.024760282 -0.008556914
000230 1d c2 6f bc 2d 42 57 bd 0d 76 f0 3c 35 05 0e bc
       -0.014633683 -0.052553345 0.029353166 -0.008668234
000240 53 6f 1b bc 82 8b 15 bc a5 32 ef 3c ca f6 08 bc
       -0.009486991 -0.0091275 0.029198954 -0.00835962
000250 2d 05 98 3c 6e 47 03 3d ab 6d 10 bc 74 ef b0 bb
       0.018557156 0.032050543 -0.008815209 -0.005399639
000260 1c 1e 1f 3d 47 0f f5 3c ff 4a 7f bd f9 ae a1 bd
       0.038847074 0.029914511 -0.06232738 -0.078947015
000270 e3 b3 ac bc f9 4d 14 bc 00 00 15 bc 10 94 13 bc
       -0.02108187 -0.009051793 -0.009094238 -0.009007469
000280 6a 13 a4 3c 5a 75 14 bc f5 ea a3 3c 64 a1 15 bc
       0.020028789 -0.009061182 0.020009497 -0.009132717
000290 81 5e a2 3c 47 ad 13 bc 99 01 15 bc 45 fe 08 3d
       0.019820454 -0.0090134805 -0.009094619 0.033445615
0002a0 8b cd 10 bc 4b 4a 87 3c 32 58 0b bc 9b 1e 21 3d
       -0.008838068 0.016514918 -0.008504914 0.03933583
0002b0 2e e7 b0 3c 2b c1 0d bd d9 e5 13 bc 43 f9 42 bc
       0.02159461 -0.034608047 -0.009026968 -0.011900249
0002c0 38 ac ce 3a 7a e6 15 bc 29 65 eb 3c 12 b5 af 3c
       0.0015767878 -0.009149188 0.02873476 0.021448646
0002d0 da 3d ea 3c e1 a3 14 bc 8a 86 0a 3d 3c 46 93 3c
       0.028593946 -0.009072275 0.033819713 0.017977826
0002e0 75 64 0d bc 38 94 d6 3c c6 33 0c bc 98 40 d8 3c
       -0.008629908 0.026193723 -0.008557266 0.026397988
0002f0 6b 5d 18 bc e8 37 b5 3c 1c 81 07 bc d9 5a 15 bc
       -0.009299616 0.022121385 -0.008270528 -0.009115898
000300 b9 da 76 bc f0 22 65 bd 10 a3 c1 3c 99 3c 18 bc
       -0.015066796 -0.055941522 0.023637325 -0.009291791
000310 4b b0 0f bc b5 0c 0e 3d b2 d1 9f bc 91 ec 12 bc
       -0.008770059 0.034680087 -0.01950917 -0.008967535

net.2.weight f4 [200, 200]
000000 14 7b c1 3c 7f ae 8c 3a 10 71 8c 3c 5c ad 5c 3a
       0.023618259 0.0010733156 0.017143756 0.00084181665
000010 6e 92 be 3c 0f 71 4d 3d 97 79 89 ba 59 1b 55 3a
       0.023263182 0.05015665 -0.0010488507 0.00081293803
000020 c1 a6 c5 3c a8 0c 68 3b f7 c1 32 bb ff 01 a6 bd
       0.024127366 0.0035407934 -0.0027276257 -0.081058495
000030 cc 1a a7 bb 0a e1 c4 3c 83 91 8d bb f8 91 1e bd
       -0.00509963 0.024033088 -0.004320325 -0.038713425
000040 e3 2e c6 3c 90 ad bf 3c 68 cd 2b bd 20 ac 23 3b
       0.02419228 0.02339819 -0.041943938 0.002497442
000050 0c 35 19 3d ff 6c 01 bd f3 96 1d bd 5a 55 cb bd
       0.037404105 -0.031598087 -0.038474035 -0.09928389
000060 18 b1 42 bd 3d a6 aa ba bd e3 b3 b9 76 1f bf 3c
       -0.04753217 -0.0013019514 -0.0003431122 0.023330431
000070 a4 5d 71 bd 14 7b c4 3c 5a 35 01 bd f4 23 c3 3c
       -0.058927193 0.02398447 -0.03154502 0.023820855
000080 53 61 96 3c d3 b0 42 bd 56 a5 bf 3c 35 c5 bf 3c
       0.018356955 -0.047531914 0.023394268 0.023409465
000090 61 9a 09 bd 77 dd e3 bc 95 78 c2 3c a1 20 c2 3c
       -0.033594493 -0.027815564 0.023739139 0.0236972
0000a0 f1 b9 c5 3c 1a dc ed ba 3d bb c4 3c 85 71 b9 3c
       0.024136515 -0.001814726 0.024015063 0.022637138
0000b0 3c f0 c4 3c 44 91 86 bc 94 bc 55 bc 16 a7 bf 3c
       0.024040334 -0.01642669 -0.013045449 0.023395102
0000c0 ff d7 c2 3c 3a 7c be 3c 31 82 7b 3b 67 e1 41 bd
       0.023784636 0.023252595 0.003837716 -0.0473341
0000d0 41 0f 47 bd be 84 c5 3c 8a 22 f4 3a 40 45 0c bd
       -0.04859853 0.024111148 0.0018626016 -0.03424573
0000e0 2c 36 be 3c 00 1d 0c bd 0d e3 a4 3b f0 e3 c2 3c
       0.02321919 -0.034207344 0.0050319494 0.02379033
0000f0 22 bd 76 bd 36 44 3a 3c 9e 16 c1 3c 1f 1a 13 bd
       -0.060238965 0.011368802 0.023570355 -0.035913583
000100 22 05 43 bd e9 45 14 bd 1a 93 89 3a 64 b1 c0 3c
       -0.047612317 -0.036199484 0.001049611 0.023522086
000110 b9 ed b6 bc c4 5e 33 3c 99 90 98 3c b3 ff 2e 3b
       -0.022330152 0.010947887 0.018623637 0.0026702702
000120 51 06 be 3c cd 88 c3 3c 13 6c 51 bd 7f 3b c0 3c
       0.023196371 0.023868943 -0.05112846 0.02346587
000130 d9 ed 3b bd 13 55 4d 3c 16 1e bc 3c 8e e1 42 bd
       -0.045881126 0.01253249 0.022963565 -0.047578387
000140 6e c3 c4 3c a5 af 5b 3c 76 ff 93 3c 51 74 e5 bc
       0.02401897 0.013408576 0.01806615 -0.028009566
000150 73 7b b9 3c 10 d6 95 3a d3 c7 04 bd f6 91 7c ba
       0.022641873 0.0011431593 -0.03241713 -0.0009634787
000160 ff eb 19 bd 1d fc b3 bb bb af 48 3b 91 1e c3 3c
       -0.03757858 -0.0054927007 0.0030622322 0.023818286
000170 82 1e c2 3c a4 38 c0 3c c7 39 02 3b 26 e2 44 3a
       0.023696188 0.023464508 0.0019870864 0.00075105054
000180 da aa dc 3a 3e 0d a9 bd 0a 61 1a 3b 25 ff ed 3b
       0.0016835586 -0.08254479 0.0023556375 0.0072630816
000190 20 2c c4 3c 45 b6 29 bd 78 9f c3 3c 03 18 fe bc
       0.023946822 -0.04143359 0.023879752 -0.031017309
0001a0 6d f7 91 3c 56 6f 59 3b ab af c0 3c 5a 09 a9 3c
       0.017818177 0.0033177934 0.023521265 0.020634342
0001b0 f5 e5 1c 3b e9 76 d9 bc cc 94 c0 3c a4 24 84 3a
       0.0023940776 -0.026545959 0.023508452 0.001008172
0001c0 d9 38 bd 3c 7e b7 cd bd a7 df c3 3c 79 e7 c1 3c
       0.023098396 -0.10044764 0.023910357 0.023669945
0001d0 b7 a4 9e 3c 40 e8 fa bc 79 8d 81 38 3d 87 0e bd
       0.019365652 -0.030628324 6.177551e-05 -0.034796942
0001e0 a4 ce 9b 3c c6 73 9a 3c 16 03 f0 bc fc b2 15 bd
       0.019019432 0.018854033 -0.029298346 -0.036547646
0001f0 88 1b 9e 3c f8 bc 90 bd 88 4d c8 3c 11 20 17 bd
       0.019300237 -0.07067293 0.024451032 -0.036895815
000200 06 e8 dd 3b 5a f1 50 3b d5 e1 b9 3c ce 9e c3 3c
       0.006772044 0.0031882138 0.022690693 0.023879435
000210 b9 b0 0d bd 2b 93 12 bd 9d c5 c0 3c c4 cc 3f bd
       -0.034592364 -0.03578488 0.02353173 -0.04682614
000220 10 25 54 bd b7 4f c2 3c fc d7 73 3a d5 97 ba 3c
       -0.051793158 0.023719652 0.00093018985 0.022777477
000230 53 0a 94 3b c6 bd 93 bb 79 12 39 bd 27 42 c4 3c
       0.0045178323 -0.0045087067 -0.045183633 0.023957325
000240 f2 64 a1 3c 0c 4e c2 3c c3 65 1c bd 4e 96 c1 3c
       0.019701455 0.023718856 -0.038182985 0.023631241
000250 ed 1e e0 bc 5a 82 62 bd c5 de c5 3c c3 67 01 bd
       -0.027358497 -0.055300094 0.024154076 -0.031593096
000260 69 b5 0b 3d f3 4b 4d bd 14 31 2d bb 42 60 03 bd
       0.034108553 -0.05012126 -0.0026426958 -0.03207422
000270 f9 83 e5 3b 6b 67 c1 3c 4f 21 b8 3c af 4e c0 3c
       0.0070042578 0.023608884 0.02247682 0.02347502
000280 cf 71 c5 bc cb ef c1 3c 44 a7 7f ba 74 db bd 3c
       -0.02410212 0.023673913 -0.00097524025 0.023175932
000290 e1 17 e5 bc 0f 8a be 3c f0 c3 bf 3c 98 fb 88 bd
       -0.027965488 0.02325919 0.02340886 -0.06688613
0002a0 38 8b c5 3c fa c8 5c 3b dd ea c1 3c 6a f9 59 bb
       0.024114236 0.0033689127 0.023671562 -0.0033260235
0002b0 30 e6 2a bd 60 4b 94 3c d7 05 c0 3c bc 35 38 bd
       -0.04172343 0.018102348 0.023440285 -0.04497312
0002c0 98 a9 03 bd 3b 02 bf 3c e8 0d 34 bd 10 a0 26 bd
       -0.03214416 0.023316493 -0.043958575 -0.04067999
0002d0 87 13 2f bd 40 a5 bf 3c bf 00 c1 39 d5 95 3b 3b
       -0.042743232 0.023394227 0.00036812384 0.0028623242
0002e0 f1 05 c6 3c d8 d6 28 bd cd 30 c6 3c 14 e7 1a bd
       0.024172755 -0.041220516 0.024193192 -0.03781803
0002f0 ac de 9d 3c f8 ad 33 bd 7a e4 c2 3c fb 24 be 3c
       0.019271217 -0.04386708 0.023790587 0.023210993
000300 fb 3a 62 3c 05 0a 74 3c 72 1a 38 3b 65 ea 9f 3c
       0.013808007 0.014894967 0.0028091935 0.019520948
000310 6f a0 c1 3c df fb 0c bd d4 85 d8 3b 18 00 c5 3c
       0.023636071 -0.03441989 0.0066077504 0.024047896
000320 f3 38 bb 3c 22 11 52 be 66 2c 24 3b cc 24 58 be
       0.022854304 -0.20514348 0.0025050878 -0.21107787
000330 a2 9f b5 3c 07 99 94 be f1 60 77 3e fc 1d 59 be
       0.022170845 -0.29023 0.24158074 -0.21202844
000340 48 76 c0 3c 97 b1 b9 be e7 1c c8 be 13 d8 58 3d
       0.0234939 -0.36268303 -0.3908455 0.05294044
000350 25 f6 46 3e c2 e6 b2 3c 77 e5 99 be b1 a0 47 3c
       0.19429834 0.02183855 -0.3005788 0.012184308
000360 f7 4f c5 3c 18 3e bc 3c 03 3e 11 3c 86 7f 0c be
       0.024085982 0.022978827 0.008864882 -0.13720521
000370 7c 94 99 be b1 90 69 ba 5f ae 79 3d 5f 48 4d 3d
       -0.29996097 -0.00089098053 0.06095731 0.050117847
000380 c6 86 50 3d d2 0d ee bd e1 52 6e 3e 30 39 b2 3c
       0.05090978 -0.1162373 0.23273803 0.021755785
000390 03 80 3f 3d 76 02 c6 3c 54 60 41 ba dc 44 cb 3c
       0.04675294 0.024171095 -0.000737672 0.024813108
0003a0 66 a1 35 3c 55 a8 ba 3b 9f e4 bb 3c a0 9c b4 3c
       0.011085844 0.0056963363 0.022936163 0.02204734
0003b0 7d 75 58 3c 43 e9 a0 bc 78 09 d1 3c 4f 2b bd 3c
       0.013211605 -0.019642478 0.02551721 0.02309194
0003c0 55 c6 c1 3c 58 b8 9a be e5 d4 c5 3c 37 21 ae 3c
       0.023654142 -0.30218768 0.024149368 0.021256072
0003d0 0f 58 b7 3c 2e 61 a5 be e2 0e 46 be 6c 41 b6 3c
       0.022380857 -0.32300705 -0.19341615 0.022247992
0003e0 02 03 c3 3c 00 1f b2 3c e1 fc 24 be 3f 2c 97 3b
       0.023805145 0.021743298 -0.1611209 0.004613429
0003f0 9e 93 a6 3b b2 1f c3 3c e4 65 52 bc 16 a6 ce bc
       0.0050835153 0.023818824 -0.012841675 -0.02522568

net.2.bias f4 [200]
000000 fc 28 e5 bb 7d 9f af 3c b1 a4 99 bb 85 f8 b6 3c
       -0.006993411 0.021438355 -0.004688822 0.0223353
000010 b3 36 42 3c cf 37 a5 3c cb fc 86 3c ea 54 fd 3c
       0.011853862 0.020168213 0.016477963 0.03092428
000020 7d 72 60 3c 73 29 fd bc ea 53 a4 3c e8 a7 d5 3c
       0.013699171 -0.030903554 0.020059545 0.02608104
000030 dd 31 ea 3c 67 14 a2 3c 62 11 b5 3c 59 6f ee 3c
       0.02858823 0.01978512 0.022103015 0.02910583
000040 51 ef d0 bb d1 38 83 3c 0d 8f 80 3c 3e f0 f0 3c
       -0.006376185 0.016018303 0.015693212 0.029411431
000050 26 4d 8e 3c 85 31 90 3c e0 3e 8e 3c ad 12 64 3c
       0.017370772 0.017601738 0.017363966 0.013920468
000060 ed f3 a0 3c 4b ef de bb ea a1 be 3c 26 32 3b bc
       0.019647563 -0.0068034283 0.023270566 -0.011425531
000070 e3 15 7d 3c d0 a8 e6 3c 26 b1 95 bb fc 75 ff 3c
       0.015447113 0.028156668 -0.004568237 0.031184189
000080 f9 d1 26 bc ea d4 95 3c fb 6d 66 3c d8 db 5f 3c
       -0.010181897 0.018290002 0.014064307 0.013663255
000090 77 f1 83 3c 27 f7 8d 3c b0 6c 9c bb da 16 8a 3c
       0.01610635 0.017329765 -0.0047736987 0.0168566
0000a0 d5 3f b4 3c f1 27 9d bb 59 df 9e bb f1 cd 7f 3c
       0.022003094 -0.004796021 -0.0048484025 0.015613065
0000b0 4b 11 8e 3c 92 49 d9 bb 1a 80 c8 3c b4 ab d6 bb
       0.01734223 -0.0066310847 0.024475146 -0.0065512303
0000c0 eb 0c 96 bb 9b 06 8a 3c 38 81 8b 3c 84 01 a4 3c
       -0.0045791767 0.016848853 0.01702939 0.020020254
0000d0 38 52 83 3c 81 19 34 bc 83 82 40 bc fe 40 83 3c
       0.016030416 -0.010992409 -0.011749866 0.016022202
0000e0 28 16 87 3c 49 61 9c bb dc b2 25 bc 1a 1e 6f 3c
       0.016490057 -0.0047723395 -0.010113444 0.014594579
0000f0 9b bb 7f 3c bc 42 61 3c 4a 9a 9c bb 75 ac 62 3c
       0.0156086935 0.013748821 -0.004779135 0.013835062
000100 01 06 a7 3c db 8c 8b 3c 33 84 23 bc ce ce 97 3c
       0.020388605 0.017034939 -0.009980249 0.01853123
000110 7e 0f f5 bb 5e 1e 90 3c 7c 19 d2 bb 34 5f 9c bb
       -0.0074786535 0.017592605 -0.0064117294 -0.0047720913
000120 33 61 86 3c 06 7f 6b 3c 36 06 8e 3c 08 08 ee 3c
       0.01640377 0.0143735465 0.017336946 0.029056564
000130 8b 6c 88 3c c7 40 8e 3c 0c 2f 8e 3c 83 de b4 3c
       0.01665332 0.017364873 0.017356418 0.022078758
000140 5e aa 3f 3a 49 6d 8c 3c 42 5f c6 3c 24 d1 ce bb
       0.00073114585 0.017141955 0.024215344 -0.0063115526
000150 71 f7 71 3c 4b 25 88 3c 32 88 8d 3c a6 73 7b 3c
       0.014768467 0.016619345 0.017276857 0.015347397
000160 d9 72 71 3c e5 de 8d 3c 85 ae eb 3c 22 0c 8d 3c
       0.0147368545 0.017318198 0.02876974 0.0172177
000170 59 a8 8a 3c e4 c7 df 3c c8 f4 d5 b9 ce ad d5 bb
       0.016925978 0.027316995 -0.00040808902 -0.0065209633
000180 96 fe 5e 3c b8 67 81 3c bd 4a 88 3c c1 7b 9f bb
       0.013610503 0.015796527 0.0166372 -0.0048670475
000190 d7 c4 83 3c 89 42 3f bc fb d5 6c 3c 32 cc 8d 3c
       0.016085071 -0.011673578 0.014455314 0.017309282
0001a0 52 0f 8e 3c 26 34 f8 bb 44 a8 ea bb 14 50 8e 3c
       0.01734129 -0.007574576 -0.007161172 0.017372169
0001b0 7f d7 97 bb 77 99 f6 3c 9f 85 5e 3c b3 25 8e 3c
       -0.0046338434 0.030102475 0.013581662 0.01735196
0001c0 6f ce f4 3c 7f 4a f6 bb e4 f0 8a 3c 5c bb f6 bb
       0.029883591 -0.007516205 0.016960569 -0.007529659
0001d0 fb ad 3c bc d5 43 8f 3c df 30 7d 3c 16 76 aa 3c
       -0.01151609 0.0174884 0.015453546 0.02080826
0001e0 e2 fa e7 bb 15 58 cc bb f3 4a f6 bb 8d c8 8d 3c
       -0.007079468 -0.006236086 -0.007516259 0.017307544
0001f0 84 74 92 3c fb eb 98 bb c8 08 66 3c 3d 39 95 bb
       0.017877825 -0.004666803 0.01404018 -0.0045539425
000200 49 a4 8d 3c d3 6e 6d 3c d3 88 9f 3c 41 f0 dc 3b
       0.017290251 0.014491755 0.019474423 0.0067425077
000210 dd 7a 6d 3c 79 76 99 bb ea e4 3c bc aa 66 9f 3c
       0.014494625 -0.0046833125 -0.011529187 0.019458134
000220 ea 77 74 3c 9a ea f0 bb f2 fc 88 3c f3 ff a5 3c
       0.014921168 -0.0073521854 0.016722176 0.020263648
000230 a8 a6 dc bb e1 57 97 bb 7b 4e 5d 3c cc 2f ba 3c
       -0.006733734 -0.0046186303 0.013507481 0.02272787
000240 b1 64 33 3c 81 fe 99 bb f1 30 7b 3c e2 40 85 3c
       0.0109493 -0.0046995287 0.015331493 0.01626629
000250 39 08 67 3c c0 40 a0 3c 47 b2 7b 3c c5 3e 8d 3c
       0.0141010815 0.019562125 0.015362329 0.017241845
000260 92 b9 83 3c 9d a8 99 bb 0e d2 03 3d 52 a1 70 3c
       0.016079698 -0.0046892897 0.032182746 0.014686899
000270 3e fc 6f 3c e5 5a 87 ba 2e 8e de bb 2b 91 8d 3c
       0.014647542 -0.0010326771 -0.0067918515 0.017281136
000280 3b df af 3c db ea c8 bb c8 93 80 3c 2b d3 cf 3c
       0.02146875 -0.0061315126 0.015695468 0.025369247
000290 88 9f 80 3c 4e 68 42 3b a2 c6 8d 3c 68 f6 a0 bb
       0.01570107 0.0029664221 0.01730663 -0.0049121864
0002a0 4b 33 68 3c da 40 f1 3c 24 c4 8f 3c 69 60 d7 bb
       0.014172385 0.029449869 0.017549582 -0.0065727723
0002b0 40 ba 9c bb 95 f1 3e bc bc af e3 bb b5 8f 8e 3c
       -0.004782945 -0.011654277 -0.0069484394 0.01740251
0002c0 cf 28 61 3c e7 4f 6a 3c 1e 07 e5 bb 61 f5 8d 3c
       0.01374264 0.014301277 -0.006989374 0.01732892
0002d0 36 42 8d 3c ea 1e 6d 3c 04 cd 95 bb 4a 01 6f 3c
       0.017243486 0.0144727025 -0.004571559 0.01458771
0002e0 72 bb 24 bc 92 42 90 3c 4b 51 8e 3c ef 94 b4 3c
       -0.010054456 0.017609868 0.017372748 0.022043673
0002f0 bc 47 ee 3c 8f 09 92 3c 88 31 97 bb 5a 72 8e 3c
       0.02908694 0.017826824 -0.004614059 0.017388511
000300 fd c8 e9 3b 2a 39 25 bc 3d 51 e9 bb 11 b8 7f 3c
       0.0071345554 -0.01008443 -0.00712028 0.01560785
000310 4e 04 8a 3c 14 5b 18 3b c7 0d f0 3c 21 02 23 bc
       0.016847756 0.0023247646 0.029303445 -0.009949238

net.4.weight f4 [200, 200]
000000 f1 fc 57 3b 76 6a 0e 3c 3b 87 45 3b a5 0f a1 bc
       0.0032957161 0.008692374 0.0030140418 -0.01966078
000010 79 27 f8 bc 29 c9 67 bc 54 ed e2 bc 6c f7 37 bb
       -0.03029226 -0.014147081 -0.027701057 -0.002807106
000020 fc 70 ba bc 3f 1a fb 3a f7 68 01 3c ee 1e 46 bc
       -0.022758953 0.0019157602 0.007898561 -0.012092335
000030 79 95 47 bb d9 4f cb bc 63 a3 16 3c 02 20 b6 bb
       -0.0030454083 -0.024818348 0.009194228 -0.005558015
000040 16 dc 4b 3b 68 34 aa bc bc b8 98 bc 9e ff 5c bb
       0.0031106523 -0.020776942 -0.018642776 -0.0033721696
000050 d0 f4 ae bc a2 1f 87 bc e5 46 af bc 2c d1 b9 bc
       -0.02135697 -0.016494576 -0.02139611 -0.022682749
000060 81 16 cf bc 54 59 5b 3b ca 1d 1b 3c 4d 10 3a 3b
       -0.025279285 0.0033469992 0.0094675515 0.0028391064
000070 7e 43 0f 3c 13 9c 8c bb 01 f1 41 3b ec bf e9 ba
       0.008744119 -0.0042910664 0.0029593112 -0.0017833686
000080 b4 84 41 3b 17 a0 d8 bc c6 c0 e1 3b b9 1a d0 bc
       0.002952856 -0.026443524 0.0068894355 -0.025403367
000090 32 95 8f bc 9f 3b b0 bc f9 10 41 3b 64 5c ad bc
       -0.017527197 -0.021512805 0.002945958 -0.02116222
0000a0 82 7d 17 3c 4c eb 4c 3b e8 bd 34 3b f7 c4 a9 bc
       0.009246232 0.0031268178 0.0027579013 -0.020723803
0000b0 1c 51 b0 bc 18 7d 54 3b 50 55 16 bc ee 4b 55 3b
       -0.021523051 0.0032423194 -0.0091756135 0.0032546478
0000c0 f4 f3 43 3b e4 50 9a bc a5 d7 ae bc d6 a9 1c 3c
       0.0029900046 -0.0188374 -0.021343062 0.009561976
0000d0 fc bb ae bc 80 cd 11 3b eb 2d 16 3b 43 7b bb bc
       -0.021329872 0.0022247732 0.0022915553 -0.022885924
0000e0 ae fc 8b bc 5b 5d 4a 3b 65 17 26 3b 95 b3 f3 3b
       -0.01708826 0.0030878398 0.0025343534 0.0074371793
0000f0 86 82 f2 3b 8b 72 b9 bc de 5d 4e 3b ed 00 ba bc
       0.0074008135 -0.022637626 0.0031489055 -0.02270552
000100 38 00 92 bc 18 ea 91 bc f0 c4 1e 3b 7f 9c 10 3c
       -0.01782237 -0.01781182 0.002422627 0.008826374
000110 8d cd 3c 3b 18 bd 87 bc 4a 63 62 3b 48 c8 3f 3b
       0.0028809041 -0.01656966 0.0034544044 0.0029263664
000120 f9 07 b8 bc f4 17 ed 3b e7 1b be bc 80 48 48 bb
       -0.02246474 0.0072355215 -0.023206664 -0.0030560791
000130 53 84 b7 bc 46 5c af bc 77 9b af bc 3d d8 63 bc
       -0.022401964 -0.021406304 -0.021436436 -0.013906536
000140 81 24 ee bc e2 52 b1 bc 1b 7e 22 bc 60 72 60 3b
       -0.02907014 -0.021645967 -0.009917761 0.003424786
000150 cf dc ed 3b 08 37 a0 bc 3c c2 ae bc d4 d7 11 3c
       0.0072589885 -0.019557491 -0.021332853 0.008901555
000160 27 d9 da bc 70 41 af bc 66 3a b0 bb 8a 59 b0 bc
       -0.026714874 -0.021393508 -0.0053780554 -0.02152707
000170 99 c2 b0 bc 18 47 1f bc 67 c7 f6 bc 79 52 58 3b
       -0.021577166 -0.00972154 -0.03012438 0.0033008142
000180 54 4c ba bc 9d 90 b4 bc a3 91 b5 bc 42 02 40 3b
       -0.022741474 -0.022041613 -0.022164172 0.002929822
000190 ba 14 f8 3b 2c 87 16 3b 16 e7 b4 bc 36 fc ae bc
       0.00757083 0.0022968752 -0.022082847 -0.021360498
0001a0 68 81 af bc 8e a6 35 3b 87 36 58 3b 3c e6 af bc
       -0.02142401 0.0027717683 0.0032991485 -0.021472089
0001b0 2d 5f 45 3b 4f bc 84 bb 1c 2b bb bc dd 6c b0 bc
       0.0030116544 -0.0040507684 -0.022847705 -0.021536285
0001c0 69 09 1f bb d5 00 31 3b af 2d b1 bc 3e 8d 31 3b
       -0.0024267083 0.0027008553 -0.021628229 0.0027092244
0001d0 76 02 3c 3b 67 09 8a bc 74 43 b8 bc eb 47 bb bc
       0.002868799 -0.016850187 -0.022493102 -0.022861442
0001e0 58 92 58 3b 67 2c 56 3b c4 e0 2f 3b 4a 46 af bc
       0.0033046212 0.0032680274 0.0026836852 -0.021395821
0001f0 c1 74 db bc 86 5d 48 3b e5 5f d3 bc 9a 27 4a 3b
       -0.026789071 0.0030573322 -0.025802562 0.0030846358
000200 3f fe af bc 4d 68 f5 3b 27 3e cd bc cc 3b 03 bd
       -0.021483539 0.0074892403 -0.02505405 -0.03203945
000210 54 b9 b6 bc e0 99 4f 3b 2c e2 3c 3b 06 2f 1a 3c
       -0.022305168 0.003167741 0.0028821332 0.009410625
000220 12 63 ff 3b e4 3e 23 3b de ff b3 bc 58 d3 16 3c
       0.0077937925 0.0024909312 -0.021972593 0.009205662
000230 69 3c 5b 3b bc 27 46 3b 9c b1 f0 bc 0f b1 9a bc
       0.0033452755 0.0030236086 -0.029381566 -0.018883256
000240 80 ba d2 bc 5f 8c 4d 3b 44 68 9b bc a8 58 ae bc
       -0.025723696 0.0031364185 -0.018970616 -0.021282509
000250 54 03 d5 bc 6b 04 ce bc ce 5e b5 bc 5f 7e b0 bc
       -0.026002564 -0.025148591 -0.022139933 -0.021544633
000260 e9 bb c9 3b 9b d9 36 3b b6 f7 0a bb 1d 52 c2 bc
       0.006156434 0.00279007 -0.0021204776 -0.023720795
000270 3c 2e e9 3b c8 95 1e bd 7b 9e 5c 3b df f5 ae bc
       0.0071161073 -0.03871706 0.0033663798 -0.021357475
000280 8a 91 17 3c 56 50 59 3b df cd fa 3b cf 9c fd bb
       0.009251008 0.0033159456 0.0076539363 -0.0077396403
000290 a7 1f ea bc b2 33 f9 bc 61 24 af bc 00 5e 3d 3b
       -0.028579546 -0.030420158 -0.021379652 0.002889514
0002a0 ad 6b b9 bc 7a 72 8d bb 29 4b 89 bc 96 36 5c 3b
       -0.022634352 -0.004316625 -0.016759472 0.0033601872
0002b0 7d e2 46 3b 00 24 0d 3b 66 ce 5b 3b 63 de b0 bc
       0.00303474 0.002153635 0.003353977 -0.021590417
0002c0 06 1d b9 bc 18 a8 ed 3b 7b d0 55 3b d6 9a af bc
       -0.022596847 0.0072527044 0.0032625485 -0.021436136
0002d0 0d eb ad bc b0 db e6 3b ef 35 3e 3b dd 05 f4 3b
       -0.021230245 0.0070452318 0.0029023846 0.007446988
0002e0 de ce 1b 3b e3 25 88 bc fb e1 af bc 13 83 0d 3c
       0.0023774425 -0.016619628 -0.02147006 0.008637208
0002f0 64 93 01 bc a5 2c d8 bc 4c 45 48 3b d9 c6 df bc
       -0.007908676 -0.026388476 0.0030558882 -0.027316498
000300 58 27 f8 bc 98 8c 41 3b 7f 60 59 3b 80 2a b2 bc
       -0.030292198 0.0029533263 0.0033169088 -0.021748781
000310 12 dc 87 bc e6 d2 fd bc 1f f5 11 bb 83 45 26 3b
       -0.01658443 -0.030984353 -0.0022271348 0.0025371022
000320 e4 6d 43 3b 50 95 0b 3c 07 14 36 3b 02 ae 9c bc
       0.0029820139 0.008519486 0.0027782933 -0.019125942
000330 2e 99 f2 bc 14 d8 60 bc 79 de dd bc ea e0 1e bb
       -0.029614057 -0.013723392 -0.027083622 -0.0024242946
000340 cc 38 b8 bc 25 52 f0 3a fd f4 01 3c be ec 3f bc
       -0.02248802 0.0018335028 0.007931945 -0.011714159
000350 5a 3a 31 bb d5 e4 c6 bc f1 43 0c 3c ef 2f a9 bb
       -0.0027042837 -0.024279037 0.00856112 -0.005163185
000360 9c 0b 4d 3b 4f 3a a7 bc 91 cf 95 bc 87 30 45 bb
       0.0031287437 -0.020413546 -0.018287452 -0.003008874
000370 a5 ce ac bc ea ec 84 bc 0f 75 ac bc 04 01 b8 bc
       -0.02109463 -0.01622625 -0.021051912 -0.022461422
000380 4c 62 ca bc 33 3f 47 3b 22 e9 15 3c 91 45 25 3b
       -0.024705075 0.003040266 0.0091498215 0.0025218467
000390 e0 fb 05 3c 6f ea 80 bb c7 60 33 3b c0 dc bb ba
       0.008177727 -0.0039341967 0.0027370916 -0.0014332756
0003a0 59 31 30 3b 1f c1 d3 bc eb 3a d5 3b 71 d3 cb bc
       0.0026884882 -0.025848923 0.0065072677 -0.024881097
0003b0 4b ae 8c bc a7 66 ad bc 93 52 32 3b af ff aa bc
       -0.017172953 -0.021167113 0.0027209863 -0.020873873
0003c0 44 20 0d 3c fc b2 3a 3b 4d 73 2d 3b b4 e3 a5 bc
       0.00861365 0.002848803 0.002646643 -0.020250179
0003d0 0c f4 ad bc f5 82 49 3b fb 98 0f bc d0 ae 46 3b
       -0.021234535 0.0030748222 -0.008764501 0.0030316599
0003e0 3b ba 2a 3b 53 f9 97 bc cc 2c ac bc c0 a6 1d 3c
       0.0026050943 -0.018551504 -0.021017455 0.009622276
0003f0 fe b7 ab bc df 17 08 3b c0 3d 0d 3b 15 f4 b7 bc
       -0.020961758 0.0020766181 0.0021551698 -0.022455255

net.4.bias f4 [200]
000000 35 4c 19 bc 88 e7 25 bc 83 24 f4 bc c6 78 f8 bc
       -0.009356548 -0.010126002 -0.029802566 -0.030331027
000010 c6 42 26 bc aa 17 10 bb 37 ec 17 bc 28 40 f8 bc
       -0.010147756 -0.002198676 -0.009272627 -0.03030403
000020 64 29 0f bc 85 26 79 3d b0 12 89 ba e6 83 91 3d
       -0.008737896 0.06082775 -0.001045784 0.07105236
000030 f3 b8 d3 ba 56 b2 10 bc a2 35 32 bb 64 5d 28 bb
       -0.0016153142 -0.008831581 -0.0027192612 -0.002569043
000040 0b 2c f9 bc df c0 15 bc 40 94 16 bc 74 ad 4f bb
       -0.03041651 -0.009140222 -0.009190619 -0.003168908
000050 58 a8 ff bc 12 ea 10 bc 46 6e 1d bc fc 8e 19 bd
       -0.031208202 -0.008844869 -0.009608811 -0.037489876
000060 52 92 1b bc 7d c3 f6 bc e3 c5 1d bd c3 42 3d bb
       -0.009495335 -0.030122513 -0.038518798 -0.0028878904
000070 f1 09 fa bc ee 3a 53 bb a4 33 19 bc c1 42 d0 bb
       -0.030522319 -0.003223117 -0.009350691 -0.006355614
000080 e5 d1 ea bb 34 32 a1 bb 4e 1e 0d bc 31 77 5b bb
       -0.0071661347 -0.0049193148 -0.008613182 -0.0033487792
000090 34 0d 8e 3d 99 db 25 3d 6a 8c 91 3d ac 73 42 bb
       0.06936112 0.040492628 0.0710686 -0.0029670997
0000a0 14 5b 34 3d 2b 8a 92 3d 26 5f 0e bc 37 f3 fa bc
       0.04403217 0.0715526 -0.008689677 -0.030633552
0000b0 96 7b 18 bc 43 e3 48 3d ff b0 12 bc e5 5d 15 bc
       -0.009306809 0.04904486 -0.008953332 -0.0091166245
0000c0 b2 d9 6b 3d 23 6a f6 bc a6 d8 25 bc 4c 72 10 bd
       0.057580657 -0.030079907 -0.010122454 -0.035265252
0000d0 cc 6c 18 bc 20 75 57 bb 57 77 1c bc 43 f7 17 bc
       -0.009303283 -0.0032876208 -0.009549937 -0.00927526
0000e0 df 76 15 bc 8c a1 16 bc 84 b9 36 bb 18 e5 1b bc
       -0.009122579 -0.009193789 -0.0027881572 -0.009515069
0000f0 63 3c 17 bc ee a9 07 3d 85 02 f8 bc 14 1d 47 bb
       -0.009230706 0.033121042 -0.030274639 -0.0030382322
000100 c0 67 18 bc f7 05 39 3d 34 0f f8 bc 0c 8e 0c bc
       -0.00930208 0.045171704 -0.030280687 -0.0085787885
000110 71 59 35 bb 0d 17 15 bc a2 68 9f bb 16 19 33 bb
       -0.002767172 -0.009099734 -0.004864768 -0.0027328185
000120 a0 a3 58 bb 2b b4 10 bc fd f7 1a bc e2 42 48 bb
       -0.0033056512 -0.008832018 -0.009458539 -0.0030557443
000130 6e ea 02 bb 8a ad cc bc 96 d0 15 bc 62 37 0a bb
       -0.0019976157 -0.024985094 -0.009143969 -0.002109014
000140 4a 75 eb bb 08 4a b7 bc 7d 27 f5 bc 24 95 1a 3d
       -0.007185613 -0.022374168 -0.029926056 0.037739888
000150 5f 1d 33 bb 8f 4f f9 bc ca a5 fc bc cc ab 71 bb
       -0.002733074 -0.030433444 -0.030840773 -0.003687608
000160 5e 57 0d bc 56 fa 19 bd 33 4a 45 3d 62 6a e9 bb
       -0.008626787 -0.037592255 0.048166465 -0.0071232775
000170 4b 89 f9 bc bf cf 93 3d b2 59 13 bc 00 5a 7a 3d
       -0.030460974 0.07217359 -0.008993553 0.061120987
000180 00 e0 94 3d 84 ad 17 bc bc 83 48 bb b2 f5 93 3d
       0.07269287 -0.009257678 -0.0030596098 0.07224597
000190 0a d0 18 bc 58 dd 3d bb fd 2b f8 bc 18 47 37 3d
       -0.009326944 -0.0028971042 -0.030294413 0.044745535
0001a0 e1 b6 3e bb 1d 49 f9 bc 4b 99 0d bc 8e e9 f9 bc
       -0.0029100704 -0.030430371 -0.008642505 -0.030506875
0001b0 f2 c0 f9 bc ac d7 9e bb d2 ae 38 bb aa 20 e2 bb
       -0.030487511 -0.0048474874 -0.0028180373 -0.0069008665
0001c0 92 ac cd bc b4 50 f9 bc d6 17 fa bc a5 ea 26 bb
       -0.025106702 -0.03043399 -0.030528944 -0.002546945
0001d0 57 0c 9e bb 68 70 f6 bc 29 25 81 bb f0 cd 8d bb
       -0.0048232484 -0.030082896 -0.0039411974 -0.004327528
0001e0 74 97 1b 3d 93 20 f5 bc 0f 7a 18 bc 9a 4a 15 bc
       0.037986234 -0.02992276 -0.009306445 -0.009112025
0001f0 e4 1e 6d 3d 41 4c 40 bb 3a 51 46 bb 19 3b 25 bb
       0.057890788 -0.0029342326 -0.0030260817 -0.0025212227
000200 95 f8 0d bc 95 b2 9b bb eb d9 15 bc 3b e7 02 bc
       -0.008665224 -0.0047515132 -0.009146194 -0.0079897
000210 65 d1 30 bb 75 4a f6 bc bb 0a 13 bc fc 18 2f bb
       -0.0026980278 -0.0300648 -0.008974726 -0.0026717773
000220 ce d6 3d bc 46 f0 b5 bc e9 7c fa bc fb d8 fb bc
       -0.011586858 -0.022209298 -0.03057714 -0.030743113
000230 39 26 05 bb 26 53 11 bc e8 82 0f bc 49 7e 3c 3d
       -0.0020316972 -0.008869922 -0.008759238 0.046018872
000240 93 7e 0b bc 0f 54 1f bd fa 54 fb bc 89 80 24 bc
       -0.008514064 -0.038898524 -0.030680168 -0.010040411
000250 2b f6 a0 bb 55 3a 30 3d 30 1f 02 bd ed 98 f9 bc
       -0.004912158 0.04302438 -0.031768024 -0.030468429
000260 d1 b9 8d bb a6 da f7 bc 85 f8 94 3d 83 f5 0c bc
       -0.0043251296 -0.030255627 0.07273964 -0.008603456
000270 9a d1 f4 bc cf 9c 24 bc 10 a3 14 bc 5a 08 fa bc
       -0.029885102 -0.010047152 -0.00907208 -0.03052156
000280 40 26 13 bc c3 4e 0d bb 1c 07 f8 bc 86 9a fa bc
       -0.0089812875 -0.0021561838 -0.030276828 -0.03059126
000290 1b 00 0e bc f1 43 17 bc bf 33 3e bc 8b c2 1b bc
       -0.008667017 -0.009232507 -0.011609017 -0.009506832
0002a0 24 77 0f bc 92 7a 24 3d 9b 48 50 bc 46 41 40 bc
       -0.008756433 0.040155955 -0.012712623 -0.011734312
0002b0 a4 89 0e bc 4e 99 38 bb b5 96 43 bb d1 76 34 3d
       -0.008699808 -0.0028167549 -0.0029844467 0.044058625
0002c0 b1 aa 0e bc 34 a6 7a 3d af 80 9c bb cb 15 c3 bc
       -0.008707688 0.06119366 -0.0047760825 -0.023814103
0002d0 5f 0e 37 bc 0d 08 25 bc 61 70 10 bc 46 33 7c 3d
       -0.01117286 -0.01007272 -0.008815856 0.061572336
0002e0 24 3c 88 3d 1a 6e 13 bc 4d 03 0f bc 4a c8 82 ba
       0.06652096 -0.008998418 -0.008728814 -0.0009977904
0002f0 4b b8 0e bb 26 84 17 bd 90 23 ca bc 62 5e f8 bc
       -0.0021777328 -0.03699126 -0.02467516 -0.030318443
000300 4c a2 70 bb 68 3c 1a bc 66 4e 3e bb 37 cd 1a bc
       -0.003671783 -0.009413816 -0.0029038428 -0.009448341
000310 69 78 35 3d 79 5a 43 bb 24 7a eb 3c 4c d8 10 bc
       0.044304285 -0.0029808565 0.028744765 -0.008840632

net.6.weight f4 [200, 200]
000000 6e b7 1b 3b ae dc e6 3a c0 5a 6c 3a e5 bf e0 39
       0.0023760456 0.0017613375 0.00090162084 0.00042867582
000010 30 a8 db 3a 55 a0 21 3d 95 52 50 3b 0b eb 6e b9
       0.0016758498 0.039459545 0.0031787504 -0.00022785009
000020 27 3d 33 3b f2 d3 60 3b f3 5b 27 3d 7e 98 89 bc
       0.0027349682 0.0034306017 0.040859174 -0.016796347
000030 56 c3 24 3d 0e a7 2d 3b 4f a0 1d 3d dd f2 1b 3d
       0.04022535 0.0026497277 0.03848296 0.03807341
000040 92 e2 9c 3a fe d0 1f 3b c2 c5 e6 3a 58 7b 16 3d
       0.0011969379 0.0024386044 0.0017606544 0.036738724
000050 96 e5 88 39 5a c8 31 3b 38 e8 16 3b 3b a6 71 bb
       0.00026110996 0.0027127475 0.0023026597 -0.0036872763
000060 cf d7 1e 3b ed 93 94 39 99 50 37 bb 13 05 1d 3d
       0.0024237519 0.00028338973 -0.0027971624 0.038334917
000070 9c cd 79 39 ee ec 15 3d 5e 2c 24 3b 50 06 1e 3d
       0.00023823086 0.036602907 0.002505086 0.03858024
000080 9c 6b 0f 3d 9a 4b 05 3d 04 f3 27 3b c3 17 15 3d
       0.035014734 0.032542802 0.0025627026 0.036399614
000090 96 61 5b bc 04 17 21 bb e7 b0 88 bc 2f c3 17 3d
       -0.0133899655 -0.0024580369 -0.016685916 0.037051376
0000a0 a4 df 9c 3c 34 ed 84 bc 21 ae 51 3b 06 2c fc 39
       0.019149609 -0.016226389 0.0031994658 0.00048097986
0000b0 e2 1d 19 3b 09 73 90 3c 10 0e 3d 3b 57 fe 14 3b
       0.0023363759 0.017632978 0.0028847493 0.0022734606
0000c0 db 0e 96 3b 1b 85 1a 3a 9d d3 b7 3a ae 6a 81 bb
       0.0045794076 0.0005894468 0.0014024858 -0.003949485
0000d0 4a a0 31 3b d8 29 17 3d 89 86 fd 3a 66 1b 18 3b
       0.0027103596 0.03690514 0.0019342463 0.002320969
0000e0 87 73 20 3b 20 00 27 3b b1 98 1c 3d c1 ae 1b 3b
       0.0024482922 0.0025482252 0.038231555 0.0023755284
0000f0 18 22 2a 3b 5d 5d a4 3c 06 30 18 3a cf 14 16 3d
       0.0025960263 0.02006405 0.0005805496 0.03664094
000100 4c d2 20 3b 21 51 4a 3b 09 43 f7 39 2f ff 2b 3b
       0.002453941 0.003087111 0.00047161456 0.002624463
000110 92 1b 1c 3d 12 fc 1e 3b 30 36 11 3d 8f 7b 1c 3d
       0.03811223 0.0024259132 0.035452068 0.038203772
000120 29 7d 17 3d 97 6a 23 3b 97 1e 1d 3b a0 c3 17 3d
       0.036984596 0.0024935359 0.0023974532 0.037051797
000130 e4 84 22 3d af c5 ae 3b 13 07 41 3b c3 91 21 3d
       0.039677516 0.0053336243 0.002945368 0.03944565
000140 d1 7f 17 3d 8a 50 67 3b b3 b7 70 39 5a 16 65 bb
       0.03698713 0.0035295808 0.00022956617 -0.003495595
000150 c2 f2 1c 3d c7 67 9b 38 a6 f5 f0 38 0c 74 1d 3d
       0.03831745 7.410306e-05 0.000114898474 0.03844075
000160 28 28 36 3b 8a b0 e9 ba 05 aa 90 3c 8b d5 0f 3d
       0.002779493 -0.0017829102 0.017659197 0.03511576
000170 e4 e9 97 39 bc 51 82 bc a6 96 3a 3b dd d0 0c 3b
       0.00028975226 -0.015908115 0.002847114 0.0021486797
000180 5d 26 91 bc 1d 46 37 3b ac e8 16 3d 72 93 8a bc
       -0.017718488 0.0027965375 0.036842987 -0.01691601
000190 78 61 17 3b 5b 6f 1d 3d 31 9f 35 b7 1b b7 6d 3c
       0.0023098867 0.038436275 -1.0825505e-05 0.014508988
0001a0 a4 2e 1c 3d bf 4a 08 ba a2 bb 29 3b 4e 47 5c 3a
       0.038130417 -0.00051991263 0.0025899191 0.0008402959
0001b0 a9 7c 7a 39 ce 44 13 3d 65 c0 1a 3d 59 98 18 3d
       0.00023888297 0.03595429 0.037781138 0.037254665
0001c0 75 63 a7 3b 95 1a 2d 3a 27 24 77 3a ed f1 1f 3d
       0.0051082917 0.00066033873 0.00094276894 0.039049078
0001d0 2b f1 14 3d cb 31 d5 39 a3 a7 28 3d ff 7a 0c 3d
       0.03636281 0.00040663625 0.041175496 0.034296986
0001e0 7b 7f a5 3c 45 21 20 3a c3 c0 25 3b ff 12 17 3b
       0.020202389 0.0006108473 0.0025291897 0.0023052094
0001f0 82 63 8a bb a1 98 1a 3d fe 21 1a 3d c5 38 20 3d
       -0.004223288 0.037743215 0.037630074 0.03911664
000200 80 6a 1e 3b 22 b9 10 3d 0a 87 02 3b 0d f0 0d 3d
       0.0024172366 0.035332806 0.0019916915 0.03465276
000210 84 aa 1a 3d 6f a5 da 39 c4 34 3c 3b 88 74 1e 3d
       0.037760273 0.00041703458 0.0028717974 0.03868535
000220 f0 c0 0a 3b b3 ce 46 3b 9d 22 2e 3a 78 9a 14 b9
       0.0021172129 0.0030335605 0.0006642731 -0.00014171924
000230 23 4e 22 3d 09 6a 42 3b d6 0c 3c 3b 20 6c a8 3c
       0.0396253 0.0029665253 0.0028694174 0.02055937
000240 30 84 25 3b 68 ea ae bb 96 37 58 39 f6 b8 00 3b
       0.0025255792 -0.005338002 0.00020620073 0.0019641495
000250 73 59 12 3d 22 2a a4 3c 77 1e 3f ba da 73 06 3a
       0.035729837 0.020039622 -0.00072906114 0.00051289576
000260 8b 49 0c 3d ee 94 d3 39 63 08 91 bc dd 96 4c 3b
       0.034249824 0.00040356017 -0.017704194 0.0031217851
000270 24 30 80 3a f4 de 00 3b af 8f 1e 3b 8e 3b ea 39
       0.0009779972 0.001966414 0.0024194529 0.0004467633
000280 91 12 21 3b 7f 2a 22 3d d9 72 84 39 59 37 52 38
       0.0024577717 0.03959131 0.0002526257 5.0119448e-05
000290 89 7e 54 3b 90 5d 2a 3b cf 3b de 3a 48 e5 16 3b
       0.0032424054 0.002599571 0.001695508 0.0023024846
0002a0 b7 f5 26 3b a5 cf 0a bc 9d 4f a6 ba 85 e2 c6 3a
       0.0025476047 -0.008472358 -0.0012688522 0.0015173709
0002b0 39 cf 3d 3b 5d 79 1c 3d f6 de 19 3d ca 88 a2 3c
       0.0028962626 0.03820168 0.037566148 0.019840617
0002c0 77 a9 3a 3b ad e2 24 3b ae e3 11 3d cd a0 8a 3b
       0.0028482357 0.0025159523 0.035617523 0.0042305947
0002d0 98 cd 09 ba f7 2d 05 3b e2 62 2e 3b a9 bd 09 3a
       -0.0005256771 0.0020321587 0.0026609232 0.0005254397
0002e0 50 70 f8 b9 c7 e5 3f 3b eb f4 34 3b 83 f4 27 3d
       -0.00047385925 0.0029281245 0.0027611803 0.04100467
0002f0 a2 76 22 3d 53 7a 95 ba 89 a2 95 3b 2a a9 51 38
       0.03966392 -0.0011404253 0.004566495 4.998703e-05
000300 a5 92 14 3d da 5b 31 3b 90 ef 1b 3d cc 4c 04 3b
       0.036272664 0.0027062804 0.03807026 0.0020187376
000310 5a a1 a0 3c 3c 94 18 3d 45 27 4b 3d 07 a1 70 3b
       0.019608188 0.037250742 0.049597997 0.0036717074
000320 0f 9e 76 bc a3 88 6b bc 4a 8a 15 bd c3 56 15 bd
       -0.015052333 -0.014375838 -0.036508836 -0.036459696
000330 21 24 6c bc 02 51 3c 3c 4f 03 7b bc 9f 9d 15 bd
       -0.014412911 0.011493923 -0.015320613 -0.036527272
000340 e0 9b 80 bc a0 9b 13 bd 91 b7 34 3c f4 8f 40 bc
       -0.015699327 -0.036037087 0.011030094 -0.011753071
000350 4e b1 34 3c 7a 23 80 bc d1 16 3e 3c 42 74 45 3c
       0.011028601 -0.015641917 0.01160212 0.012051644
000360 d9 41 15 bd fd 3e 7b bc d1 a7 79 bc 97 23 40 3c
       -0.03643975 -0.015334842 -0.015237764 0.011727235
000370 a6 c8 14 bd e2 dd 7f bc f6 dd 73 bc 30 93 15 bd
       -0.036324166 -0.015616866 -0.014884463 -0.036517322
000380 df ef 74 bc 87 aa 15 bd e1 20 15 bd c3 77 41 3c
       -0.014949768 -0.03653958 -0.03640831 0.011808339
000390 f6 2e 15 bd c8 3b 48 3c 99 b4 7a bc a3 2a 83 3c
       -0.03642174 0.012221284 -0.015301847 0.016011542
0003a0 f2 cd 88 3c 6b 5f 58 3c a2 97 80 bc 22 98 41 3c
       0.016699765 0.013206343 -0.015697304 0.011816056
0003b0 fa fc 33 bc b0 ea 8d bc 75 c8 44 bc 3a 62 3c 3c
       -0.010985607 -0.017323822 -0.012010683 0.011498028
0003c0 dc b5 6b ba c9 ed 2d bc a6 23 80 bc e9 fa 14 bd
       -0.0008991638 -0.010615774 -0.015641998 -0.0363721
0003d0 c9 b4 77 bc d8 09 39 bc 3f c0 7e bc 6b 28 7c bc
       -0.015118786 -0.011293851 -0.015548765 -0.015390496
0003e0 a0 83 b3 bc ad 9d 15 bd 35 c2 6b bc 1f 7f 16 bd
       -0.02191335 -0.036527324 -0.014389564 -0.036742326
0003f0 e9 40 7b bc a2 b3 45 3c d7 05 74 bc 94 25 78 bc
       -0.0153353 0.012066754 -0.01489397 -0.015145678
