r1-bad/model-entire.pt (torch, 814920 bytes, 13 tensors)

weight f4 [200, 2]
0.15361889 -0.0012670695 -0.043200646 -0.05280245 0.07862382 -0.007899093 -0.18536928 0.017388755
-0.02138231 0.08133026 -0.023341026 0.068438545 0.1812127 -0.06472568 -0.17961445 0.002572891
0.046782173 0.002977027 0.08076117 -0.060529567 0.096388504 -0.04869621 -0.16356654 0.04064857
0.07197654 -0.16439854 -0.13794014 0.11485624 -0.03705651 0.012042461 -0.0035199882 0.02912172
0.14360504 -0.07157623 0.07345253 0.0049225097 -0.14702739 -0.16514899 0.006282251 -0.08621082
-0.003094919 0.07728112 -0.10681008 -0.14044477 -0.19417031 -0.112388074 -0.16025786 0.14419642
-0.18121316 -0.09381369 0.1026199 -0.13752162 0.2496414 -0.13407294 0.10801283 0.015819704
-0.031603865 -0.08376358 0.1814834 -0.05286058 -0.016386405 0.08791477 0.23995882 -0.048600424
-0.033362955 -0.046462204 -0.037438396 -0.06715677 0.05676427 -0.004482686 0.05193426 0.054312274
-0.025312109 0.14467643 0.05662383 -0.010119581 0.32698858 0.07743584 0.1496402 0.029477635
-0.034796804 0.15261354 -0.21041214 -0.07702712 0.20219761 0.006184149 0.0961761 -0.013933299
-0.07111049 0.19009854 -0.058961343 0.057020158 -0.101767264 -0.048064765 0.081749834 0.073049776
-0.013958314 0.047391944 0.04239055 0.04883989 0.1902173 -0.14093119 -0.05277978 -0.064639494
-0.021052226 -0.095189296 -0.017624514 0.18873273 -0.011901421 -0.10134842 0.1372011 -0.06552565
0.0041170395 0.05905049 -0.064107336 0.058036312 0.053127922 -0.19898343 -0.2193686 0.19656569
-0.013503918 0.003788345 -0.058870573 -0.10872781 0.054880608 -0.0073683406 -0.078528605 -0.032380532
-0.0042301365 -0.107894026 -0.11217159 -0.09541341 -0.114877224 -0.06452109 0.04175221 0.006500305
0.13792796 0.006364717 0.01135594 0.06910479 -0.08198209 -0.033218317 0.033922315 -0.010898267
-0.08563516 0.074505106 -0.17591308 0.12258691 -0.13205867 -0.022658698 0.17238066 0.13770129
-0.042635515 -0.14230229 -0.00868161 0.04085537 0.09597304 -0.006937492 -0.079066314 -0.13434692
0.19429031 0.18098415 0.22336705 -0.16321957 -0.020658797 -0.06455053 -0.090144046 0.12982659
-0.12048549 0.11706802 -0.010272139 -0.103228375 -0.042306278 0.052498434 -0.054132417 -0.06425821
-0.13433889 -0.033087626 -0.054454617 -0.071480945 0.12613061 -0.22205836 0.058296688 0.05272729
-0.013269997 0.10219398 0.09343544 0.07781139 0.0757529 -0.0443602 -0.11814356 -0.12030153
0.06533658 -0.046164315 -0.16618381 -0.18280083 0.08414839 -0.07266351 -0.07360977 -0.021344114
0.17545888 0.009135067 -0.12582271 0.03381159 0.3300732 -0.08902172 -0.09912333 -0.107049435
0.08844195 0.00809872 0.06088143 -0.11502048 -0.027940938 0.018113459 -0.13756527 0.08840492
0.152632 -0.11014056 0.042141713 0.004780004 -0.12270393 0.17256863 0.019193588 -0.16423258
0.058508225 0.089024164 -0.011435585 -0.059598207 -0.059357557 0.07520392 -0.08055245 0.14212199
0.08167135 -0.07745901 -0.22254945 -0.06683374 -0.3014329 -0.07282968 -0.08732484 0.09163504
-0.07294893 -0.02689306 0.15973286 -0.12608574 -0.07834697 0.03929655 -0.015176561 -0.020745417
-0.07414958 -0.028155275 -0.08624527 -0.08945864 0.06974839 0.09343228 0.020480279 -0.1380028
00000000: 454e 1d3e cc13 a6ba 29f3 30bd 6247 58bd
00000010: 8605 a13d 336b 01bc 72d1 3dbe dd72 8e3c
00000020: f429 afbc 7b90 a63d ae35 bfbc 8229 8c3d
00000030: d28f 393e e68e 84bd daec 37be f39d 283b
00000040: aa9e 3f3d 3a1a 433b 1d66 a53d daed 77bd
00000050: 5667 c53d ad75 47bd fd7d 27be 1d7f 263d
00000060: 7068 933d 1758 28be 2e40 0dbe c039 eb3d
00000070: 91c8 17bd be4d 453c 9aaf 66bb ac90 ee3c
00000080: 330d 133e 8f96 92bd 486e 963d 014d a13b
00000090: 598e 16be d11c 29be 57db cd3b 4c8f b0bd
000000a0: 20d4 4abb 9045 9e3d 3ebf dabd c1d0 0fbe
000000b0: 95d4 46be b82b e6bd a31a 24be 3aa8 133e
000000c0: f18f 39be 6421 c0bd 622a d23d 78d2 0cbe
000000d0: ffa1 7f3e 6b4a 09be d535 dd3d 5398 813c
000000e0: 0e73 01bd 3d8c abbd c9d6 393e 5684 58bd
000000f0: c83c 86bc a90c b43d c4b7 753e 3d11 47bd
00000100: 98a7 08bd 274f 3ebd 0159 19bd 7d89 89bd
00000110: a781 683d 7fe3 92bb 05b9 543d 8c76 5e3d
00000120: 575b cfbc 0f26 143e 64ee 673d 99cc 25bc
00000130: 0c6b a73e af96 9e3d 483b 193e 157b f13c
00000140: 1887 0ebd b946 1c3e 4876 57be 65c0 9dbd
00000150: e40c 4f3e 67a4 ca3b faf7 c43d 7e48 64bc
00000160: 60a2 91bd 31a9 423e 7381 71bd f88d 693d
00000170: 5b6b d0bd 8fdf 44bd 756c a73d 1f9b 953d
00000180: 6ab1 64bc 0e1e 423d b7a1 2d3d 560c 483d
00000190: 53c8 423e 4450 10be 9c2f 58bd b661 84bd
000001a0: b875 acbc 9bf2 c2bd 4961 90bc 2743 413e
000001b0: 2dfe 42bc c38f cfbd 727e 0c3e 5032 86bd
000001c0: 3be8 863b edde 713d b54a 83bd 7cb7 6d3d
000001d0: aa9c 593d 50c2 4bbe 2aa2 60be 8448 493e
000001e0: 8a3f 5dbc e245 783b 4522 71bd b0ac debd
000001f0: 7dca 603d 1f72 f1bb 9bd3 a0bd 73a1 04bd
00000200: f59c 8abb 8bf7 dcbd 38ba e5bd 1b68 c3bd
00000210: c044 ebbd a223 84bd 5e04 2b3d 8300 d53b
00000220: fd3c 0d3e 1e8f d03b 440e 3a3c d086 8d3d
00000230: 3ae6 a7bd ee0f 08bd 20f2 0a3d a58e 32bc
00000240: 7d61 afbd 2296 983d 8f22 34be d90e fb3d
00000250: 633a 07be bc9e b9bc 8e84 303e 9101 0d3e
00000260: 94a2 2ebd b1b7 11be 503d 0ebc f657 273d
00000270: 838d c43d e753 e3bb 85ed a1bd 3d92 09be
00000280: 0af4 463e e953 393e 55ba 643e 0823 27be
00000290: a33c a9bc 1133 84bd 719d b8bd 43f1 043e
000002a0: 19c1 f6bd 5cc1 ef3d 794c 28bc 6669 d3bd
000002b0: 5949 2dbd 9908 573d f4b9 5dbd cf99 83bd
000002c0: 2290 09be e486 07bd ce0b 5fbd 9a64 92bd
000002d0: 6228 013e 4463 63be 82c8 6e3d 92f8 573d
000002e0: 676a 59bc 144b d13d 145b bf3d 945b 9f3d
000002f0: 5624 9b3d 0bb3 35bd 40f5 f1bd a660 f6bd
00000300: 2fcf 853d cb16 3dbd 172c 2abe 2430 3bbe
00000310: fe55 ac3d 9bd0 94bd b8c0 96bd dad9 aebc
00000320: 7eab 333e 40ab 153c abd7 00be 067e 0a3d
00000330: 5bff a83e 0551 b6bd 2c01 cbbd bc3c dbbd
00000340: 0e21 b53d 7eb0 043c ce5e 793d db8f ebbd
00000350: 65e4 e4bc ad62 943c e9dd 0cbe a40d b53d
00000360: 904b 1c3e 6091 e1bd ca9c 2c3d 94a1 9c3b
00000370: 334c fbbd d5b5 303e df3b 9d3c 962c 28be
00000380: 52a6 6f3d 4d52 b63d 525c 3bbc 401d 74bd
00000390: e920 73bd 8304 9a3d aff8 a4bd 6d88 113e
000003a0: 4f43 a73d d4a2 9ebd 01e4 63be 21e0 88bd
000003b0: 6a55 9abe ba27 95bd 5ed7 b2bd 27ab bb3d
000003c0: 4066 95bd d64e dcbc 0391 233e 9f1c 01be
000003d0: 6074 a0bd 6bf5 203d 1ca7 78bc 4bf2 a9bc
000003e0: bcdb 97bd e4a5 e6bc 5ca1 b0bd 1736 b7bd
000003f0: 3ed8 8e3d 6c59 bf3d 42c6 a73c 9b50 0dbe

bias f4 [200]
-0.0143665485 0.060225084 -0.025620772 -0.03346252 -0.049814116 -0.024075992 -0.050418038 -0.038670585
0.009553557 -0.05496907 -0.01967652 -0.051196348 -0.016346464 -0.040662043 -0.0358096 -0.035577737
-0.020869343 -0.04742537 0.015036854 0.026777418 0.042892195 0.054707717 0.0066609667 0.050351087
-0.0029619117 -0.023287725 -0.03943121 -0.023437582 -0.01519519 -0.01953554 -0.0040055 -0.012989695
0.038840998 0.03549702 -0.020190297 0.0480491 -0.037826367 -0.037374843 -0.022608688 -0.026905235
-0.01284748 -0.0063025546 -0.02521767 -0.032025408 -0.011937285 -0.034931004 -0.031414792 -0.027091617
-0.019228632 0.042549938 -0.0062939734 0.063187465 -0.0003174097 0.005050352 -0.030783705 -0.026609471
0.033711728 0.0014577424 -0.008873221 -0.011093816 0.067295775 0.03708496 -0.005756279 0.019443199
0.04498656 0.040151685 -0.02134695 -0.028287064 -0.029766921 -0.018346272 -0.0032879403 -0.014894676
-0.044041846 -0.026934402 -0.035787046 0.04902576 0.053805888 -0.045032535 -0.033963405 0.043881174
-0.006920179 -0.006254333 0.04254885 0.027057378 -0.022448871 -0.02139563 0.077779956 -0.009560117
-0.057328038 0.06897342 -0.021034757 0.06280922 -0.025549399 -0.008221906 0.059305586 -0.0036695271
0.021319136 0.060939603 -0.017169869 -0.032234408 -0.028766127 -0.048907444 -0.024872772 0.0027872592
-0.0508165 0.024447607 -0.03609657 -0.018566485 -0.025221318 -0.016578276 -0.016465686 0.014871508
0.052070074 -0.008585973 0.012764414 -0.031469636 -0.019167937 -0.0438283 -0.029369887 -0.03363109
0.016240591 -0.028915474 0.04559024 0.06164084 -0.024641652 -0.023279496 0.030866 0.016255917
0.0026363682 -0.007074266 -0.008651209 -0.058374923 -0.013506683 -0.004644108 -0.009493242 -0.025594356
0.052966632 -0.028513983 -0.03472344 -0.021823766 -0.06310838 0.024283087 0.045424365 0.028541284
0.0584996 0.05590187 0.012032473 -0.04072667 -0.048300434 0.015421379 -0.015998604 -0.03515838
-0.011433227 -0.023154248 0.047045033 -0.0055597653 -0.042000398 0.003026085 0.03302137 -0.03378636
-0.022010807 -0.002020741 -0.02624204 -0.03040175 -0.035176862 -0.051011905 0.054797847 -0.0050445353
0.0414936 -0.021059893 0.001967534 -0.013192696 -0.017606538 -0.0016405502 -0.025592225 -0.04232338
-0.027834268 0.012032156 -0.04820685 -0.03554569 -0.0033485605 -0.016368922 -0.025147395 -0.041736607
0.038787343 0.05036036 -0.021620791 -0.010568205 0.015162609 0.018754244 -0.03947516 0.06654149
0.017751353 0.009757568 -0.012121449 -0.02019006 -0.0029377495 0.0018423864 0.06126959 -0.021404797
00000000: ac61 6bbc 94ae 763d a7e2 d1bc ff0f 09bd
00000010: e309 4cbd 043b c5bc 2583 4ebd 0c65 1ebd
00000020: 8686 1c3c 3f27 61bd a730 a1bc 43b3 51bd
00000030: 05e9 85bc 3e8d 26bd 16ad 12bd f6b9 11bd
00000040: 2ff6 aabc 1b41 42bd 235d 763c 515c db3c
00000050: baaf 2f3d 3315 603d 3d44 da3b f13c 4e3d
00000060: a21c 42bb e6c5 bebc 9f82 21bd 2c00 c0bc
00000070: 3ff5 78bc ff08 a0bc 9240 83bb bbd2 54bc
00000080: bd17 1f3d 5365 113d 1f66 a5bc 22cf 443d
00000090: d2ef 1abd 5d16 19bd db35 b9bc 5e68 dcbc
000000a0: 3d7e 52bc a985 cebb 4995 cebc 132d 03bd
000000b0: 9a94 43bc d013 0fbd ccac 00bd 3def ddbc
000000c0: 5d85 9dbc d848 2e3d ad3d cebb 6e68 813d
000000d0: 026a a6b9 6c7d a53b 1c2e fcbc 1bfc d9bc
000000e0: 4f15 0a3d b811 bf3a fd60 11bc d6c2 35bc
000000f0: 5ed2 893d 66e6 173d 2b9f bcbb 5847 9f3c
00000100: d443 383d 1876 243d cddf aebc 46ba e7bc
00000110: c2d9 f3bc ec4a 96bc 7c7a 57bb cd08 74bc
00000120: 3965 34bd 89a5 dcbc 7095 12bd 3ccf 483d
00000130: 9063 5c3d 0974 38bd 361d 0bbd bfbc 333d
00000140: abc2 e2bb 26f1 ccbb b447 2e3d 6fa7 dd3c
00000150: b2e6 b7bc e345 afbc 194b 9f3d 09a2 1cbc
00000160: ced0 6abd f041 8d3d 1551 acbc 1fa2 803d
00000170: f94c d1bc 2cb5 06bc 6aea 723d 737c 70bb
00000180: 78a5 ae3c ce9b 793d d3a7 8cbc 3a08 04bd
00000190: f1a6 ebbc 2c53 48bd fcc1 cbbc 73aa 363b
000001a0: f624 50bd 5946 c83c ffd9 13bd be18 98bc
000001b0: f09c cebc 2acf 87bc 0ce3 86bc a0a7 733c
000001c0: 6e47 553d 2eac 0cbc d521 513c 4ee6 00bd
000001d0: 1406 9dbc 4e85 33bd 1e99 f0bc c1c0 09bd
000001e0: fd0a 853c 25e0 ecbc d5bc 3a3d 1b7b 7c3d
000001f0: 4add c9bc a4b4 bebc b2da fc3c 212b 853c
00000200: ebc6 2c3b 3fcf e7bb cdbd 0dbc 8b1a 6fbd
00000210: 224b 5dbc 9a2d 98bb 8b89 1bbc 41ab d1bc
00000220: 8af3 583d 2896 e9bc 2a3a 0ebd c1c7 b2bc
00000230: f73e 81bd 53ed c63c e60e 3a3d 69cf e93c
00000240: 479d 6f3d 5cf9 643d da23 453c 02d1 26bd
00000250: add6 45bd f4a9 7c3c 810f 83bc 3c02 10bd
00000260: 6e52 3bbc faad bdbc 4bb2 403d b12e b6bb
00000270: 9c08 2cbd 4851 463b 6b41 073d 9163 0abd
00000280: 0250 b4bc 696e 04bb 8cf9 d6bc 170d f9bc
00000290: 9d15 10bd dcf1 50bd b573 603d a14c a5bb
000002a0: 31f5 293d cc85 acbc bef1 003b 2d26 58bc
000002b0: 963b 90bc bb07 d7ba c9a6 d1bc 485b 2dbd
000002c0: b104 e4bc 8522 453c 8c74 45bd 5c98 11bd
000002d0: 8673 5bbb 1e18 86bc e901 cebc 01f4 2abd
000002e0: 7adf 1e3d aa46 4e3d 161e b1bc 4426 2dbc
000002f0: 976c 783c 80a2 993c b5b0 21bd e846 883d
00000300: 496b 913c 35de 1f3c 0b99 46bc a065 a5bc
00000310: 4287 40bb 3b7c f13a d2f5 7a3d 1d59 afbc

weight f4 [200, 200]
0.0452668 -0.16606686 0.1926726 0.1919444 -0.09356702 0.08345313 0.04182217 0.16092148
0.11227115 0.13862014 -0.15000397 -0.046475407 0.05326934 0.05390185 0.031202488 0.15204416
0.20452735 -0.016074214 -0.17204458 0.04327756 -0.19616124 -0.10096147 -0.2279565 -0.18273115
-0.035040375 -0.017388465 0.0053001842 0.13860823 -0.07122414 0.064167574 -0.16296647 0.023016261
0.035920512 -0.011077168 -0.041701235 0.069329806 -0.22243468 -0.026126808 -0.023053966 0.115252934
0.026150582 -0.18319577 -0.013068418 -0.20869906 0.26478723 0.0987011 -0.040251363 0.042532127
0.11400796 0.09081866 0.13195634 -0.011282249 0.060900327 -0.07133013 -0.009861982 0.13786829
0.01097523 -0.021660464 -0.17440648 0.014005469 -0.19068024 0.16146986 -0.02216473 0.08576088
-0.051554725 -0.24049169 0.017750196 0.009342116 -0.019545805 -0.044256788 -0.06997004 -0.049702995
0.05493674 0.005817614 0.057213746 0.15099664 -0.06257883 -0.011348775 0.14847638 0.026758254
0.11755025 0.1555732 -0.024381451 -0.043810103 -0.06457221 0.18098691 -0.21705864 0.0062530464
-0.08777881 -0.15218659 0.027636718 0.15142646 0.11935495 -0.02428192 0.008696664 0.030795896
-0.010502543 -0.04830714 0.10250637 0.07297134 -0.015001921 0.099888705 0.03799932 -0.090088695
0.08995353 0.20352986 0.0053366823 0.18649437 0.11135024 0.09274201 0.05333017 -0.018276121
-0.060528744 0.14168587 -0.113892965 0.03646671 0.016480962 -0.013286836 -0.19837394 0.034380384
0.23584056 0.01877777 -0.057308946 -0.032136388 -0.066114664 -0.044954117 0.083418876 0.1500365
-0.18000779 0.19517952 -0.040093392 0.15547061 -0.010278001 -0.0010208241 0.057345636 0.05335961
-0.08138926 0.044926085 0.13877343 -0.02435483 -0.04385233 -0.12781657 -0.09728167 0.0879301
-0.22517098 0.0699262 -0.14388295 -0.027553424 0.07210026 -0.02816176 -0.083860986 0.04909575
-0.026570283 -0.02513095 -0.11455053 0.12915854 0.042113643 0.036365252 -0.12790927 -0.026186021
0.07348707 0.07468778 0.052303087 0.05114011 0.12678604 -0.012781394 -0.0044729104 -0.052359775
-0.00026009086 0.11807675 0.0015705711 0.04575176 -0.0010577964 -0.11901663 0.11794402 0.091586225
-0.013384266 0.013606712 0.036907054 0.053014696 -0.07432422 0.062337145 0.0007380659 0.057303403
0.1234042 0.01020853 0.08733913 -0.0074201077 -0.10027382 -0.0958137 0.021735914 -0.0016396455
-0.043049447 0.13314655 -0.009924794 -0.07446493 -0.07401652 -0.23510392 -0.16745228 0.25741237
-0.08944392 -0.06689518 -0.015770847 0.11166947 -0.06410044 0.18122444 0.043214127 -0.038607813
0.085647486 -0.114251904 -0.01525338 -0.1342806 0.15760998 -0.06263728 0.091301434 -0.023978867
-0.053337347 0.15693471 -0.16516067 -0.023016838 0.11046744 -0.01164022 0.030608598 -0.05608171
0.059506703 0.05547654 -0.0870861 -0.0038189762 0.055048194 0.10555667 0.082115695 0.04876071
0.038948085 0.009254578 0.15653828 -0.13936439 -0.030132271 0.08008753 -0.09565538 0.14754649
0.014702912 -0.11467671 -0.12638067 -0.10918427 -0.20112757 0.02350276 0.09558562 0.01801164
0.31398755 0.13658044 -0.086405136 0.041698266 -0.094244964 -0.02296548 -0.043470744 -0.0047157053
00000000: ae69 393d 6e0d 2abe f74b 453e 138d 443e
00000010: 11a0 bfbd 7ae9 aa3d b94d 2b3d 9ac8 243e
00000020: 6bee e53d 70f2 0d3e a49a 19be ff5c 3ebd
00000030: f430 5a3d 30c8 5c3d 5c9c ff3c 77b1 1b3e
00000040: 9e6f 513e 12ae 83bc 742c 30be d043 313d
00000050: 7ede 48be e3c4 cebd 6e6d 69be e01d 3bbe
00000060: 7f86 0fbd 4172 8ebc 2bad ad3b 51ef 0d3e
00000070: f6dd 91bd 4a6a 833d afe0 26be 998c bc3c
00000080: 6321 133d 037d 35bc eace 2abd c9fc 8d3d
00000090: ebc5 63be e307 d6bc acdb bcbc bb09 ec3d
000000a0: bf39 d63c ac97 3bbe eb1c 56bc 35b5 55be
000000b0: 3192 873e cd23 ca3d 9dde 24bd 2b36 2e3d
000000c0: 017d e93d 22ff b93d 901f 073e 2fd9 38bc
000000d0: 9f72 793d 8815 92bd 2794 21bc 582d 0d3e
000000e0: 73d1 333c 4971 b1bc 9d97 32be 3277 653c
000000f0: ae41 43be 5b58 253e cf92 b5bc 66a3 af3d
00000100: 0c2b 53bd 7443 76be dc68 913c ad0f 193c
00000110: 861e a0bc 9b46 35bd 744c 8fbd 5e95 4bbd
00000120: 5905 613d afa1 be3b f658 6a3d dd9e 1a3e
00000130: 5429 80bd 36f0 39bc 310a 183e 2034 db3c
00000140: 2fbe f03d 954e 1f3e 9cbb c7bc 3972 33bd
00000150: 6f3e 84bd a254 393e 9f44 5ebe 5be6 cc3b
00000160: 60c5 b3bd cdd6 1bbe 6666 e23c 8a0f 1b3e
00000170: 5e70 f43d e1ea c6bc 747c 0e3c ad47 fc3c
00000180: dc12 2cbc b5dd 45bd dcee d13d ff71 953d
00000190: 9eca 75bc 7392 cc3d 2da5 1b3d 6c80 b8bd
000001a0: 8e39 b83d 226a 503e 56df ae3b 61f8 3e3e
000001b0: 980b e43d 86ef bd3d bd70 5a3d ceb7 95bc
000001c0: fdec 77bd 1a16 113e b740 e9bd 1e5e 153d
000001d0: 1503 873c 08b1 59bc 8a22 4bbe 72d2 0c3d
000001e0: 3080 713e d7d3 993c c9bc 6abd 72a1 03bd
000001f0: 2067 87bd cf21 38bd 84d7 aa3d 2ba3 193e
00000200: f653 38be 24dd 473e f838 24bd b033 1f3e
00000210: 1065 28bc 2ccd 85ba 42e3 6a3d 9b8f 5a3d
00000220: 6aaf a6bd 6a04 383d 9f1a 0e3e c883 c7bc
00000230: 809e 33bd 59e2 02be 9d3b c7bd b214 b43d
00000240: 3993 66be 7835 8f3d 0d56 13be b8b7 e1bc
00000250: 4da9 933d 7eb3 e6bc 4fbf abbd a018 493d
00000260: eca9 d9bc 6cdf cdbc 7899 eabd 2342 043e
00000270: 5b7f 2c3d bbf3 143d a6fa 02be 1184 d6bc
00000280: 6480 963d e8f5 983d c33b 563d 4b78 513d
00000290: 33d4 013e 0d69 51bc 7e91 92bb 3477 56bd
000002a0: ce5c 88b9 39d2 f13d 9fdb cd3a 3366 3b3d
000002b0: c2a5 8aba febe f3bd a28c f13d 8f91 bb3d
000002c0: ae49 5bbc b0ee 5e3c da2b 173d f025 593d
000002d0: 4c37 98bd 3c55 7f3d c47a 413a f9b6 6a3d
000002e0: 57bb fc3d ae41 273c dcde b23d 6024 f3bb
000002f0: 5c5c cdbd f939 c4bd 840f b23c 60e9 d6ba
00000300: 9e54 30bd 9257 083e 9a9b 22bc 1281 98bd
00000310: f995 97bd 15bf 70be 9c78 2bbe 8ecb 833e
00000320: 602e b7bd 5700 89bd dd31 81bc f7b2 e43d
00000330: 1747 83bd e692 393e 4c01 313d 3a23 1ebd
00000340: f367 af3d e7fc e9bd 50e9 79bc db80 09be
00000350: 8364 213e f947 80bd 3ffc ba3d 546f c4bc
00000360: 4378 5abd 7eb3 203e e11f 29be cf8d bcbc
00000370: c13c e23d 9fb6 3ebc e2be fa3c efb5 65bd
00000380: 4dbd 733d 5e3b 633d 325a b2bd ca47 7abb
00000390: 377a 613d 182e d83d 462c a83d 4fb9 473d
000003a0: 0788 1f3d 83a0 173c 924b 203e 8ab5 0ebe
000003b0: f4d7 f6bc ee04 a43d f8e6 c3bd 6d16 173e
000003c0: 7ce4 703c 9fdb eabd ef69 01be 019c dfbd
000003d0: 63f4 4dbe dc88 c03c 65c2 c33d 268d 933c
000003e0: fac2 a03e bedb 0b3e 2df5 b0bd cdcb 2a3d
000003f0: 8103 c1bd 1a22 bcbc 610e 32bd 3486 9abb

bias f4 [200]
-0.024167472 -0.009861521 -0.013749479 0.02915137 -0.017525828 0.064799294 0.053877473 -0.04585608
-0.0057188757 -0.032802384 -0.050773717 -0.028600024 0.04104341 -0.042125713 0.059590645 -0.045925718
-0.03339542 0.039971232 0.013539003 0.039000012 0.05970544 -0.015103468 -0.021612423 -0.027453944
-0.04006146 -0.019459005 -0.012526929 0.017116228 -0.01283189 -0.032530878 -0.013947129 -0.020912245
0.0577999 0.062779136 -0.027465174 0.049452495 -0.01209562 0.047469016 -0.049637724 0.04023122
0.029150994 -0.015339786 -0.03457209 0.06303163 0.05585156 0.036035642 0.0051489514 -0.031188838
0.011595102 -0.00718388 0.015833294 -0.044988584 -0.042185016 -0.035780862 -0.04732592 0.048485048
-0.023764875 -0.004249515 0.038799018 0.046723425 -0.0152864605 0.058629688 0.015300968 -0.032300226
-0.023340035 -0.009192196 -0.023387585 -0.03450731 -0.017053064 -0.056017954 0.024603419 -0.009204388
-0.020091651 0.022679495 -0.020726375 0.0041132076 -0.031264316 -0.02703533 2.2839999e-05 -0.017277248
-0.029706674 -0.016959313 -0.012431245 -0.016988792 -0.025546173 -0.016305242 0.0501252 -0.008364471
0.031571172 -0.036099818 -0.0047366368 -0.01891894 -0.015104596 0.059873756 0.043519445 -0.02263707
-0.019662172 0.046979103 -0.053646944 0.037504006 0.009026155 0.00019001731 0.025656316 0.046539307
-0.021020692 0.0018650945 -0.039736383 -0.034639042 -0.026982162 -0.035387743 -0.016939268 -0.043750927
-0.0334193 -0.01236799 0.013246538 -0.018907914 -0.042024832 0.012648928 0.028454322 0.03227817
-0.011474755 0.027846666 -0.03805251 -0.03733329 -0.021816947 -0.0398339 -0.018230714 -0.014803717
0.05931475 -0.0032499013 0.06231648 -0.04124368 -0.02086103 -0.03430065 0.046161138 -0.01428899
-0.026091307 -0.053990237 0.019777337 0.044108234 -0.013060423 0.0067598633 -0.039325677 0.064548
0.031631436 -0.040824942 0.010252605 -0.0020425657 0.00934432 -0.035315562 0.04898311 0.010945555
-0.028808545 -0.0457257 0.050960828 -0.02295489 0.027984113 -0.009679376 0.030679736 -0.016848277
0.067054495 -0.039189283 0.056930654 -0.037321135 -0.007231272 -0.00034961503 -0.00056858774 -0.018172527
-0.021650404 0.034046847 0.041307572 -0.029910581 -0.022586606 -0.017243382 -0.02478932 0.038967147
0.053906374 -0.018818233 0.05309528 0.050493337 0.0029680382 0.048299707 -0.0072285254 0.018486869
-0.025486784 0.03157157 -0.020015927 -0.004201807 -0.027228355 0.05697292 -0.02542428 0.043211907
0.046327684 -0.039663836 0.04129556 -0.031254843 -0.034877878 -0.023179492 -0.021656856 0.05106587
00000000: ddfa c5bc 3892 21bc 7f45 61bc dbce ee3c
00000010: 5392 8fbc 7eb5 843d a0ae 5c3d 96d3 3bbd
00000020: 6865 bbbb cb5b 06bd 1af8 4fbd 994a eabc
00000030: 221d 283d 038c 2cbd 5215 743d 9b1c 3cbd
00000040: a3c9 08bd e0b8 233d b2d2 5d3c 7abe 1f3d
00000050: b18d 743d 8974 77bc 890c b1bc 18e7 e0bc
00000060: 7c17 24bd 7e68 9fbc c03d 4dbc 5537 8c3c
00000070: d93c 52bc 193f 05bd 8082 64bc 2850 abbc
00000080: 97bf 6c3d 5992 803d a5fe e0bc b38e 4a3d
00000090: b52c 46bc df6e 423d ed50 4bbd 7ec9 243d
000000a0: 11ce ee3c ba53 7bbc 779b 0dbd ba16 813d
000000b0: 9bc4 643d 1c9a 133d 89b8 a83b bc7f ffbc
000000c0: 62f9 3d3c c166 ebbb d3b4 813c f345 38bd
000000d0: 32ca 2cbd f48e 12bd d3d8 41bd 4298 463d
000000e0: 8eae c2bc 843f 8bbb b8eb 1e3d 1061 3f3d
000000f0: 1074 7abc af25 703d e9b0 7a3c 3e4d 04bd
00000100: 9a33 bfbc dd9a 16bc 5297 bfbc 8957 0dbd
00000110: deb2 8bbc 1573 65bd 1c8d c93c 00ce 16bc
00000120: 3f97 a4bc 59ca b93c 5cca a9bc 16c8 863b
00000130: 030f 00bd 3279 ddbc 8698 bf37 0489 8dbc
00000140: 695b f3bc 42ee 8abc 6cac 4bbc 142c 8bbc
00000150: 3546 d1bc 9292 85bc 1550 4d3d 220b 09bc
00000160: c650 013d 67dd 13bd ca35 9bbb e5fb 9abc
00000170: 4479 77bc 2f3e 753d 7241 323d 6071 b9bc
00000180: 9012 a1bc 296d 403d e6bc 5bbd cd9d 193d
00000190: 70e2 133c 623f 4739 322d d23c 00a0 3e3d
000001a0: 9633 acbc 3076 f43a 9ec2 22bd abe1 0dbd
000001b0: b209 ddbc bdf2 10bd 38c4 8abc 2c34 33bd
000001c0: ade2 08bd 1ca3 4abc 0208 593c c5e4 9abc
000001d0: 3b22 2cbd 733d 4f3c 0a19 e93c 1d36 043d
000001e0: 9c00 3cbc b11e e43c f3dc 1bbd cbea 18bd
000001f0: 74b9 b2bc df28 23bd 9458 95bc 4a8b 72bc
00000200: 06f4 723d 4cfc 54bb 913f 7f3d 22ef 28bd
00000210: c0e4 aabc d77e 0cbd 7613 3d3d 5e1c 6abc
00000220: 70bd d5bc de24 5dbd 1504 a23c d6aa 343d
00000230: 62fb 55bc d881 dd3b f613 21bd be31 843d
00000240: f78f 013d 0e38 27bd 8bfa 273c 91dc 05bb
00000250: eb18 193c 0da7 10bd 83a2 483d fc54 333c
00000260: e6ff ebbc df4a 3bbd 4dbc 503d e50b bcbc
00000270: f03e e53c 3f96 1ebc 1254 fb3c 6605 8abc
00000280: de53 893d f184 20bd 1e30 693d 0cde 18bd
00000290: 4ef4 ecbb 894c b7b9 470d 15ba 8dde 94bc
000002a0: 305c b1bc b574 0b3d 2132 293d 0907 f5bc
000002b0: 8c07 b9bc fe41 8dbc f912 cbbc 049c 1f3d
000002c0: eecc 5c3d b228 9abc 707a 593d 1ad2 4e3d
000002d0: 6b83 423b ead5 453d 44dd ecbb c671 973c
000002e0: a9c9 d0bc 3151 013d 71f8 a3bc 50af 89bb
000002f0: 000e dfbc 705c 693d 9446 d0bc f8fe 303d
00000300: 19c2 3d3d 8c76 22bd 8825 293d 1405 00bd
00000310: 1bdc 0ebd ebe2 bdbc b869 b1bc 722a 513d

weight f4 [200, 200]
0.084478706 -0.09001504 -0.12353524 -0.038440544 0.031072121 -0.03812538 0.073902935 0.07236943
0.031651914 -0.017722521 0.11984269 0.028969977 -0.07108246 -0.039462596 -0.066296846 0.09972744
-0.27661654 -0.048280332 0.03368752 0.019499142 -0.055140458 -0.024966355 0.11168977 -0.109648205
0.13161546 0.17423145 -0.10232993 -0.13131936 -0.13885531 0.07582137 -0.10322777 0.07193131
0.015514084 0.17279267 -0.08549471 0.0715417 0.08432257 -0.085662715 0.16144231 -0.003683037
-0.085508645 0.112113364 -0.13281436 0.035395037 -0.02373605 -0.06537358 -0.13157655 -0.06006796
0.010466911 0.012628309 -0.016479377 -0.030811727 0.2013146 -0.02824911 -0.10819809 0.10483761
0.061604075 -0.02016235 -0.068640634 0.039216116 -0.08009213 -0.09372527 0.12830625 -0.0327692
0.060510892 0.06852089 0.06599826 0.14405876 -0.0003986143 0.0037167463 0.18899138 0.0394929
0.16812773 -0.40096226 -0.051617876 0.10854785 -0.07109924 -0.111536495 -0.1144314 -0.07293982
-0.0074988008 -0.009892455 0.253676 0.14198184 -0.025354682 0.017332654 -0.1340464 0.019037526
0.08034009 -0.20482202 -0.1424082 -0.0023411317 0.012565332 -0.11509923 0.11021451 -0.0047232984
-0.14347596 -0.06603605 0.17203718 0.06851892 -0.121353626 -0.013388672 -0.13381526 -0.14125709
-0.066877834 0.22145073 0.08719025 0.13003303 -0.08919048 0.044287976 0.06469137 0.14086494
0.030205145 0.14319715 -0.18183632 -0.054051723 0.08196514 -0.027695857 0.029908244 0.047474716
0.1215664 -0.08780102 0.051359255 0.03299419 -0.26151285 0.16023494 0.13868238 0.22685125
0.22046517 0.07510328 0.030316953 0.10476675 -0.011560933 0.15763366 0.105400234 -0.013125174
0.015784314 0.28259736 -0.112435915 -0.105767034 -0.00016531766 -0.115180224 -0.028952941 -0.17272535
0.17318222 0.24767792 -0.082522966 -0.094051346 0.0058265054 0.12417592 0.066747 0.05036703
0.032318857 0.09356718 0.00016169283 0.064506605 0.083744675 0.008513784 0.20500807 -0.3258663
0.009515855 -0.07607523 -0.031592887 0.19447 -0.09740031 -0.006794991 -0.09274437 0.11311304
0.0773977 0.021989802 -0.0025732652 0.05696982 -0.030567542 0.19507344 0.018482348 0.045975465
-0.18222134 0.007936913 -0.011935366 -0.14112817 -0.066915445 -0.2403747 -0.17207569 0.019050313
0.11374102 0.07274191 -0.18514486 -0.33317795 -0.13480562 -0.14619423 0.012950137 -0.033029202
-0.09229788 0.101597264 0.12852323 -0.11672504 -0.12281953 0.22320884 -0.1469694 -0.16804017
-0.10786581 0.14552656 -0.1473025 -0.14714737 0.07906766 0.175829 0.13563865 -0.12084328
-0.024038855 0.05138362 0.13786288 0.08030588 -0.015691932 0.15210725 -0.1063014 -0.29062954
-0.022060728 -0.058976702 0.036873154 -0.011844896 0.1324032 -0.086363 -0.054306 -0.14757393
0.012643815 0.01774361 0.10140915 -0.35940054 -0.10142983 0.055531833 -0.13441567 0.08813939
-0.047878265 0.13348359 0.01091439 -0.0886773 -0.022254307 0.094612256 -0.030035865 -0.0950718
0.011475578 -0.0012937048 -0.0652718 0.105143055 0.12255116 0.04302569 -0.17962612 -0.09782895
-0.25449207 0.07177261 -0.011277295 -0.024732739 -0.031589225 -0.056585833 -0.11841725 0.052990478
00000000: 2c03 ad3d ce59 b8bd 0b00 fdbd d573 1dbd
00000010: f68a fe3c 5c29 1cbd 6c5a 973d 6c36 943d
00000020: 70a5 013d d22e 91bc 1670 f53d 7252 ed3c
00000030: ae93 91bd 88a3 21bd a4c6 87bd e63d cc3d
00000040: afa0 8dbe 99c1 45bd edfb 093d aabc 9f3c
00000050: f6da 61bd 3e86 ccbc 9bbd e43d 3d8f e0bd
00000060: 34c6 063e bb69 323e 5b92 d1bd 9578 06be
00000070: 1630 0ebe 3c48 9b3d 1569 d3bd b950 933d
00000080: c92e 7e3c 90f0 303e da17 afbd 7484 923d
00000090: 50b1 ac3d ef6f afbd 2251 253e 1b5f 71bb
000000a0: 281f afbd b19b e53d 7d00 08be 63fa 103d
000000b0: 1b72 c2bc 95e2 85bd 01bc 06be d209 76bd
000000c0: 687d 2b3c f8e6 4e3c c2ff 86bc e068 fcbc
000000d0: 6a25 4e3e ad6a e7bc f696 ddbd 1ab5 d63d
000000e0: 8e54 7c3d 832b a5bc 7693 8cbd 14a1 203d
000000f0: 5807 a4bd 09f3 bfbd b762 033e ff38 06bd
00000100: 45da 773d ae54 8c3d 192a 873d 2484 133e
00000110: 1bfd d0b9 a894 733b f586 413e 4fc3 213d
00000120: ad29 2c3e ed4a cdbe 446d 53bd 564e de3d
00000130: 7a9c 91bd 3f6d e4bd 035b eabd 7961 95bd
00000140: 80b8 f5bb f713 22bc d2e1 813e b063 113e
00000150: 9fb4 cfbc 36fd 8d3c 7643 09be 96f4 9b3c
00000160: 5889 a43d ddbc 51be 75d3 11be ac6d 19bb
00000170: d3de 4d3c 25b9 ebbd 25b8 e13d e6c5 9abb
00000180: 5deb 12be e93d 87bd 842a 303e a653 8c3d
00000190: 4088 f8bd 295c 5bbc de06 09be b3a5 10be
000001a0: 3ff7 88bd fbc3 623e cd90 b23d 6127 053e
000001b0: 80a9 b6bd 4f67 353d e97c 843d e63e 103e
000001c0: c870 f73c 46a2 123e 4d33 3abe 5765 5dbd
000001d0: 57dd a73d 6ce2 e2bc 2202 f53c d974 423d
000001e0: cef7 f83d 05d1 b3bd 155e 523d ea24 073d
000001f0: 03e5 85be a114 243e c102 0e3e b24b 683e
00000200: 9fc1 613e c0cf 993d 425b f83c f38f d63d
00000210: 116a 3dbc b86a 213e 14dc d73d f80a 57bc
00000220: 1b4e 813c 9ab0 903e cd44 e6bd 639c d8bd
00000230: 1f59 2db9 9ce3 ebbd b82e edbc eade 30be
00000240: ae56 313e 489f 7d3e cd01 a9bd fe9d c0bd
00000250: 45ec be3b f24f fe3d a7b2 883d a94d 4e3d
00000260: c760 043d 26a0 bf3d 178c 2939 0a1c 843d
00000270: 5482 ab3d 667d 0b3c a3ed 513e f3d7 a6be
00000280: 64e8 1b3c 55cd 9bbd 8b67 01bd 2523 473e
00000290: d079 c7bd 84a8 debb c3f0 bdbd cfa7 e73d
000002a0: af82 9e3d f523 b43c 3aa4 28bb 3059 693d
000002b0: c868 fabc 55c1 473e 4b68 973c c550 3c3d
000002c0: 3b98 3abe d309 023c 8e8c 43bc e783 10be
000002d0: f70a 89bd c924 76be 9c34 30be 670f 9c3c
000002e0: 0df1 e83d b6f9 943d 9d96 3dbe 4d96 aabe
000002f0: 7c0a 0abe f1b3 15be d02c 543c a149 07bd
00000300: ac06 bdbd 3a12 d03d 989b 033e 8a0d efbd
00000310: ce88 fbbd dc90 643e 257f 16be b912 2cbe
00000320: c0e8 dcbd ea04 153e 77d6 16be cdad 16be
00000330: 3aee a13d 840c 343e dce4 0a3e ae7c f7bd
00000340: 22ed c4bc a177 523d ed2b 0d3e 6977 a43d
00000350: 5e8c 80bc 01c2 1b3e 8cb4 d9bd 65cd 94be
00000360: b3b8 b4bc 8e91 71bd 4e08 173d 1811 42bc
00000370: b494 073e 16df b0bd f86f 5ebd 9f1d 17be
00000380: 0128 4f3c 0c5b 913c 9aaf cf3d 5903 b8be
00000390: 71ba cfbd 5975 633d 43a4 09be 6d82 b43d
000003a0: 001c 44bd ecaf 083e 45d2 323c 729c b5bd
000003b0: aa4e b6bc 12c4 c13d c60d f6bc 01b5 c2bd
000003c0: 1004 3c3c 8891 a9ba 39ad 85bd 3e55 d73d
000003d0: 1afc fa3d b53b 303d e9ef 37be 8b5a c8bd
000003e0: c94c 82be 85fd 923d 67c4 38bc 509c cabc
000003f0: b463 01bd 8cc6 67bd be84 f2bd 8b0c 593d

bias f4 [200]
-0.04925194 0.034854423 -0.023646897 0.010830346 -0.006787894 0.050261453 -0.040039368 0.03928107
0.026651302 0.06891178 -0.020300273 0.064713515 -0.012941957 -0.02992791 -0.040312894 0.028482398
-0.02382717 0.005900327 -0.026685817 0.04702673 -0.030710539 -0.0314552 0.025853792 -0.030475613
-0.0074129645 -0.01561402 0.0018391124 -0.010176478 -0.03438387 -0.037915204 0.028758379 0.02828343
0.005065617 0.022254203 -0.0034432064 -0.032154933 -0.014918845 0.0031488982 -0.016833358 -0.019351097
-0.02571337 0.024136322 0.06595464 -0.00717472 -0.0138458405 -0.035728965 0.0008403004 0.033631418
0.0010214403 0.05265632 0.039890047 -0.038930237 -0.01025554 -0.02379563 -0.017358588 -0.02934192
0.05007113 -0.034427892 0.04321269 -0.050840583 -0.018441372 0.03152244 0.02663115 0.03307486
0.0010896537 0.0022943178 -0.0071254647 0.039509844 -0.023462594 -0.019996608 -0.025400989 -0.030400656
0.007602734 0.032848217 -0.017110147 -0.036828917 0.021137819 -0.012542805 -0.028188782 -0.008089634
-0.03841506 0.028597169 -0.010201054 -0.0154415155 -0.040972095 0.032608036 -0.024027396 -0.0042260084
-0.028292483 -0.019587051 -0.021704178 -0.047590982 0.0020525188 0.040695455 -0.037703257 0.0028086782
0.0014948737 0.025154453 -0.017935157 0.042101737 -0.03946399 0.07367992 -0.006154185 0.03762359
-0.04166407 -0.022927497 -0.010801938 -0.042171974 -0.03376364 -0.011631529 -0.006018541 0.017128468
-0.030013116 -0.04026897 -0.038959548 0.016663218 -0.0190411 -0.00979067 0.0070079067 0.001399134
0.027081909 -0.046692874 -0.007701202 3.971019e-05 -0.013337471 -5.908064e-05 0.02455037 0.030122638
-0.011051922 -0.032386567 0.061190408 -0.0077267652 0.0290515 -0.015094034 0.016108604 0.045377787
0.041329194 -0.03836539 0.013910946 -0.025615698 -0.00392871 0.03883841 0.050019417 -0.0021915925
0.02214285 0.049192093 -0.0010845151 -0.019036414 0.0074900477 -0.0030612187 0.038149133 -0.005600867
-0.023637278 -0.007903121 0.039596226 0.043476928 0.025082495 0.008461181 -0.011102765 -0.03350216
-0.043191023 0.006199946 -0.041597515 -0.0086511085 0.023624903 0.047708273 0.011268391 -0.008988533
0.03812735 0.013780062 -0.038453404 -0.034760173 0.015154889 0.050439253 -0.023748647 0.04564539
-0.033764895 -0.009917559 -0.010297032 -0.025166478 -0.011363725 0.013428404 -0.005496222 0.051021587
-0.004498909 0.039487835 -0.005103643 -0.013253337 -0.020525534 0.0041922 -0.0027381892 -0.0124785835
-0.030142566 -0.007972743 0.010990939 -0.02565521 -0.022955535 -0.018738257 -0.0138914315 0.025368368
00000000: 67bc 49bd 83c3 0e3d 23b7 c1bc c371 313c
00000010: fb6c debb f4de 4d3d 5200 24bd 30e5 203d
00000020: d553 da3c 9f21 8d3d c24c a6bc 8588 843d
00000030: 810a 54bc 602b f5bc 221f 25bd eb53 e93c
00000040: 3231 c3bc 8857 c13b 379c dabc 1a9f 403d
00000050: ab94 fbbc 2bd7 00bd 55cb d33c fea7 f9bc
00000060: 74e8 f2bb f2d1 7fbc 5f0e f13a 3ebb 26bc
00000070: 1ad6 0cbd f94c 1bbd b196 eb3c a7b2 e73c
00000080: 7afd a53b 724e b63c 6ba7 61bb e4b4 03bd
00000090: 2c6e 74bc bf5d 4e3b 1ce6 89bc 3186 9ebc
000000a0: d8a4 d2bc 89b9 c53c 3a13 873d ea19 ebbb
000000b0: aad9 62bc 8958 12bd 9b47 5c3a 19c1 093d
000000c0: d9e1 853a 27ae 573d bf63 233d 5075 1fbd
000000d0: da06 28bc 0eef c2bc 9933 8ebc 775e f0bc
000000e0: 6317 4d3d 4304 0dbd caff 303d 373e 50bd
000000f0: 5c12 97bc ad1d 013d 9229 da3c 8179 073d
00000100: b6d2 8e3a 445c 163b bb7c e9bb 13d5 213d
00000110: a034 c0bc edcf a3bc bc15 d0bc cc0a f9bc
00000120: 5b20 f93b da8b 063d 942a 8cbc ebd9 16bd
00000130: 3829 ad3c 5680 4dbc 29ec e6bc 628a 04bc
00000140: 1c59 1dbd 9c44 ea3c 5222 27bc 69fe 7cbc
00000150: 5bd2 27bd 0190 053d 1ad5 c4bc 547a 8abb
00000160: a3c5 e7bc 0675 a0bc f6cc b1bc c3ee 42bd
00000170: 8d83 063b 47b0 263d bb6e 1abd cd11 383b
00000180: a3ef c33a b610 ce3c c0ec 92bc df72 2c3d
00000190: fea4 21bd 7fe5 963d 0ca9 c9bb 321b 1a3d
000001a0: f2a7 2abd 72d2 bbbc 9dfa 30bc 85bc 2cbd
000001b0: be4b 0abd 2b92 3ebc 2e37 c5bb 0051 8c3c
000001c0: 11de f5bc 13f1 24bd 0c94 1fbd 4d81 883c
000001d0: 15fc 9bbc 0c69 20bc 95a2 e53b 2663 b73a
000001e0: e1da dd3c 0741 3fbd 5d5a fcbb 7e8e 2638
000001f0: 6885 5abc 5bcd 77b8 dc1d c93c c0c3 f63c
00000200: 1f13 35bc c7a7 04bd cba2 7a3d ce30 fdbb
00000210: 69fd ed3c f84c 77bc 31f6 833c 0fde 393d
00000220: cd48 293d 0725 1dbd bdea 633c 03d8 d1bc
00000230: 68bc 80bb 0615 1f3d 29e1 4c3d d2a0 0fbb
00000240: ec64 b53c a67d 493d 4a26 8eba 41f2 9bbc
00000250: 136f f53b ba9e 48bb 4442 1c3d 7a87 b7bb
00000260: f7a2 c1bc 187c 01bc a72f 223d dd14 323d
00000270: ce79 cd3c c4a0 0a3c 5fe8 35bc 9039 09bd
00000280: 12e9 30bd eb28 cb3b 2862 2abd 61bd 0dbc
00000290: 0389 c13c c069 433d 0f9f 383c a444 13bc
000002a0: 6d2b 1c3d c5c5 613c 5181 1dbd af60 0ebd
000002b0: 364c 783c 6499 4e3d 868c c2bc a9f6 3a3d
000002c0: 0f4d 0abd 427d 22bc e2b4 28bc ee29 cebc
000002d0: eb2e 3abc cf02 5c3c a719 b4bb 03fc 503d
000002e0: 966b 93bb ffbd 213d 763c a7bb 8624 59bc
000002f0: 2a25 a8bc b95e 893b 3173 33bb f972 4cbc
00000300: 8bed f6bc 1ca0 02bc 5713 343c e02a d2bc
00000310: 3f0d bcbc f980 99bc e398 63bc 53d1 cf3c

weight f4 [200, 200]
0.02440635 -0.049471956 0.083718926 0.067351386 -0.083793014 0.02232861 0.16671927 -0.1408895
-0.012050501 0.05704973 0.0847521 -0.12079704 0.0334394 -0.0063371668 0.01423998 0.15096514
0.29485193 0.029525796 -0.19806354 0.0012305193 0.09785908 -0.03134699 0.058647957 -0.102520056
0.0963718 0.007492256 0.18114653 0.07757411 0.013776958 -0.053505648 0.013024529 0.12565418
-0.00019664173 0.053851027 -0.08870838 -0.069314435 -0.10779918 0.07946197 -0.010068085 -0.28100863
-0.030781789 0.057988405 0.15583672 0.116767116 0.059671476 0.1881335 0.06523744 -0.08034076
-0.13284044 0.0763231 -0.17956345 0.066195 0.10015541 -0.0010000231 -0.10454821 -0.010408773
-0.0357103 -0.030619012 -0.06280434 -0.043097727 -0.0049180994 0.054476462 0.04936158 0.068438046
0.08014532 0.050706442 0.037517924 -0.06604106 0.10863295 -0.055250168 -0.02407127 -0.14956076
0.039403617 -0.065235816 0.116166115 0.13111524 -0.11808916 0.043249648 0.10478913 0.020637376
-0.1535557 0.029757192 -0.07101628 -0.03822501 -0.03560159 -0.14687191 0.024244277 -0.05311611
0.011138221 -0.122650675 0.063512795 -0.10385507 -0.0045591323 -0.002798407 0.030628504 -0.17143863
0.14319116 0.1261572 -0.044452783 -0.0735177 -0.034041207 -0.06581861 -0.09449365 0.043694075
-0.02863479 -0.1665156 -0.08392675 0.17430244 0.015927732 0.02453069 -0.25886694 0.10330598
-0.018386204 0.05842733 0.14441536 0.19175206 -0.046493877 -0.004101928 -0.14832076 -0.12595154
0.029135128 -0.039668113 -0.020485124 -0.06399657 0.07592181 0.14163573 -0.046110716 -0.029269574
-0.12267763 0.041695658 -0.12829943 -0.04681306 0.014976518 -0.015752882 0.0065268883 0.07559279
0.21041174 -0.06533468 0.10495815 -0.071198456 -0.076480515 0.011523067 0.12175542 0.10482251
-0.10625955 -0.039136816 0.08478842 0.032666262 -0.13173988 0.11613777 -0.10319864 0.043049075
0.0005480545 0.030183673 0.13193601 0.107882224 0.08776298 0.011027007 -0.0901462 0.042799085
-0.0794596 0.07914488 -0.03547265 -0.019254355 0.1679269 0.023619708 0.044136245 0.06892718
-0.043629173 -0.1565827 0.045052923 -0.027238837 0.02515541 0.32065418 0.09566342 -0.09199054
-0.04241298 0.025146708 0.042272698 0.24236104 0.059028096 0.12222131 -0.04286853 -0.053363606
0.17188498 0.0884026 0.021012692 0.18095343 0.07594558 0.12059205 0.07762349 -0.054493096
0.08232027 0.09005681 -0.09919827 -0.084561825 -0.020469869 0.16750766 -0.08294776 0.3163141
0.109782085 0.019867133 -0.04326345 0.08046813 0.08806525 0.006788053 0.13761765 -0.17078438
-0.14336105 -0.0822108 0.07602777 -0.057215683 0.2742742 -0.12411934 0.032934554 -0.072736084
0.049411368 -0.025780985 -0.17255957 -0.04610277 -0.025624655 -0.06435584 0.015419935 0.009180113
0.07452259 0.00959698 -0.015919484 -0.10385349 0.030649787 0.080169156 -0.037676543 -0.093067095
0.09053905 -0.068157226 0.02465237 -0.012752235 0.008936329 3.540349e-05 -0.022754531 0.045112062
-0.044187315 -0.03538316 0.15212831 0.11423677 -0.092452385 0.1550305 0.147895 0.13593973
0.029021705 -0.0027482894 0.0064858086 -0.04851808 0.040778767 -0.21297531 0.18565762 0.040666834
00000000: d3ef c73c 1ba3 4abd d474 ab3d 86ef 893d
00000010: ac9b abbd 7dea b63c 75b8 2a3e 5645 10be
00000020: 776f 45bc faac 693d 8292 ad3d 7064 f7bd
00000030: c1f7 083d 02a8 cfbb ce4e 693c 9b96 1a3e
00000040: d5f6 963e 15e0 f13c 2bd1 4abe 6049 a13a
00000050: 576a c83d b465 00bd d738 703d 09f6 d1bd
00000060: 945e c53d 9981 f53b 7a7e 393e 2ddf 9e3d
00000070: c0b8 613c bd28 5bbd d664 553c 7dab 003e
00000080: 9d31 4eb9 e592 5c3d bdac b5bd baf4 8dbd
00000090: d1c5 dcbd f5bc a23d 9cf4 24bc 5de0 8fbe
000000a0: 172a fcbc 4085 6d3d a993 1f3e 9923 ef3d
000000b0: 146a 743d 11a6 403e 359b 853d b289 a4bd
000000c0: 5307 08be 494f 9c3d 7bdf 37be 3f91 873d
000000d0: 481e cd3d 3513 83ba 5f1d d6bd 8f89 2abc
000000e0: f744 12bd b9d4 fabc 909f 80bd 3e87 30bd
000000f0: 0228 a1bb b622 5f3d 5e2f 4a3d 3f29 8c3d
00000100: 3b23 a43d 8fb1 4f3d 65ac 193d 8940 87bd
00000110: f47a de3d 004e 62bd 1d31 c5bc 7526 19be
00000120: b065 213d 5b9a 85bd 80e8 ed3d 1343 063e
00000130: bbd8 f1bd 8b26 313d af9b d63d b70f a93c
00000140: b53d 1dbe 5bc5 f33c fc70 91bd d491 1cbd
00000150: f9d2 11bd 9765 16be ef9b c63c 4790 59bd
00000160: 167d 363c 4730 fbbd ff12 823d f8b1 d4bd
00000170: c664 95bb 7b65 37bb a1e8 fa3c 9c8d 2fbe
00000180: b4a0 123e 5a2f 013e 1f14 36bd 7390 96bd
00000190: cb6e 0bbd e8cb 86bd e385 c1bd 8ff8 323d
000001a0: 8293 eabc 1183 2abe cae1 abbd 577c 323e
000001b0: e07a 823c 96f4 c83c 358a 84be 1692 d33d
000001c0: aa9e 96bc 7f51 6f3d 9fe1 133e a75a 443e
000001d0: 5d70 3ebd 7769 86bb 66e1 17be 71f9 00be
000001e0: cbac ee3c 087b 22bd 6bd0 a7bc a210 83bd
000001f0: e57c 9b3d f508 113e 97de 3cbd bfc6 efbc
00000200: 693e fbbd 11c9 2a3d ed60 03be 0dbf 3fbd
00000210: 1260 753c 300c 81bc 82df d53b 65d0 9a3d
00000220: 2d76 573e 30ce 85bd 4cf4 d63d 7fd0 91bd
00000230: d1a1 9cbd 3fcb 3c3c e85a f93d 2fad d63d
00000240: 9b9e d9bd ed4d 20bd 8da5 ad3d 0fcd 053d
00000250: d2e6 06be a4d9 ed3d cf59 d3bd 3a54 303d
00000260: 51ab 0f3a c043 f73c 3c1a 073e 5bf1 dc3d
00000270: 14bd b33d 9faa 343c 929e b8bd 184e 2f3d
00000280: b7bb a2bd b616 a23d c54b 11bd 4fbb 9dbc
00000290: 07f5 2b3e 1e7e c13c 35c8 343d b129 8d3d
000002a0: 81b4 32bd 3757 20be 6a89 383d fb23 dfbc
000002b0: b812 ce3c c92c a43e 2feb c33d 8965 bcbd
000002c0: 3cb9 2dbd 7800 ce3c 2326 2d3d 7e2d 783e
000002d0: 72c7 713d 2b4f fa3d e996 2fbd cc93 5abd
000002e0: 9e02 303e 6c0c b53d cf22 ac3c db4b 393e
000002f0: 5b89 9b3d f7f8 f63d 10f9 9e3d 2734 5fbd
00000300: 8897 a83d b46f b83d 7628 cbbd c02e adbd
00000310: 6db0 a7bc 2187 2b3e 84e0 a9bd ecf3 a13e
00000320: 6ed5 e03d 66c0 a23c 0435 31bd 7acc a43d
00000330: 8e5b b43d 516e de3b a4eb 0c3e 1ae2 2ebe
00000340: 3dcd 12be 235e a8bd 73b4 9b3d fe5a 6abd
00000350: ab6d 8c3e 4832 febd 62e6 063d a8f6 94bd
00000360: 9363 4a3d a532 d3bc 75b3 30be 42d6 3cbd
00000370: ccea d1bc ffcc 83bd e5a3 7c3c 2f68 163c
00000380: 4d9f 983d a73c 1d3c 9469 82bc 23b1 d4bd
00000390: 4315 fb3c ba2f a43d b852 1abd f699 bebd
000003a0: 8a6c b93d 0496 8bbd c4f3 c93c c0ee 50bc
000003b0: ae69 123c 357e 1438 b667 babc 6dc7 383d
000003c0: c2fd 34bd efed 10bd 86c7 1b3e f8f4 e93d
000003d0: ad57 bdbd 51c0 1e3e c971 173e c933 0b3e
000003e0: edbe ed3c a51c 34bb e886 d43b e5ba 46bd
000003f0: a307 273d 3316 5abe 081d 3e3e 4492 263d

bias f4 [200]
0.02197382 -0.017764652 -0.0012289891 -0.013106529 0.0025731146 -0.03666143 -0.029706068 -0.032518893
0.049927767 -0.011885916 0.040254574 -0.01753942 0.00822229 0.00257924 -0.004006366 0.048730925
-0.016662804 -0.0045243166 -0.0081794085 0.028745828 -0.028082268 -0.02148988 -0.009678965 -0.04796727
-0.032625236 -0.0006144011 -0.0030065298 -0.04026522 0.029094312 0.0144428015 -0.00667217 -0.033115715
0.0015385201 -0.008643466 -0.012201577 0.0101523865 0.04836155 -0.007444689 0.015325309 0.0009789086
-0.0024367427 -0.018515283 -0.012571851 0.023663336 0.00011013475 0.0053653684 -0.017873455 -0.0024903915
-0.012278698 0.017411675 0.026322022 0.055527404 -0.0033121586 -0.042059634 -0.036339402 3.8667753e-05
-0.0059851287 -0.0328033 -0.0047958465 -0.021220718 -0.045964684 -0.012762398 -0.0043127686 -0.028396757
-0.024002424 0.041296504 -0.025328578 0.010969884 -0.0019750881 0.006947437 -0.047962982 0.007980725
-0.0006255307 -0.02505594 -0.024075393 -0.036638945 -0.043594863 -0.007953199 0.028152278 -0.032361392
0.040804166 -0.014717303 -0.033796523 0.00089776196 0.0336373 -0.03485385 -0.02740718 -0.02290556
-0.004781325 0.0151264835 -0.01921858 -0.035152037 -0.021853214 0.035580177 -0.02112212 -0.026998138
-0.026192697 -0.021524256 0.0034222347 0.016015379 -0.036069438 -0.013398007 -0.022287639 -0.0433453
-0.015443748 0.0067163697 -0.02116716 0.0555934 0.00032654556 -0.03379748 -0.027752459 0.03193852
0.0033040342 0.03029421 -0.024832455 -0.024543963 -0.015052238 0.029330788 -0.002646257 -0.02770904
-0.007064753 -0.004912629 0.048251137 0.022321597 0.031170512 0.028690606 0.01356741 0.0037712846
-0.018009443 0.03422987 -0.00062090775 -0.026913885 0.033443358 0.014704023 -0.022882925 -0.021514377
-0.041002132 -0.015937313 -0.0037536302 0.011612332 -0.008762445 -0.018452814 0.0029787628 0.0021741646
-0.012366322 0.0067756944 -0.042189922 -0.010226227 -0.026353674 0.019286819 -0.0371462 -0.05513306
-0.023667548 -0.006196285 -0.017028049 -0.005750783 0.037424177 -0.012577869 -0.010579514 -0.00061472476
-0.016467907 0.012569413 -0.00636366 0.0065199733 0.00978487 -0.0049705803 -0.024080688 -0.008973677
-0.010903437 0.011543787 -0.012092372 -0.0071259793 -0.03983539 -0.0024713366 0.0051285643 -0.011860548
-0.01044051 0.011441294 -0.029400868 -0.007976679 0.004121713 -0.0054346663 0.039255466 -0.010385322
0.008989939 0.00088945543 0.041174334 -0.019973837 -0.025487693 -0.011681247 0.0017592775 -0.036422532
-0.0039719567 -0.021221481 0.005802875 -0.009100189 0.040956188 -0.005419253 -0.051732782 -0.0064064786
00000000: 7102 b43c 2d87 91bc 0816 a1ba c4bc 56bc
00000010: b3a1 283b 4c2a 16bd 245a f3bc 8832 05bd
00000020: 0f81 4c3d 25bd 42bc fbe1 243d d4ae 8fbc
00000030: c9b6 063c 7708 293b d547 83bb 149a 473d
00000040: 6f80 88bc b840 94bb ed02 06bc 5f7c eb3c
00000050: c90c e6bc 8b0b b0bc 8694 1ebc 5479 44bd
00000060: 0aa2 05bd c30f 21ba 3309 45bb 25ed 24bd
00000070: 3257 ee3c 80a1 6c3c 38a2 dabb 58a4 07bd
00000080: 2ba8 c93a 539d 0dbc 20e9 47bc 3256 263c
00000090: c316 463d 94f2 f3bb 0117 7b3c b94e 803a
000000a0: c2b1 1fbb 5dad 97bc 2afa 4dbc 9dd9 c13c
000000b0: 25f8 e638 f9cf af3b 5a6b 92bc d635 23bb
000000c0: 982c 49bc eea2 8e3c 48a1 d73c b470 633d
000000d0: cd10 59bb b946 2cbd a0d8 14bd 2f2f 2238
000000e0: e61e c4bb c15c 06bd 7a26 9dbb 12d7 adbc
000000f0: 7745 3cbd 6119 51bc 2052 8dbb 51a0 e8bc
00000100: bba0 c4bc 8626 293d e17d cfbc 07bb 333c
00000110: 7b70 01bb 53a7 e33b d574 44bd 96c1 023c
00000120: a8fa 23ba 1d42 cdbc c239 c5bc b812 16bd
00000130: 8790 32bd 224e 02bc 9b9f e63c 618d 04bd
00000140: 4522 273d d820 71bc 396e 0abd c957 6b3a
00000150: 44c7 093d e9c2 0ebd 0685 e0bc 71a4 bbbc
00000160: a9ac 9cbb 12d5 773c 4970 9dbc 95fb 0fbd
00000170: 8305 b3bc 85bc 113d 4c08 adbc 332b ddbc
00000180: 1192 d6bc a353 b0bc 9247 603b af32 833c
00000190: 8cbd 13bd 5083 5bbc 9194 b6bc d78a 31bd
000001a0: c607 7dbc fe14 dc3b c066 adbc e8b5 633d
000001b0: 3434 ab39 3a6f 0abd 2059 e3bc f7d1 023d
000001c0: 7f88 583b 902b f83c 6f6d cbbc 6c10 c9bc
000001d0: a99d 76bc 1f47 f03c d36c 2dbb 12fe e2bc
000001e0: 727f e7bb 1efa a0bb fca2 453d c8db b63c
000001f0: 4d59 ff3c 9008 eb3c d849 5e3c a827 773b
00000200: 8a88 93bc 9f34 0c3d 6ac4 22ba 827a dcbc
00000210: e7fb 083d 24e9 703c f974 bbbc eb3e b0bc
00000220: daf1 27bd f88e 82bc 77ff 75bb a741 3e3c
00000230: 5c90 0fbc 5b2a 97bc 5937 433b 6e7c 0e3b
00000240: 1d9c 4abc a506 de3b 57cf 2cbd e88b 27bc
00000250: a9e3 d7bc 64ff 9d3c 9d26 18bd 34d3 61bd
00000260: 72e2 c1bc 350a cbbb 687e 8bbc 1071 bcbb
00000270: 184a 193d 6813 4ebc b355 2dbc 7b25 21ba
00000280: b4e7 86bc f0ef 4d3c 4086 d0bb 80a5 d53b
00000290: b850 203c 40e0 a2bb dd44 c5bc 5406 13bc
000002a0: 54a4 32bc 2722 3d3c 161f 46bc 0c81 e9bb
000002b0: 6f2a 23bd 26f6 21bb 840d a83b be52 42bc
000002c0: ac0e 2bbc 4474 3b3c 17da f0bc 9eb0 02bc
000002d0: 6f0f 873b 4915 b2bb 57ca 203d 3327 2abc
000002e0: 894a 133c 582a 693a 6ba6 283d 2ca0 a3bc
000002f0: 91cb d0bc b362 3fbc 8f97 e63a cb2f 15bd
00000300: 3027 82bb acd8 adbc 0b26 be3b f618 15bc
00000310: adc1 273d fd93 b1bb c1e5 53bd 70ed d1bb
